model_ckpts/cric_prediction_cumsum.pth (torch_old, 71239 bytes, 6 tensors)

lstm_cell.weight_ih f4 [256, 2]
000000 c9 0b b8 3c 78 3f 26 3e 51 5d a6 3e 64 5a 89 3e
       0.022466557 0.16235149 0.3249307 0.26826775
000010 0c 65 10 bd 3c 7b c6 3d 65 db 64 bd d1 46 c8 bd
       -0.035252616 0.09691474 -0.055873293 -0.09779132
000020 0e 9a 50 3d 5d d9 1e be de 3a 1b 3e c1 f4 77 bd
       0.050928168 -0.15512605 0.15159175 -0.06053615
000030 74 02 b2 bd b2 cb 57 bd bf dd 7e be f8 84 1b be
       -0.08691874 -0.052684493 -0.24889277 -0.15187442
000040 16 47 19 be 41 53 52 bc 58 40 f0 3c 26 1b d7 3d
       -0.14968523 -0.012837232 0.029327556 0.10503225
000050 04 bf 2b 3d f2 f9 a7 bd 59 25 45 be c8 f6 e5 bd
       0.041930214 -0.0820197 -0.19252528 -0.112287104
000060 0b ee 72 3e c6 16 18 be ab b8 08 3e 89 c2 d9 bd
       0.23723619 -0.14852437 0.13351695 -0.10632808
000070 a8 b5 2d 3e 26 b6 09 be 47 2e ba 3d 10 de f2 bd
       0.16963828 -0.1344839 0.09090858 -0.11858761
000080 00 9f 6d 3e 13 a2 58 3e b4 45 d3 3d 4b b2 9b 3c
       0.23205185 0.21155576 0.10316029 0.019005915
000090 69 d8 c3 bd 95 84 50 be 2c c0 9b 3e e0 19 68 3e
       -0.09562761 -0.20363076 0.30420053 0.2266612
0000a0 ce 47 55 3e e1 af a3 bd 82 5e 99 bc 16 18 e1 bc
       0.20828173 -0.079925306 -0.018721823 -0.027477305
0000b0 1a 09 0e be 58 75 30 be fd c9 9e bd 1c a3 87 bd
       -0.1387066 -0.17232263 -0.0775337 -0.066229075
0000c0 8e 19 5f 3e c1 35 3d bc 63 88 a3 3e b6 43 8a 3e
       0.21787092 -0.01154846 0.31939992 0.27004784
0000d0 b4 c3 8f bd 97 4d b7 3d 1a 4a 4f 3d 13 f6 e9 bd
       -0.07019749 0.08950346 0.050607778 -0.11423888
0000e0 b0 b5 92 bd 82 a8 ba bd 8a ac 9d 3e 26 0b 00 bd
       -0.071635604 -0.091141716 0.307957 -0.031260632
0000f0 38 22 8a 3e 27 32 b1 bd f4 98 aa be ed 90 90 3d
       0.26979232 -0.08652144 -0.3331982 0.070588924
000100 3e aa 00 3e b4 ed e6 bd 06 35 7a bd 1e e3 7b be
       0.12564942 -0.11275807 -0.061085723 -0.24598357
000110 41 f7 11 3d 04 c1 45 3e bb ef 08 3e 71 8c 53 be
       0.03563619 0.19311911 0.133727 -0.20659043
000120 5c bc aa 3e b6 e7 d6 bd d7 2c fc bd 9d 57 15 3e
       0.33346832 -0.10493414 -0.1231324 0.14584203
000130 45 b9 bb bd 2b 49 3a 3e ec 8f c7 3a 09 0b a9 3d
       -0.09166197 0.18191974 0.0015225387 0.08254058
000140 11 28 0c 3d 67 9e 48 3e 46 ba 9d 3b b2 33 4a 3e
       0.034217898 0.19591676 0.0048134653 0.19746283
000150 c3 d3 5c 3e 12 8d 57 3d 0b 2b d1 bd a9 1b 1b bb
       0.21565156 0.05262477 -0.10213288 -0.002366761
000160 fa 86 ca 3e d2 81 75 3e ba 70 fa 3b d3 05 8b 3d
       0.39556104 0.23975304 0.0076428326 0.0678822
000170 bf 76 69 3e 62 04 71 3e d3 92 82 3e 40 c6 84 3e
       0.22799204 0.23536828 0.25502643 0.25932503
000180 f4 b4 83 3d ac b3 aa bd f9 f9 dc bc 98 f5 3b be
       0.064309984 -0.08335051 -0.026974665 -0.18355405
000190 52 54 87 bc 89 ed e0 3d 23 33 8f bc 6c ad f0 bd
       -0.0165197 0.10982806 -0.017480439 -0.117518276
0001a0 7b 47 59 3e a9 18 1b be 49 b2 b1 3e f5 6a e8 bd
       0.21218674 -0.15146126 0.34706333 -0.113485254
0001b0 53 58 5b 3e 3b 9b 03 be 3e b0 68 3d 9c 52 5c bd
       0.21420412 -0.12852184 0.056808703 -0.05378972
0001c0 b8 1a ed bb d0 7c 17 3e a9 34 13 3e 18 e5 41 3e
       -0.007235851 0.14793706 0.14375557 0.18935049
0001d0 03 23 d9 bc 1a 48 5e be 7f 8c 87 3d 0d 19 33 3e
       -0.026505953 -0.21707192 0.066185944 0.17490025
0001e0 26 69 5b bc 35 4f 88 bd db dc b8 3d da bc 21 bd
       -0.013391769 -0.066557325 0.090265 -0.039486744
0001f0 5e 1a 9d 3e 49 38 11 3e 5c a4 ea bd cd d4 28 3d
       0.3068418 0.14181627 -0.1145713 0.041218568
000200 20 d9 89 bd a3 1d 18 3e 2c 2a cf 3d b1 0f c7 3d
       -0.067308664 0.14855056 0.101154655 0.0971979
000210 24 c1 96 bd b2 74 ac bd 46 a4 46 3e 1e 11 2f 3b
       -0.073610574 -0.08420695 0.19398603 0.0026713083
000220 b8 cb b1 bd 02 3c a8 bb e7 cb 50 3e 9e 89 82 3c
       -0.086814344 -0.0051341066 0.20390283 0.015934762
000230 45 ef 5a bc db 87 c8 bc f2 81 3c be dc 87 12 be
       -0.01336271 -0.024478843 -0.18408945 -0.14309639
000240 35 1d c1 bd 16 57 3e be ed c9 83 be b7 46 ef 3c
       -0.09429399 -0.18587908 -0.25739995 0.029208524
000250 e1 59 3b 3e ac 61 2c bd 05 50 cf bd 6d af be bd
       0.18296005 -0.042085335 -0.101226844 -0.093108036
000260 0d 7c 9c 3e 27 0d af bd fb 63 24 3e 18 a4 0f 3e
       0.30563393 -0.085474305 0.16053765 0.1402744
000270 5a 47 b2 3d eb 5a 91 bd 12 ca 85 bd 77 47 f9 bd
       0.087050155 -0.07097419 -0.065326825 -0.12171834
000280 d6 a2 e0 3d 14 00 10 3e 39 8e d8 3d 2a 0e e4 3c
       0.109685585 0.1406253 0.10574002 0.027838785
000290 a7 b7 20 3e d8 f2 9f bd 01 44 ec bd 3c 7b 36 3e
       0.15695058 -0.07809991 -0.11536408 0.17820448
0002a0 ed dd a8 3d 82 d3 d6 3d 2f 79 37 3d 10 a9 7c 3e
       0.08245454 0.10489561 0.044793304 0.24673867
0002b0 21 a0 04 be dd 15 a4 be c9 5b 98 bd c2 6a ee bc
       -0.1295171 -0.3204793 -0.07439382 -0.02910364
0002c0 1a 6b ac bd a0 7c 7a be 59 a9 bb 3d b4 37 a6 3d
       -0.084188655 -0.24461603 0.0916316 0.08116093
0002d0 c5 0a c6 3c af 76 40 be 50 6b 90 3d 7c 91 ec 3b
       0.024175057 -0.18795274 0.07051718 0.0072194915
0002e0 63 78 1d bd 60 85 fe bc 50 ec 89 3d 1b 2e 49 be
       -0.038444888 -0.031069458 0.06734526 -0.19646494
0002f0 f7 ea 46 3e be c9 aa 3c 76 de 73 be c1 ab 8e be
       0.1942557 0.020848151 -0.23815331 -0.27865413
000300 df 1f 61 3d 22 89 e4 bb af 6f d5 bd e6 2c da bd
       0.054962035 -0.0069743553 -0.104216926 -0.10653095
000310 bc 20 87 bd 64 db 12 3e a6 35 fe 3b eb fb 2c be
       -0.065980405 0.14341503 0.0077578602 -0.16892974
000320 96 53 0c 3e c5 54 b2 3d 4e 9f 97 3c ed 87 d1 3d
       0.1370376 0.08707575 0.01850858 0.10231004
000330 92 d2 0b bd 49 c9 f3 3d 5d d1 e2 3d fc 42 be bd
       -0.034136362 0.119036265 0.11075089 -0.0929012
000340 fc d0 c6 bd ce cb da bd fa 96 09 3e f5 44 93 3d
       -0.09707829 -0.10683404 0.13436499 0.07190887
000350 65 fa 6c bd 62 e0 09 3e 49 cf e6 be af d9 e2 be
       -0.057855982 0.13464502 -0.4508002 -0.44306704
000360 78 b5 fb ba e9 43 ce 3d db e6 68 3d 46 27 51 bd
       -0.0019203862 0.100715466 0.056860786 -0.051062845
000370 ae 22 7e 3d a6 b8 1c 3d 77 bf c4 3d 3e 47 8b 3e
       0.062044792 0.038262032 0.096068315 0.2720279
000380 a1 7e 20 3d 9a 66 7d bc e5 a6 ae 3d 9a 75 8d bd
       0.039183263 -0.015466357 0.08527926 -0.06907196
000390 64 08 56 be 78 40 7f bd 15 fc 07 3e 4b 4d 20 bd
       -0.20901638 -0.06231734 0.13279755 -0.039136212
0003a0 05 3f 7e 3d 03 0e 00 bd 32 56 c5 3d d9 5f b0 3d
       0.06207182 -0.031263363 0.09635581 0.086120315
0003b0 2b b1 76 3e 7a 78 00 3d 65 b7 e0 3d a9 5e e8 bd
       0.24091022 0.031364895 0.1097248 -0.1134618
0003c0 5e 0f b4 bc d0 e8 55 3d 5f 2c 0f 3e 5e 8d 69 3e
       -0.021979984 0.05222398 0.1398177 0.22807834
0003d0 ab fb 8c bd 35 91 64 bd 10 cf 6b 3e 31 a6 2d 3d
       -0.06883939 -0.055802543 0.23028207 0.04239482
0003e0 0a fb 24 3d bb 1c c9 bc 3c f0 52 3e 78 62 92 bd
       0.040278472 -0.024549833 0.20599455 -0.07147688
0003f0 c9 2d 73 3d 22 a4 a9 bc bd 0b c0 3b 38 d9 0f be
       0.059369836 -0.020708147 0.0058607743 -0.14047706

lstm_cell.weight_hh f4 [256, 64]
000000 27 12 fc 3c 95 8a c7 3d ca e4 8a bd 6c 60 99 bd
       0.030770374 0.09743229 -0.06781919 -0.07489094
000010 5c 02 39 be f6 8c 7b 3d bc fb 20 be 39 cb c9 3d
       -0.18067306 0.061413728 -0.15721029 0.09853215
000020 80 d6 94 3e fa 26 bb bd c6 46 97 3e 0e 03 d9 bd
       0.290699 -0.091382936 0.29546183 -0.10596286
000030 7e 07 f8 3c f3 de 98 bd 37 b7 27 be fb 14 24 3c
       0.03027701 -0.07464399 -0.16378485 0.010014768
000040 9d 83 10 be c4 8f 9a be 84 c4 4d 3e 00 ca 17 be
       -0.14112706 -0.3018781 0.20094496 -0.1482315
000050 3b 66 be 3d 71 07 a3 3d 48 56 97 be 53 aa d9 3d
       0.09296843 0.07960404 -0.29558015 0.1062819
000060 85 fe 53 3e 0c d7 98 3e 9c d6 8a 3d 39 9f 30 be
       0.2070256 0.29851568 0.06779215 -0.17248239
000070 2b db f7 3d 39 c6 ae 3d 41 96 7b bd ee bc 30 bd
       0.1210235 0.08533902 -0.06142259 -0.043148927
000080 c8 b1 a9 bd 39 6d d3 bd 3d a0 6b 3b 43 b6 17 bd
       -0.08285862 -0.10323567 0.0035953664 -0.037039053
000090 47 22 41 bd 05 7a de 3d 02 83 05 3e 17 c1 f6 bd
       -0.04715183 0.10863117 0.13038257 -0.12048548
0000a0 98 92 ba 3d 8e dc 11 bd 25 74 c5 be 17 c9 2d 3e
       0.09109992 -0.035610728 -0.38565174 0.16971241
0000b0 1a e7 2a be a2 64 98 3d 45 49 ad be e0 c1 f5 38
       -0.16689721 0.07441069 -0.33844963 0.000117186224
0000c0 85 cf 15 3d 60 13 c6 3d 64 3d 95 bd 4d ce 5c 3e
       0.03657486 0.09671664 -0.072871 0.21563073
0000d0 3f 45 5b 3e ea 8f c5 3e 4b ee 32 bd 34 d7 63 bd
       0.21413134 0.3858636 -0.043684285 -0.055625156
0000e0 05 3e b4 bc d1 9e 2b be 6f ad 9c be fb 72 ad 3c
       -0.02200223 -0.16759802 -0.3060107 0.021172991
0000f0 da 1a 5b be 0d 73 9a bd c1 5d aa bc 8d c7 2a be
       -0.21396962 -0.075414754 -0.020796658 -0.16677685
000100 14 f2 1e 3e 70 7e 11 3d 0e 15 b5 be ef c5 0c be
       0.15522033 0.03552097 -0.35367626 -0.1374738
000110 f9 91 80 3d c0 6c cd be 64 6b 49 bd f8 36 f0 bd
       0.06277842 -0.40122032 -0.04917468 -0.117292345
000120 6a 7a 3c 3e 7d 86 29 bd d7 75 35 3d 0a 94 c3 bc
       0.18406072 -0.041388024 0.044301834 -0.023874301
000130 47 71 cc 3d 07 88 80 bd b6 9b 49 3d 4a c5 6d 3e
       0.099825434 -0.06275945 0.049220763 0.23219791
000140 53 d2 33 bd a9 8c 8f 3d 72 67 83 3e 36 f5 8b be
       -0.043901753 0.07009251 0.2566486 -0.2733552
000150 7e 0c 65 3c fd f5 ca 3d 67 e2 0c be 22 fd 25 be
       0.013980029 0.099102 -0.1375824 -0.16209844
000160 80 ef 10 3c 39 9e 64 3e 1e 8a 40 be f6 b3 77 3d
       0.008846164 0.22325982 -0.18802688 0.06047436
000170 84 81 27 3e 69 5e f5 bd c2 1d 8f bd e0 50 c3 be
       0.16358 -0.11980898 -0.06988098 -0.3814764
000180 b8 08 52 3e 33 6b 43 3d 1d e0 4b be cf 5e 85 3e
       0.20511138 0.047709655 -0.19909711 0.26048896
000190 b8 0d f1 bb 1c 68 68 be ad 52 c2 3d 1d 86 98 3e
       -0.0073563717 -0.22695965 0.094884254 0.2978982
0001a0 24 79 8b be cd ec 63 be d8 f8 ba bd 42 6b 81 3e
       -0.2724086 -0.22258301 -0.091294944 0.25277144
0001b0 26 ac 96 bd 95 a4 47 3e c3 95 f8 3b 34 34 97 3d
       -0.073570535 0.19496377 0.0075862124 0.07383004
0001c0 4d 3b 69 3e d7 29 43 3e b5 57 c1 bc a6 3e 3f 3d
       0.22776528 0.1905893 -0.023601392 0.046690606
0001d0 b7 01 3d bc 4b 8b 34 3b 85 a5 06 be 88 8e d0 bc
       -0.011536053 0.0027548845 -0.13149078 -0.02545859
0001e0 d1 a2 34 be 0d 60 11 3e df e4 03 3c 89 f0 2c 3d
       -0.17640235 0.14196797 0.008050173 0.04222158
0001f0 55 3e 6e 3b 30 2b 34 3e c3 26 22 3e 4f 6b 17 3d
       0.003635307 0.175946 0.15835099 0.03696757
000200 ff 0f fe bd d3 d0 21 3c 1b d7 ba 3e 53 24 27 be
       -0.12405395 0.009876448 0.36492237 -0.1632245
000210 e5 ca 53 3d b2 14 88 3d 63 fc ac bd 23 24 84 3e
       0.051707167 0.06644572 -0.084465764 0.2580882
000220 37 e0 2c be 2b ae d1 3c 00 d1 c6 bc bc 0c 2e 3d
       -0.16882406 0.025595745 -0.02426958 0.042492613
000230 ed c8 42 3e 66 90 ad 3d 77 79 9a 3d a8 c0 65 be
       0.1902196 0.084748074 0.07542699 -0.22436774
000240 0e 6a 87 be 83 56 9b 3d ec d1 27 be 3e 51 da bb
       -0.264481 0.0758486 -0.16388673 -0.006662517
000250 7c 03 7a be 23 2a e0 3d 61 73 a9 3a 85 f8 3a 3d
       -0.24415392 0.10945537 0.0012928062 0.045647163
000260 ba b3 7d be be 0c 58 3e 2d ac db 3e ba c2 15 3c
       -0.24775591 0.21098611 0.42904797 0.009140665
000270 7e d9 10 bd 74 25 c7 3d 95 b6 06 be e5 7c 06 3f
       -0.035363667 0.097239405 -0.13155587 0.52534324
000280 42 ae 5d be b6 80 a0 bd 9a 0c 2e 3e 65 e0 b7 bd
       -0.21648505 -0.0783705 0.16996995 -0.08978347
000290 3b a3 d3 3c 0f 1f 21 3e 8a 4c d1 bd e0 4b 29 3e
       0.02583467 0.15734504 -0.10219677 0.1653285
0002a0 ec 4d 88 3e 45 bf 71 3e 0a aa 46 be 2e 3a 14 be
       0.2662195 0.2360812 -0.19400802 -0.14475319
0002b0 e6 17 72 bd 94 56 b6 3d 4b a8 79 3d 28 6a df bd
       -0.059104823 0.08903232 0.060951512 -0.109089196
0002c0 8c b2 c4 bd a4 56 94 3e ea 38 f9 3e 01 9f 78 be
       -0.096043676 0.28972352 0.48676234 -0.24279405
0002d0 94 15 d2 bd 21 4d 6c be f4 48 b4 bb 66 86 04 bc
       -0.10258022 -0.23076297 -0.0055018608 -0.008088684
0002e0 47 f2 50 bd 25 b6 94 3e 16 c1 67 be 6b 48 ea bc
       -0.051012304 0.29045215 -0.2263225 -0.028598985
0002f0 80 2f e3 3d b8 41 87 be c8 9e 14 3e 4e 22 05 be
       0.11093044 -0.26417327 0.14513695 -0.13001367
000300 97 f1 69 be af 9f d5 be f3 26 79 3e 6c b6 8a bd
       -0.22846065 -0.4172339 0.24331264 -0.067730755
000310 05 4f 0a bd 5b fd 9e 3d 2c 50 8c 3d 35 72 a2 bd
       -0.033766765 0.077631675 0.06851229 -0.079319395
000320 72 c5 39 be 30 e3 2c be 5c 31 fc bd 85 f0 a6 bd
       -0.18141726 -0.1688354 -0.12314102 -0.08151344
000330 19 7d 28 3e 2c 9b 78 be 30 65 77 3d 91 27 6c 3d
       0.16453971 -0.24277943 0.060399234 0.05765492
000340 e3 86 86 3d 1f f6 ca bd d2 01 06 3d c4 de b0 3d
       0.06568696 -0.09910225 0.03271658 0.08636239
000350 1a a0 32 be cd 2e ce 3d 39 c0 97 bd 43 c3 57 3e
       -0.17443886 0.1006752 -0.074097104 0.2107058
000360 07 13 0e 3c 0c b8 80 bd 65 cd 64 3e 8a a0 e4 ba
       0.008671529 -0.06285104 0.22343977 -0.0017442864
000370 ce 17 0d bd 45 3f 2e 3e 63 ba 86 3d f1 4b e2 3c
       -0.03444653 0.17016323 0.06578519 0.027624102
000380 12 0d 7d bd 1b 9f 30 3d 98 e3 0e 3e bf 52 93 bd
       -0.061780043 0.043120485 0.13954008 -0.07193517
000390 e0 54 88 3e 26 ae 2f 3e 16 a8 0b 3c ae e2 ad bc
       0.26627254 0.17156276 0.0085239615 -0.021226253
0003a0 fd 56 af 3d 9f b5 29 3e 4a a0 b6 3d cc 2c e0 3b
       0.085615136 0.16573189 0.089172915 0.0068412777
0003b0 dd f8 8f 3c 54 e7 08 3d 8a 68 cb 3d cd 20 fc bb
       0.017574722 0.033423737 0.099320486 -0.00769434
0003c0 bd b2 95 be 3b fa 9e 3c 0d 3c 4d 3e 5d 09 21 be
       -0.2923793 0.019406429 0.20042439 -0.15726228
0003d0 29 f0 2d bb 74 9d 33 3c 81 25 51 3e 4f 85 27 3d
       -0.0026540852 0.010962833 0.20424463 0.040898617
0003e0 2d 3b 18 3e 78 69 05 bd ac 63 b8 3d b2 94 46 be
       0.14866324 -0.032571286 0.09003386 -0.1939266
0003f0 25 a0 de bd 34 82 13 3d 41 39 4c be c5 de b7 bd
       -0.10870389 0.036012843 -0.19943716 -0.08978037

lstm_cell.bias_ih f4 [256]
000000 06 af 0a be 06 ce 9a be 23 24 41 3c fc c1 27 be
       -0.13543329 -0.30235308 0.011788401 -0.16382593
000010 f7 40 ed 3c a0 81 d9 bd ba 45 fe bc fe 3f fd 3d
       0.028961642 -0.10620427 -0.031039108 0.12365721
000020 85 15 6f 3c 5a 44 8d bd 59 61 86 be 78 10 f8 3d
       0.014592533 -0.06897803 -0.26246145 0.12112516
000030 7f 3d 4b bd 2c 4b 88 be 9b 9d 79 be e0 a4 cc bd
       -0.049619194 -0.26619852 -0.24376528 -0.09992385
000040 4c f6 7f be 86 16 dd 3d d4 1f f6 bd d9 7f 25 be
       -0.24996299 0.10795312 -0.120177895 -0.16162051
000050 41 56 b7 3c fe c2 fe 3b d0 31 a7 3d 4f 02 c0 3d
       0.022379996 0.0077747097 0.08163798 0.0937544
000060 64 0e f4 ba 45 39 4a be 92 fe fc 3b ab 7f 84 be
       -0.0018620011 -0.19748409 0.007720777 -0.25878653
000070 32 51 5b be 7e 59 cc bc a5 97 20 be b3 ff cf be
       -0.21417692 -0.024945017 -0.15682848 -0.4062477
000080 c4 d3 88 be ce 0a 33 3d b6 71 a8 bd 34 09 59 bc
       -0.26724064 0.043711476 -0.08224814 -0.013246823
000090 a5 5f 94 3d 15 9b 3d bd f7 7e df 3d 75 e6 ac bd
       0.07244805 -0.046290476 0.109128885 -0.08442394
0000a0 a0 5f 72 bd 61 f0 76 bd 57 b4 8a be 34 ba 10 3e
       -0.059173226 -0.060287837 -0.27090713 0.14133531
0000b0 8a f2 bb be ce be 7d bd a0 10 a5 be 4b 18 bc be
       -0.3670848 -0.061949544 -0.32239246 -0.36737284
0000c0 d1 1d b1 bc 06 28 12 bd 32 a9 26 be cd fd 61 be
       -0.021620663 -0.0356827 -0.1627548 -0.22069474
0000d0 e2 37 e6 bd 70 d5 d4 bd 21 ab 28 be 3e c3 9b bd
       -0.112411276 -0.103922725 -0.1647153 -0.07605599
0000e0 b7 03 e8 bd 0d c4 2d be d7 b0 8d bd 6a 85 55 be
       -0.113288336 -0.16969319 -0.06918495 -0.20851675
0000f0 36 da 53 be e4 c5 79 be ce be 58 be 68 5b fc bc
       -0.2068871 -0.24391896 -0.21166536 -0.030805305
000100 e6 68 29 3e f9 6a a6 bd 88 14 23 3d e7 7a 11 be
       0.16543922 -0.08125872 0.039814502 -0.1420704
000110 6d 57 ec bc eb 1c 16 be 63 8b 1a bd 09 0b 0b bd
       -0.028850282 -0.14659469 -0.037730586 -0.03394607
000120 ee 0a 0d 3d 78 95 1a 3d c9 d3 cb bd 65 76 da bd
       0.03443425 0.0377402 -0.09952504 -0.10667113
000130 86 b1 1b be 94 51 fd bd 4c 9b 8f bd 19 dc af bd
       -0.15204439 -0.123690754 -0.070120424 -0.08586902
000140 b9 6a e7 bd 55 44 d2 3d e7 a1 3c 3c e5 79 c6 3d
       -0.112996526 0.102669396 0.01151321 0.09691218
000150 69 c7 1a be ac 41 af bc 19 72 15 3e 49 fa c8 bd
       -0.15115131 -0.02139362 0.14594306 -0.09813363
000160 e4 f0 7d 3e de be bd 3d c2 d8 2f 3c 4b 50 d8 bd
       0.24798924 0.09264921 0.010732831 -0.1056219
000170 91 a3 52 be 20 5f 51 be 90 a4 69 bd 4b 3e 92 3e
       -0.20570208 -0.20446444 -0.057041705 0.2856315
000180 71 7b 5a be 38 3a 27 3d f6 54 29 3e 78 da e3 3d
       -0.21336152 0.040827006 0.16536316 0.11125654
000190 ca b0 23 bc 24 95 45 3e bc d3 de 3d f3 a8 17 be
       -0.00999088 0.19295174 0.10880229 -0.14810543
0001a0 d2 be 6a bd fb 85 0a be 82 38 31 bc af 45 c6 3e
       -0.057310887 -0.13527672 -0.010816695 0.3872504
0001b0 5c c8 d0 bc fe dd 37 be ef 62 03 bd 50 43 1b b8
       -0.025486164 -0.17955777 -0.032076772 -3.701757e-05
0001c0 a7 d3 2a be 6d 6b 05 be 1e 4f 24 be d9 8c fe 3c
       -0.16682301 -0.13029261 -0.16045806 0.03107302
0001d0 7d 50 c3 bd a4 ed b0 3e d2 51 fa 3b ab 21 19 3d
       -0.09536836 0.34556305 0.0076391483 0.037385624
0001e0 f6 57 44 3e ea ad ae bc 91 d5 23 be c1 68 af bd
       0.1917418 -0.021323163 -0.15999438 -0.08564902
0001f0 7c 62 7c 3c 06 b3 7e bd fa 82 47 bd 9b 62 09 3e
       0.01540434 -0.06218245 -0.048708893 0.13416521
000200 73 57 f9 3d 28 d4 c8 3c dc 7d 7b bd 08 ce a4 3c
       0.12174883 0.024515226 -0.061399326 0.020117775
000210 bd 98 45 3e ea 0c 0f 3e bc af 39 3d 17 90 e6 3d
       0.19296546 0.1396977 0.04533361 0.11257952
000220 6c 2f 97 3c 5d 43 2b bb fe 28 99 3d 9e 0b 6f bd
       0.01845523 -0.002613268 0.07478522 -0.05836069
000230 63 98 bd bc 82 ce 50 3d fa 26 9a bd ca 3c 96 3d
       -0.023143953 0.05097819 -0.075269654 0.07335813
000240 2c 17 89 3d b4 bb 1a 3e 12 0c 26 be 9b c9 06 3d
       0.06693873 0.15110666 -0.16215542 0.03290711
000250 78 c0 ff 3d a4 f4 1e 3d 1e d0 d0 3d 93 15 5c bd
       0.124878824 0.038807526 0.10195945 -0.053731512
000260 f5 4b bb bc d7 9a c0 3c b2 d8 63 3d 2e d5 85 bd
       -0.022863368 0.023511333 0.05562658 -0.065348014
000270 87 37 47 bd 03 e9 98 3d d3 85 9b 3d ae 13 15 3d
       -0.04863694 0.074663185 0.07593884 0.03639572
000280 2a 50 84 bc 88 42 77 3d fd 93 18 3d ef 91 f4 bd
       -0.016151506 0.060366184 0.037250508 -0.11941897
000290 14 dc 15 be 05 26 24 be f5 ac a3 3d 66 5d 20 be
       -0.14634734 -0.16030128 0.07991973 -0.15660629
0002a0 c8 5f 13 be 68 9e 98 3d 21 2f 0d 3d ef fe 61 3d
       -0.14392006 0.074520886 0.034468774 0.055174764
0002b0 44 9d 60 bd 10 ec ba bd 0c d3 7f 3c d8 ca 57 3d
       -0.05483748 -0.091270566 0.015614282 0.05268368
0002c0 7e 1c 62 bb 13 bc fa bd b6 d7 b9 3d bb e6 2a ba
       -0.0034501846 -0.122429036 0.09074347 -0.0006519367
0002d0 b0 00 42 bd ce 67 0f 3d 39 cd 17 3e 37 a4 e7 bb
       -0.047363937 0.035011105 0.1482438 -0.0070691365
0002e0 fd f3 10 be 25 b2 92 3d fb 00 26 3d 83 0c 6a 3d
       -0.14155574 0.071628846 0.04052828 0.05714084
0002f0 c6 80 33 3e 0e 18 6a bd 00 87 ac 3b 83 01 0d 3d
       0.17529592 -0.057151847 0.0052651167 0.03442527
000300 31 76 d9 bc 3a 6c 9c 3c ba d9 37 3e ce 3a 14 be
       -0.026545616 0.019094575 0.1795415 -0.14475557
000310 dc 02 07 be 8f df 40 be bf dc 4e be df 8d 5f 3e
       -0.13184685 -0.18835281 -0.20201395 0.21831463
000320 f8 d2 2b be 92 95 6b be 37 20 f7 bd 89 07 0f be
       -0.16779697 -0.23006275 -0.12066691 -0.13967718
000330 55 bd 9d 3d f6 37 15 be 8a c9 20 be 9c 5f 04 be
       0.07702128 -0.14572129 -0.15701881 -0.12927097
000340 42 68 91 3c 07 56 0d be 38 38 04 3d 17 99 b1 bd
       0.01774991 -0.13802348 0.032280177 -0.08671778
000350 1f 9d 1f be 8d 5c 2b bd 05 ef 2a 3d 2e 51 23 3e
       -0.1558728 -0.04183631 0.041731853 0.15948936
000360 a3 91 ae 3c 9f 27 07 bc a2 b4 5b 3d 76 8d a4 be
       0.02130968 -0.0082491925 0.05363906 -0.32139176
000370 f1 75 34 bd 55 26 0b bd ef 57 be bc 5d 83 14 be
       -0.04405779 -0.033972103 -0.02323529 -0.14503236
000380 d6 fa 53 be 32 2e 14 be 22 8d c9 bd 36 bf b1 bd
       -0.20701155 -0.14470747 -0.09841372 -0.08679049
000390 6d dd ab 3c b1 81 2e 3d 91 09 b9 bd a6 e8 cb 3c
       0.020979607 0.042604152 -0.09035028 0.024891209
0003a0 e8 a3 07 be 9c 0b e7 bd 32 90 b5 3d bb e6 c5 bd
       -0.13246119 -0.11281511 0.08865394 -0.09663149
0003b0 e4 b8 7a 3d f2 af ba bd 36 22 2a be 85 05 1f be
       0.06121148 -0.0911559 -0.16614613 -0.1552945
0003c0 6b 27 ea bb ce 35 aa bd 4f d3 4c be 5a b2 3a be
       -0.0071458123 -0.08311044 -0.20002483 -0.18232098
0003d0 3f 44 12 be 68 fb c7 3e c4 67 24 be a0 72 3c bc
       -0.14283846 0.39058995 -0.16055208 -0.011501938
0003e0 9d 0e f9 3c b5 66 82 bd 56 00 b7 3c b5 7e 31 be
       0.030402476 -0.06367246 0.022339027 -0.17333491
0003f0 1e 67 bf bd 44 3a 77 be 63 8b 5a be 41 35 d5 bd
       -0.0934584 -0.2414332 -0.21342234 -0.10410548

lstm_cell.bias_hh f4 [256]
000000 d7 b4 00 bb 38 50 af be ca b5 ed 3d bf 85 02 be
       -0.001963904 -0.3424089 0.11606939 -0.12746333
000010 11 74 38 be 30 7f 02 be 24 34 68 be 85 8a 2f 3e
       -0.18013026 -0.1274383 -0.2267614 0.17142685
000020 83 8b cc 3c 14 41 3a be 0a d9 02 be 98 e5 58 bd
       0.024968868 -0.18188888 -0.12778106 -0.052953333
000030 14 51 91 bb ad f8 52 be dd 10 ef bd c9 3f 99 be
       -0.004434714 -0.20602675 -0.11673138 -0.29931477
000040 68 d8 78 bd 41 37 9e bd da 43 ba bc 32 cf 96 be
       -0.060753256 -0.077253826 -0.022737432 -0.29454952
000050 38 b7 ed bd dd 41 b9 bd 94 92 e0 3d 84 9d 5c 3e
       -0.11607212 -0.090457655 0.109654576 0.21544462
000060 4f 1a 9e bd 2f c5 4b be cb c4 0a be 2e dd a1 be
       -0.07719862 -0.19899438 -0.13551633 -0.3161406
000070 5d 9f 0f bd d5 5f 66 be 88 a5 8f bd 29 3f 7a be
       -0.03506409 -0.22497495 -0.070139945 -0.24438156
000080 f3 f8 ce bd 96 e5 05 be f3 bd 16 3d a1 72 49 3d
       -0.10106077 -0.13075861 0.036802243 0.049181584
000090 1f 79 f7 bd 83 53 1d 3e e5 81 7a bd 2c 40 4f 3d
       -0.12083649 0.15363888 -0.061159033 0.05059831
0000a0 04 c9 e3 bd 3d 68 17 be 11 3a 82 be 16 9a 4c 3e
       -0.11122325 -0.14785857 -0.25434926 0.19980654
0000b0 b0 3e c1 be 19 fa 7d 3d 2b 85 4b be 31 50 d6 be
       -0.3774314 0.06200609 -0.19875018 -0.41858056
0000c0 28 65 6c bd ff d2 c1 bc ab 23 be bd 54 24 c8 bd
       -0.057713658 -0.023660181 -0.09284147 -0.09772554
0000d0 66 33 83 be 29 7a 12 be ae 07 71 bd 72 56 fc bd
       -0.2562515 -0.14304413 -0.058845215 -0.12321176
0000e0 6a 08 4e bc 5d 24 bd bd 75 2b 2a bd 05 66 27 be
       -0.012575248 -0.09235451 -0.04154535 -0.16347511
0000f0 84 10 1d be 54 b4 72 be 58 2b 52 be 0a 88 06 be
       -0.15338331 -0.23701602 -0.20524347 -0.13137832
000100 36 6c 11 3d c2 67 81 3d d9 01 a1 3b fc e9 44 be
       0.03550359 0.06318618 0.0049135503 -0.19229883
000110 5a 90 86 bc 7a 1f a4 3c 88 c4 fc bd 6e c1 f4 3d
       -0.016426254 0.02003454 -0.12342173 0.11950956
000120 9e f6 05 be 86 ee 6b bd 4d e6 5a bd 21 54 3e 3d
       -0.13082358 -0.05760052 -0.05344229 0.04646695
000130 ee e6 87 bd aa 0c 84 be ff 69 24 be 1b ec d5 3a
       -0.06635843 -0.25790912 -0.1605606 0.0016320975
000140 55 cd 0d be 3b f5 f0 3d 0c 5a a4 bd 77 09 45 3d
       -0.13847859 0.11765524 -0.080249876 0.04810473
000150 36 96 d7 bd 80 39 8b 3d 13 94 82 3e aa 25 84 bc
       -0.10526697 0.06798077 0.25503597 -0.01613124
000160 76 a6 2e 3e f8 43 8b 3d 5a 22 0d be 83 78 ef bd
       0.17055687 0.068000734 -0.13782635 -0.11692908
000170 fe d7 9a bd 7a a3 51 be 70 ff 37 3d 70 0e 8c 3e
       -0.075607285 -0.20472518 0.04492134 0.27354765
000180 dd 1a fa bd c9 3e f1 bd 6b c7 a2 3d f8 b8 a4 3d
       -0.12212155 -0.117795534 0.07948192 0.080430925
000190 b0 df b9 bd be af 27 3e 6d aa 20 3e 51 01 83 3d
       -0.09075868 0.16375634 0.15690012 0.063967355
0001a0 07 bd b0 bc 26 93 39 3c 49 5e 71 3d af a0 b5 3e
       -0.02157451 0.011326587 0.058927808 0.35474154
0001b0 6a 9d 35 3d 61 43 91 be 86 a8 82 3c b7 5d 6e bd
       0.044339575 -0.2837172 0.015949499 -0.058194842
0001c0 48 13 09 bd ae 07 91 3d f6 51 39 be 17 c4 51 be
       -0.033465654 0.07081543 -0.18097672 -0.20484959
0001d0 82 2b 81 bd 78 86 02 3e 5a de 7d bd 3c a7 d1 bd
       -0.063071266 0.12746608 -0.06197963 -0.102369756
0001e0 66 5c 27 3e 5e b2 bb bc 3f 00 d6 bd aa 7c b1 bc
       0.16343841 -0.0229122 -0.10449266 -0.02166589
0001f0 51 b5 8e 3d 4b b6 42 be 8d 89 00 be 67 a9 ec 3b
       0.06968177 -0.19014852 -0.12552471 0.007222343
000200 63 c2 b7 bc 3c e1 cb bd aa 82 a0 3b fe 1a 5c 3d
       -0.022431558 -0.099550694 0.004898389 0.05373668
000210 48 51 ea 3c cc 2e 04 3e 1e 5f b2 3d fa 56 47 3e
       0.028603211 0.12908477 0.087095484 0.19466773
000220 2a b5 b7 bd 49 7b b6 3d 2f eb ae bd 81 b1 b4 3c
       -0.08970101 0.089102335 -0.085409515 0.022057297
000230 43 93 a5 3c 8a 6d d9 bb 99 01 03 bb 9f ae d4 bd
       0.020211821 -0.0066353725 -0.0019989966 -0.10384869
000240 2a c9 36 3c a5 e1 db 3d a7 e1 db bd 04 61 89 bd
       0.01115636 0.10736398 -0.10736399 -0.067079574
000250 c5 34 bc bd 8c c6 31 3d 46 8d 8c 3d 3d fd 78 bb
       -0.091897525 0.04340224 0.06862883 -0.0037992739
000260 66 e0 8b 3d ac 8c 1a 3d 54 52 1e 3d df 0b 3a bd
       0.0682991 0.03773181 0.038652733 -0.045421477
000270 54 4d ad 3c f1 3d 09 bd 5d 72 02 bc dd 48 a1 bd
       0.021155037 -0.033506338 -0.007961837 -0.07875226
000280 ff 8e 30 be 15 4e ad 3d 43 5c 87 3d 8d 38 ec bd
       -0.17242049 0.084621586 0.066093944 -0.11534224
000290 7d 3b 3f 3d cd 72 c4 bd b4 ae 75 bd 76 19 0f be
       0.04668759 -0.09592209 -0.059981063 -0.13974556
0002a0 6a b9 ab 3c d1 70 cc 3d 12 bc ca 3d 9e ba ad 3c
       0.020962436 0.099824555 0.09899153 0.02120715
0002b0 a3 ee b2 3d 79 62 bf bc 3a 99 49 bc c4 32 1a bb
       0.087369226 -0.023362385 -0.012304598 -0.0023528794
0002c0 d6 45 25 bd 7f c2 9e 3d 3e 86 15 3d 52 07 1e 3d
       -0.040349804 0.07751941 0.036504976 0.0385812
0002d0 36 9b cd bc a5 9d a3 bc 12 b5 16 3d 82 da 0b 3e
       -0.025098424 -0.019972632 0.036793776 0.13657573
0002e0 c2 0e 3a bd d3 62 89 3d 1d 8b 1d 3c 19 5f 84 bc
       -0.04542423 0.06708302 0.009615687 -0.016158627
0002f0 a4 46 26 bd 64 9e a1 3c 9e e4 3a 3c 47 57 d4 3c
       -0.040594712 0.019728847 0.011407046 0.025920523
000300 71 3e 73 bd 95 32 6f 3d 74 42 2c 3e 49 a8 79 be
       -0.05938572 0.05839785 0.16822225 -0.24380602
000310 ab de 54 be 9e af 99 3c 17 c8 56 be bf 7c db 3d
       -0.20788066 0.018760499 -0.20974766 0.10717153
000320 fc ff 23 be e9 d6 11 be c1 3f 0b be e9 99 8a bc
       -0.16015619 -0.14242138 -0.13598539 -0.016919093
000330 3e c1 38 bd 00 70 74 be 34 00 c7 bd bd 73 ab bd
       -0.045106165 -0.2387085 -0.097168356 -0.08371685
000340 ac 22 d3 3d 07 4b 61 3d 35 58 fb bd a1 be 8f bd
       0.103093475 0.055003192 -0.122726835 -0.070187815
000350 5b 6b 21 bd c0 47 b5 3d e4 fb e6 3c cc d2 27 bd
       -0.039409023 0.08851576 0.028196283 -0.040972516
000360 67 85 aa 3c 9f cb be bd 1f 74 7d 3d 3b 96 32 be
       0.020815564 -0.093161814 0.06187832 -0.17440121
000370 c9 5d 82 be 19 0b 70 bd e8 b1 08 be 24 6d 74 bd
       -0.25462177 -0.058604334 -0.13349116 -0.059674397
000380 6b e9 41 be cc 07 be 3c 54 87 9a 3c 9b e8 2a bd
       -0.18936698 0.023197077 0.018863358 -0.041725736
000390 f4 b6 17 bd e9 e5 e4 3a e8 22 66 3d 5e c0 e8 bd
       -0.037039712 0.0017463538 0.056185633 -0.11364816
0003a0 de c5 11 3d 7c 9a 8f 3d 6c 25 92 bd f9 56 f0 3d
       0.03558909 0.070118874 -0.07136044 0.11735339
0003b0 d3 f8 8a 3d 31 54 0f 3c 7c d4 e4 bd 2b ab 8e be
       0.06785741 0.0087481 -0.11173341 -0.27864966
0003c0 2b 64 72 3d b6 53 b0 bd 6f 58 53 be 84 ab 1d be
       0.05917756 -0.086097166 -0.20639203 -0.1539746
0003d0 4c dc 92 be 14 2d 9e 3e 7d 75 f3 bd 0b cc bd bd
       -0.28683698 0.30893767 -0.118876435 -0.09267434
0003e0 82 c7 de 3d 13 36 06 bd 3a 28 60 3b 87 1d 2a be
       0.10877897 -0.032766413 0.0034203664 -0.16612826
0003f0 8f 45 1a be 43 51 d8 bd 96 44 09 be 02 59 0d bd
       -0.15065597 -0.105623744 -0.1340507 -0.034508713

fc_out.weight f4 [2, 64]
000000 14 d6 5a bd 51 59 aa bc fa b0 20 be 9b 05 b8 3d
       -0.053426817 -0.020794543 -0.15692511 0.08985444
000010 d1 9b f3 bc c7 33 17 3e a5 a7 c6 3d ee 6d c5 bd
       -0.029737385 0.14765845 0.096999444 -0.09640108
000020 f6 93 61 3c df 8f dd 3b c5 4c 5d 3e 30 5e b7 3d
       0.013768187 0.0067615355 0.21611317 0.08953512
000030 43 a0 e1 3c 72 fa 68 bd 77 55 10 bc 49 b2 0b 3d
       0.027542239 -0.05687947 -0.008809439 0.034105573
000040 d9 8b 65 3e 75 d8 95 bd f4 f7 a6 bd 9f fc 27 3e
       0.22416629 -0.073166765 -0.08152762 0.16404961
000050 d9 e7 b5 3e c1 35 24 bd b5 c1 6d 3d 54 61 3f bd
       0.35528448 -0.040090326 0.05804606 -0.04672368
000060 78 d9 02 be 6f 1a ae bd d8 b6 13 be a7 09 0e 3d
       -0.1277827 -0.085011356 -0.14425218 0.034677174
000070 8e df 9a 3d 53 51 88 3b e3 8c 96 bd ba 7e 1b be
       0.07562171 0.004160085 -0.07351091 -0.15185061
000080 6b 05 73 bd db d7 d0 bd 06 79 28 3e e5 5f d1 3d
       -0.05933134 -0.10197421 0.16452417 0.102233686
000090 eb 75 5c be cb 69 50 3e 43 53 32 be ca 43 c8 bd
       -0.21529357 0.20352857 -0.17414574 -0.09778555
0000a0 00 69 c2 3c 5d 9c d8 3d 74 c2 b2 3e 31 a1 dc bd
       0.023731709 0.10576699 0.3491398 -0.10772932
0000b0 16 c6 03 3f 3e 1d e4 3d a1 d3 4e be a5 2d 90 3d
       0.5147413 0.1113839 -0.20197918 0.07039956
0000c0 4c 76 ae bd e7 ca 23 3e 60 1d 8c bd 35 b8 82 3d
       -0.08518657 0.1599537 -0.0684154 0.06382791
0000d0 5f 01 09 bd 1f 6f 29 be b1 36 89 3d d1 d1 57 3d
       -0.033448573 -0.16546296 0.06699885 0.05269033
0000e0 ad e9 25 3e 8f 7a 92 be 29 c7 02 3d 0a 3b 4d bd
       0.16202421 -0.2860913 0.031928215 -0.050105132
0000f0 b9 eb ef 3c 4a d4 e8 bd 04 39 b0 bd c9 0b dd bc
       0.029287206 -0.11368616 -0.08604625 -0.026983159
000100 1d f7 0b 3e 38 7c f1 bd 41 69 8a 3c ff ea 72 bd
       0.13668485 -0.11791271 0.016895892 -0.05930614
000110 af 52 80 3c db 1a 19 be 6f a8 5b bd e9 39 b8 bd
       0.015664427 -0.14951651 -0.053627428 -0.089954205
000120 f2 92 f1 bd 88 c2 c1 3d 05 8d 38 be 21 a7 3d bc
       -0.11795606 0.09460932 -0.18022545 -0.011575491
000130 22 7d a3 3c e9 a8 5c 3d cc 95 44 bb bd 1a d5 3c
       0.019957129 0.053872023 -0.0029996512 0.026013726
000140 75 35 9c be 27 fa ad 3d ee 05 96 3d 51 9d 7e be
       -0.30509534 0.084949784 0.0732535 -0.24864699
000150 6b 63 9a be a6 25 06 3e 18 95 ee 3c 25 fb 9b 3d
       -0.30153975 0.13100299 0.029123828 0.076162614
000160 7f 70 97 bd 6f 6c 4b 3e b4 f0 19 3b 20 d5 e4 3d
       -0.07394504 0.19865583 0.0023489418 0.11173463
000170 c3 75 98 3d c4 ee 05 bc c5 a0 25 3e e8 7a 8d 3d
       0.07444336 -0.008174602 0.1617461 0.06908208
000180 a1 66 2a bd 98 0d 01 3c fd ce d3 bd 71 14 79 3d
       -0.04160178 0.007876776 -0.10342214 0.06081051
000190 48 b8 68 3e dd d2 0f be 4f db 09 3e 93 08 02 3e
       0.22726548 -0.14045282 0.13462566 0.12698583
0001a0 09 fe dd bc 60 54 1f be 9d 3f 5b be 25 f9 f0 3d
       -0.027098672 -0.1555953 -0.21410985 0.117662705
0001b0 1f 69 c3 be 4c 20 db 3b 77 37 b2 3d 52 a7 e7 3c
       -0.3816614 0.0066871997 0.08701985 0.028278027
0001c0 26 12 9d 3d 51 92 2e 3d 60 e1 33 3d a8 b3 10 be
       0.07669477 0.042620007 0.043916106 -0.14131033
0001d0 07 f1 e0 3c 9e d8 04 3d 16 71 da bd 6c ed 73 bd
       0.02745868 0.032433145 -0.10666101 -0.059552595
0001e0 8c e8 d9 bd 17 9a 65 3e 84 1e 23 3e 9b cf 28 3e
       -0.10640058 0.22422062 0.1592961 0.16485445
0001f0 b0 fc b9 3d 46 81 d3 3d bc fa 96 3c 35 be cd bc
       0.090813994 0.10327391 0.018430106 -0.025115112

fc_out.bias f4 [2]
000000 8e ef f5 3d b9 bf d5 3c
       0.12008582 0.026092397
