model_ckpts/cric_prediction_M1B1_randomsample.pth (torch_old, 72263 bytes, 6 tensors)

lstm_cell.weight_ih f4 [256, 3]
000000 4a 20 19 3e 44 27 54 3e 39 09 73 3e ca 5c c1 3e
       0.14953724 0.20718104 0.23733987 0.37766105
000010 5b b7 ac 3e d4 44 29 3e 62 38 c4 3e f0 91 94 3e
       0.3373364 0.16530162 0.38324267 0.2901759
000020 b4 69 07 3f 06 95 bf bd 9d bb d3 3d 87 b1 21 be
       0.52895665 -0.09354596 0.10338519 -0.15790378
000030 4d 21 84 3e e3 0a a4 3e ca 9d ed 3e 58 8a 67 be
       0.25806656 0.32039556 0.46409446 -0.22611368
000040 79 16 4c be 43 7b c4 be da a9 f5 3e b3 a6 2e 3f
       -0.19930448 -0.3837529 0.4798115 0.6822311
000050 ae fd df 3e 69 bd fc 3e d8 ef b2 3e 49 b3 b7 3e
       0.4374823 0.49363258 0.3494861 0.3587897
000060 1a 91 75 bd 6d e7 80 3f 4e 5a 00 3e 49 4c 65 3e
       -0.059952833 1.0070626 0.12534449 0.22392382
000070 92 54 d1 3e 7f 86 b8 3f eb 0b 10 3f 18 c0 a1 3e
       0.40884835 1.4416045 0.56268185 0.31591868
000080 1c 49 e5 3e 90 8f 82 3e 6c af e1 3e 70 1b d2 3e
       0.4478234 0.25500154 0.4407915 0.41036558
000090 32 fa 25 3e e0 76 a1 3e b2 74 9e 3e 95 4d 45 3d
       0.16208723 0.31536007 0.30948406 0.04816969
0000a0 cc a8 b9 bd 8d 3f f1 bd a1 2b d7 bd c3 50 5a 3f
       -0.090653986 -0.117796995 -0.105063684 0.8527948
0000b0 a9 88 ad 3e ff 1a 29 3d 50 f0 65 3f b1 78 c2 3f
       0.33893326 0.04128551 0.8981981 1.5193082
0000c0 38 28 fb 3e 06 ee f5 3d c3 77 1a 3e ce 67 11 3e
       0.49054122 0.1200829 0.15084748 0.14199755
0000d0 23 59 af 3d cf 6b 50 3e 39 00 dd 3e df ac f5 3e
       0.08561923 0.20353626 0.43164232 0.47983453
0000e0 eb fc 97 3e 96 9e e9 3d d2 ad 43 3d dc b1 1b 3e
       0.2968515 0.11407201 0.04777319 0.15204567
0000f0 62 f2 2f be 4b ab 06 3e eb 42 be bd 25 02 5f 3e
       -0.17182305 0.1315128 -0.09290107 0.21778162
000100 5f 12 23 3e af 52 83 3e 2d d7 e8 bd 79 09 83 bd
       0.15924977 0.2564902 -0.113691665 -0.06398291
000110 26 77 a9 bb 1b b9 5a 3e 51 13 95 3e 18 3f 08 3f
       -0.0051716743 0.21359675 0.291163 0.53221273
000120 82 d2 c4 3d c5 10 3d 3e f7 b0 b8 3d 0b 92 3e 3e
       0.09610464 0.18463428 0.09018128 0.18610398
000130 b8 51 2a 3e 68 02 8b 3e af ed a7 3e 03 ab d9 3e
       0.16632736 0.27150273 0.32798526 0.42513284
000140 04 2a 9f 3e 63 3c 74 3e df 56 d3 3e 5d a1 16 3f
       0.31086743 0.2385116 0.41277215 0.5883997
000150 65 24 9a 3e f2 b5 21 3e 49 55 87 3e d4 f9 c7 3e
       0.30105892 0.15792063 0.26432255 0.3905779
000160 27 c7 d2 3e d8 ad 31 3e 7b 2e 16 3e 90 40 0c 3e
       0.41167566 0.17351472 0.14666168 0.13696504
000170 f1 a0 96 3c 2f cc a3 3e da f0 2e 3e 55 8b 5e 3e
       0.01838729 0.31991717 0.17084065 0.21732838
000180 1c ae 31 3e d9 4c 29 3d 10 d0 0f 3e b1 96 b4 3e
       0.17351574 0.041333053 0.14044213 0.35271218
000190 00 3e 5a 3e 47 80 a8 3b c6 a9 68 3e ff 5d 4e 3c
       0.21312714 0.005142245 0.22721013 0.012595653
0001a0 40 4a 7f 3e 2d 03 55 3e 06 1e c5 3d e9 68 2d 3e
       0.24930668 0.20801993 0.09624867 0.16934551
0001b0 33 70 06 3e d3 df 0a 3e 1d ff a4 bd 48 de 62 3e
       0.13128738 0.13561945 -0.080564715 0.22155106
0001c0 3b a6 fa 3d 4a 64 3a 3e 86 23 bf 3d 01 a7 29 be
       0.12238737 0.1820232 0.093329474 -0.16567613
0001d0 c9 b1 de bd 98 7d c8 3e 71 5d ed 3e e1 44 16 3f
       -0.108737536 0.3915832 0.46360353 0.5869885
0001e0 74 75 0f 3f bd af 9b 3e d3 36 8b 3e c9 4c 0e 3f
       0.56038594 0.30407515 0.27190265 0.55585915
0001f0 a8 70 0e 3f 87 96 04 3f 85 46 09 3f ea fa a3 3e
       0.5564065 0.51792186 0.5362323 0.3202737
000200 c6 9a 9c 3e 2c 34 33 be 46 74 c6 bc 45 dd 7b 3d
       0.30586833 -0.1750037 -0.024225365 0.061490316
000210 ae 54 94 3d db db 68 3c d9 90 9a 3d 3d f2 6b 3e
       0.07242714 0.014212574 0.07547159 0.23041625
000220 ff d5 a0 3e 07 4f 42 3e 74 f7 aa 3d 36 9d 68 3e
       0.31413266 0.18975459 0.08347979 0.22716221
000230 69 a6 59 bd db df 4e bd 70 2b 42 3c 93 3c 0d 3d
       -0.053137217 -0.050506454 0.011851177 0.034481596
000240 dd 59 2f 3e 71 dd d8 3d 25 f0 45 3e 89 6e 56 3d
       0.17124124 0.105891116 0.19329889 0.05235151
000250 fa 83 82 3e 05 f3 77 3e 86 2d 25 3e 75 d6 71 3e
       0.25491315 0.24213798 0.16130647 0.23616965
000260 84 bd 18 3e 67 a9 9b 3d e4 91 8f 3f d1 e5 b7 3f
       0.14916044 0.0760067 1.1216397 1.4367009
000270 69 97 92 3e 03 34 f2 3e d6 7e 00 3f 33 78 92 3d
       0.28631142 0.47305307 0.50193536 0.071518324
000280 cc 37 19 3d 62 67 0a 3f 55 e0 32 3e a5 f0 b1 3e
       0.037406728 0.54064 0.17468388 0.3475391
000290 59 b8 ae 3e cc 36 30 bc bf de 56 3e c5 09 b7 3d
       0.3412502 -0.010755252 0.20983408 0.0893741
0002a0 16 db 12 3c 1d fe 95 3f 31 73 c0 3f ae b7 b9 3c
       0.008963367 1.1718174 1.5035154 0.022670593
0002b0 24 b7 e4 3e 45 e5 a5 3e be 66 a9 3e 09 63 d2 3e
       0.44670975 0.3240148 0.330862 0.41091183
0002c0 ba 06 9c 3f 29 92 c0 3e d6 c6 d3 3e b1 3a ce 3e
       1.2189553 0.3761151 0.41362637 0.40279153
0002d0 fd c6 a6 3e 51 be ec 3e 75 6d d9 3e 98 25 10 bc
       0.3257369 0.4623895 0.42466322 -0.008798026
0002e0 95 66 76 3e 93 38 a0 3e da e0 b2 3e 11 a9 d1 3e
       0.2406257 0.31293163 0.34937173 0.409493
0002f0 2e 60 97 3e 49 a4 ba 3e 48 cf d6 3e bf ad bd 3e
       0.29565567 0.36453465 0.41955018 0.3704662
000300 bf c2 61 be bb 95 2c be e7 d1 c9 3d 11 b8 b9 bb
       -0.22046946 -0.16853993 0.09854489 -0.0056676944
000310 ae 86 0a c0 80 a8 e8 bf 92 14 d1 3e b9 b2 a4 3d
       -2.1644702 -1.8176422 0.40836006 0.08041901
000320 eb 93 3c 3e 95 7f 49 be 29 1a 43 be 27 f2 a1 be
       0.18415801 -0.19677575 -0.19052948 -0.3163006
000330 d9 f2 29 3e 83 6c f6 3e c8 42 e5 bc 8c 8d 8d 3e
       0.16596545 0.48129663 -0.027985945 0.27647054
000340 c2 ca 2f be 33 8f 8c be 2d 8f 00 3f 9e 9a b2 3e
       -0.1716719 -0.27453002 0.5021847 0.3488359
000350 2c 2d 68 3e 44 8f 32 3e c1 19 0a be 54 31 32 be
       0.22673482 0.17437464 -0.13486387 -0.1740163
000360 92 94 7e bd 3e 52 50 3f 49 61 10 3f 89 92 42 3e
       -0.062153406 0.8137549 0.56398445 0.19001211
000370 ed a8 cf 3e c5 a0 a7 3f fb d2 e9 3e 93 0b 47 3e
       0.40558568 1.3095938 0.45668778 0.19438009
000380 07 79 22 3e ff bc ed 3d 1b c1 bf 3e d9 40 40 bd
       0.15866481 0.11608314 0.37452015 -0.046936844
000390 6c 9d 07 3e c0 b2 0c be 0b b1 f4 bd 65 32 3e 3e
       0.13243645 -0.13740063 -0.11947831 0.18573911
0003a0 d7 85 26 be 55 c7 e7 bd ca 94 0d bd 93 c3 8e 3f
       -0.16261993 -0.113173164 -0.034565724 1.1153435
0003b0 d0 d6 ef 3c 3b 87 45 be cd 9f 36 bd de 7f a2 3e
       0.029277235 -0.19289868 -0.04458599 0.3173818
0003c0 75 5a a7 be 1e 01 f7 3d 83 81 24 3e a7 ac 6f 3e
       -0.326862 0.1206076 0.1606503 0.23405705
0003d0 f4 1f 0e 3e e9 14 cb bc 9d 82 cb 3e b4 eb f0 3e
       0.13879377 -0.024790244 0.39748088 0.47054827
0003e0 6e 74 a2 3e 75 40 8e 3d 7e 34 68 3d a6 7a 4c 3d
       0.31729454 0.06945888 0.056690685 0.049921654
0003f0 9e 0e 60 be c8 b5 b9 bd 34 8d 46 bd 4a 92 70 3e
       -0.21880576 -0.09067875 -0.048474506 0.23493305

lstm_cell.weight_hh f4 [256, 64]
000000 71 68 a7 bc 5f 95 7d 3f cc 61 b4 be 8a df b0 3d
       -0.020435544 0.9905605 -0.35230863 0.08636387
000010 9e 39 49 bd 4a fa 80 3e 48 32 dc 3c b1 63 c5 bd
       -0.049127214 0.25190955 0.026879445 -0.09638155
000020 a1 2d 5b be ec 69 36 3e 06 1b 30 be cc f8 eb 3d
       -0.21404125 0.17813843 -0.17197809 0.115220636
000030 ed 58 8c 3c 1a e0 26 3e c8 a1 a5 be b4 64 61 3d
       0.017132247 0.16296425 -0.32349992 0.05502768
000040 78 c7 86 be 08 32 2f be 93 2f ab 3c 26 cd 15 bf
       -0.26324058 -0.17108929 0.020896709 -0.58516157
000050 4f f9 0e bb 52 a4 98 3e 76 ae 87 3c cf 22 9c bd
       -0.002181608 0.29812866 0.016562682 -0.07623827
000060 90 df 8b bf c0 be 92 bd cd 08 5c be 41 84 00 be
       -1.0927601 -0.07165289 -0.21487732 -0.12550451
000070 69 f4 2c 3e 63 00 57 be 13 e3 af bd bd ad ff 3d
       0.1689011 -0.20996241 -0.08588233 0.1248431
000080 04 c9 0c be a3 45 20 bd 03 4c 06 3d fe 93 2d be
       -0.13748556 -0.03912891 0.032787334 -0.16950986
000090 40 9e 83 be 7a fb 10 3e 34 2a 6f 3d ed f3 19 3f
       -0.25706673 0.1415843 0.058389857 0.60137826
0000a0 a3 a3 09 be e4 b8 4b be 73 7f 74 bd e3 d9 73 bd
       -0.13441329 -0.19894749 -0.059691858 -0.059533965
0000b0 bf 38 cd 3d 14 d1 a0 3e 74 d9 ab be fd 90 70 bd
       0.10020589 0.31409514 -0.3356434 -0.05873202
0000c0 bc 7c a9 3d 40 05 bc be 1c 96 c6 bd b9 3d a6 bd
       0.08275744 -0.36722755 -0.096966 -0.081172414
0000d0 9b 32 5a be 55 cc 8c 3e 7d 2d 45 3e 98 8a 0d be
       -0.21308367 0.27499643 0.19255634 -0.138224
0000e0 00 88 b3 3e 7e 01 01 3e 71 d7 90 bd cc 2e 94 be
       0.35064697 0.12598225 -0.07072342 -0.28941953
0000f0 74 23 81 bd 5c 45 20 3e 0a 70 bf be 41 5d fe bd
       -0.0630559 0.15651459 -0.37390167 -0.124201305
000100 0f 58 17 3e 5f 55 88 be 21 0b b4 bd 89 03 ed 3e
       0.14779685 -0.26627633 -0.08791185 0.4629176
000110 0a 3f 89 3d 37 7c 31 3f 3f 39 2f bd ae 07 ae b9
       0.06701477 0.6933016 -0.042779204 -0.00033193588
000120 60 e4 b4 be 1f aa f8 3e 8f 5b cc 3d 97 ff 70 3c
       -0.35330486 0.48567292 0.09978401 0.014709375
000130 27 94 cc 3d 41 b7 0d 3e 9b f7 ca bd 92 cf 6c bf
       0.09989195 0.13839437 -0.09910508 -0.9250423
000140 03 b7 3b bf 92 d8 cf bd a6 ad 76 be 05 c3 0b 3f
       -0.7332613 -0.101487294 -0.24089679 0.5459445
000150 7a fb 55 be 39 ef 1c bd d3 57 e5 3e 91 39 a0 bd
       -0.20896712 -0.038314078 0.44793567 -0.0782348
000160 96 e0 d0 bd 75 80 8c bb ec 33 89 bc ed b9 3c bd
       -0.10199086 -0.004287774 -0.016748391 -0.04607575
000170 c8 45 0e 3e df 1c b8 3f c9 b6 27 be ae 22 b0 3e
       0.13893807 1.4383811 -0.16378321 0.34401459
000180 bf 6f 8d bc b0 a5 c9 be 76 ce 83 bc b8 32 1e bf
       -0.017265199 -0.39384222 -0.01608966 -0.6179614
000190 98 a7 1c be 4d 2b 04 bd a2 5a 09 3f d3 54 28 3e
       -0.15298307 -0.032267857 0.5365392 0.16438608
0001a0 8a 16 02 be d8 09 ad bd b6 63 12 be 03 03 c3 3e
       -0.1270391 -0.08449143 -0.14295849 0.38088235
0001b0 af 52 ec 3e 04 bd 95 bd 48 c2 b0 be 7c b0 13 3f
       0.46156833 -0.073114425 -0.34523225 0.5769117
0001c0 91 0d a5 3c 5d 14 df be 14 c5 6f 3f ab c1 b0 3e
       0.02014807 -0.43570223 0.9366009 0.34522757
0001d0 46 0c 54 bd fb 35 20 3e 4b 2b 48 3e 90 05 a8 be
       -0.051769517 0.15645592 0.19547765 -0.32816744
0001e0 d3 1b b2 bf e2 ae 7c 3e a2 57 63 bd 11 be fa 3d
       -1.3914741 0.24676087 -0.055503495 0.122432835
0001f0 9a f7 64 bd 7b 23 8e 3e 31 9a 57 bc 9e b9 1c be
       -0.055900194 0.27761444 -0.013159321 -0.15305182
000200 01 2b c6 3d cf 6b 9c 3f 1f e5 1c bc bb 15 53 3e
       0.09676171 1.22204 -0.009576111 0.20613758
000210 c5 bc ab 3d a6 ca b1 3e d8 b0 41 be 0d c1 30 be
       0.08385614 0.3472492 -0.18915117 -0.17261143
000220 2f 36 f5 be 69 9a 94 3e 97 5e 35 3e f5 b3 4a be
       -0.478929 0.29024056 0.17711864 -0.1979521
000230 89 30 03 be 94 c9 49 3e 67 df 01 3e bd a5 93 be
       -0.12811483 0.19705802 0.12682877 -0.28837386
000240 f9 46 8c be dc 80 a6 be 68 94 80 be e7 d7 00 3f
       -0.27397898 -0.32520187 -0.25113225 0.5032944
000250 ed c2 ca be a7 b7 30 3e e3 79 fd 3e 58 e1 3c be
       -0.39601842 0.17257558 0.49507055 -0.18445337
000260 ea 63 2e be 08 a5 d1 3d 12 01 7d bd 42 7a 98 be
       -0.17030302 0.10236555 -0.0617686 -0.29780775
000270 a0 89 b7 3e 04 93 8a 3e 72 8f c2 bd 80 7a 89 3e
       0.35847187 0.2706529 -0.09500016 0.26851273
000280 82 09 43 3c 9c de cc be 27 6f 9b be 08 20 fc be
       0.011904122 -0.40013587 -0.3035824 -0.49243188
000290 9d a9 05 be cb f5 49 3e 47 f0 61 3e e8 8d a2 bc
       -0.13052984 0.19722669 0.22064315 -0.019843057
0002a0 02 87 60 3e 2a b2 96 be 4a b5 da bd 1e 2c 14 3e
       0.21926501 -0.29432803 -0.106791094 0.14469954
0002b0 b6 bd f5 3b ee 95 6f be cd 32 7c be 29 af 8a 3e
       0.007499422 -0.23397037 -0.24628754 0.27086762
0002c0 4b e7 14 bd 31 07 4d be 8e bd d1 bd fc 56 ba bc
       -0.03635339 -0.20022275 -0.10241233 -0.022746556
0002d0 e9 55 b8 3c 4a 9d d8 3e 6d 3f 5e 3e a0 6e 8d be
       0.022501903 0.42307502 0.21703883 -0.27623463
0002e0 32 ff 9a 3c 90 37 9d bd 1b 09 8b 3e 31 20 1b be
       0.018920515 -0.07676613 0.27155384 -0.15148999
0002f0 75 75 b8 3d d2 70 a4 bd 4f 2d 8a be d3 9f 50 be
       0.09006778 -0.08029331 -0.26987693 -0.20373468
000300 e9 1c 4a 3e b8 03 0a 3f 82 42 e7 bd a3 1c a8 be
       0.19737591 0.53911924 -0.11291982 -0.32834348
000310 3e bd 8a bd 3f f7 0a bd f1 d3 9a bd a3 c5 ed bd
       -0.06774376 -0.0339272 -0.07559956 -0.11609962
000320 a8 e0 3c 3e 23 03 e7 be f2 67 26 bd e2 35 65 3e
       0.18445075 -0.4511958 -0.040626474 0.22383836
000330 ca 6f b1 bc e3 96 af bd 8a c4 80 be 5a 84 31 3f
       -0.02165975 -0.08573701 -0.25149947 0.6934258
000340 fa c3 a9 3e 7a 96 ec bd 92 48 a3 3e 7d 2c ba be
       0.3315733 -0.115521386 0.31891304 -0.36362067
000350 f0 6c 29 3e 5c 52 38 be 2c c2 0c bf 3f 4c 0c be
       0.16545463 -0.18000168 -0.5498378 -0.1370096
000360 9a 53 5b 3e 87 fa ac be 0c 7f 8f bc 73 c5 0d 3c
       0.2141861 -0.33784887 -0.017516635 0.008653033
000370 c0 6b b3 be e3 e5 78 bf b5 51 07 3f 0a 31 7b bb
       -0.35043144 -0.9722578 0.5285905 -0.003832879
000380 92 77 38 3e 5c d8 cc 3e c3 c5 9a 3d 69 db 01 3e
       0.18014362 0.4000882 0.07557251 0.12681355
000390 29 c8 0c be 0f 0d a3 3d e3 f6 01 3e 18 56 39 be
       -0.1374823 0.07961475 0.12691836 -0.18099248
0003a0 6d 8a 04 be 25 e1 2a 3e ea 66 a6 bc 67 71 bd be
       -0.1294343 0.16687448 -0.020312745 -0.37000582
0003b0 90 3c 32 3e ea b4 1d 3e f1 2b c3 3e 50 29 59 bd
       0.17405915 0.15401044 0.38119462 -0.053017914
0003c0 31 25 8b be a4 19 ec 3e 75 be 59 bf 79 e6 9e be
       -0.27176812 0.46113312 -0.8505624 -0.31035212
0003d0 bc 6e 20 be 04 e8 72 be 9b 1b fa bd 65 ab 1a 3d
       -0.15667242 -0.2372132 -0.122122966 0.03776111
0003e0 53 13 fc 3e 9d b1 87 be 48 16 6e be ec da 89 3d
       0.49233493 -0.26502696 -0.23250687 0.06731209
0003f0 51 ac 90 be d3 6b 16 be 70 ac a9 3e 2a 11 2a 3e
       -0.28256467 -0.14689569 0.33139372 0.1660811

lstm_cell.bias_ih f4 [256]
000000 2d 35 80 be 14 67 9e be 54 ca d5 be 65 82 4d 3e
       -0.2504057 -0.30938017 -0.41755927 0.20069273
000010 b3 6c ea bd ba 34 c8 3e d1 c3 0c be ee 2b db be
       -0.11446514 0.39102727 -0.13746573 -0.42806953
000020 ab 58 52 be b8 dd a3 bd 5a 29 e8 be 64 85 d4 be
       -0.20541637 -0.08001274 -0.4534405 -0.4150802
000030 68 c4 4d be 16 9e c5 3b d0 1e 44 bd 09 51 ca bd
       -0.20094454 0.006030808 -0.047880948 -0.098787375
000040 e4 bb 92 bd ab 84 20 be 26 a3 04 be 47 52 92 bc
       -0.071647435 -0.15675609 -0.12952861 -0.017861499
000050 7f d0 ba bd f5 90 d3 bd d6 3f a7 3a df 31 0a bf
       -0.09121799 -0.10330383 0.0012760113 -0.5398235
000060 f5 f5 4e bc 7d 3b af be d5 30 95 be 87 f7 1e bf
       -0.012631883 -0.34225073 -0.29138818 -0.62096447
000070 3a ef b6 bd c8 61 8e bd ec 53 99 3b 5b b1 97 bd
       -0.089323476 -0.06952244 0.0046791937 -0.07406875
000080 1e 2f f5 bd b7 6d ef 3d 01 26 a5 be 01 59 06 be
       -0.119718775 0.11690848 -0.32255557 -0.1311989
000090 fb e6 56 bd a2 0d 02 be 52 e9 48 bd ca 4a 11 bf
       -0.052466374 -0.12700513 -0.049050637 -0.56754744
0000a0 03 7a 9a be 81 06 9d be a6 61 a2 be 5b 1a bd 3d
       -0.30171213 -0.30669025 -0.31715125 0.092335425
0000b0 2c 4f 1e bd 6f 8f 4f be 61 f0 9a 3e 97 5c 0f be
       -0.038649723 -0.2026956 0.3026152 -0.14000164
0000c0 61 a6 a0 bd 8c 20 1d be 26 8c 03 be 56 22 e4 3c
       -0.07844234 -0.15344447 -0.12846431 0.027848404
0000d0 79 ab 0a bf fc d0 c3 be 98 7b 51 be 16 5f ca bd
       -0.54167897 -0.3824538 -0.20457304 -0.098814175
0000e0 01 b8 cc be 46 9b a5 be 9e bd 42 be b5 52 85 be
       -0.39984134 -0.32345027 -0.19017646 -0.26039663
0000f0 47 f0 b4 be 69 4c 6c be e2 2c 97 be 65 3d 9f be
       -0.35339567 -0.23076023 -0.2952643 -0.31101528
000100 c8 d7 2b bd c9 5e 6c 3e c6 c2 a4 bd e6 ea 86 3e
       -0.041953832 0.23083033 -0.080449626 0.26351088
000110 8a fc dc bd ac 91 43 3e cb 95 02 3e 18 f8 83 3d
       -0.107903555 0.19098538 0.12752454 0.064438045
000120 cb d0 c9 bd 82 46 14 be b0 c5 b9 bd 71 4d 2f bd
       -0.09854277 -0.14480022 -0.09070909 -0.042798463
000130 2c b1 11 3e ba 1d 53 3e a0 46 df bd 67 eb c4 be
       0.14227742 0.20616809 -0.109021425 -0.38460848
000140 b3 2c 26 be a5 16 a2 bd 13 71 42 3e da 3d d5 bd
       -0.16227989 -0.07914475 0.18988447 -0.10412188
000150 a4 2a f3 3d 9f 61 b9 3d 44 10 39 be 85 2e 1e 3e
       0.118733674 0.09051823 -0.18072611 0.15447433
000160 83 8e 8a 3e 8d 17 97 bd 09 31 7a be be 9a 14 be
       0.27061853 -0.07377539 -0.24432768 -0.14512154
000170 70 4f 0e be 7b 85 80 3b 4c 4d 14 bd 94 d6 c8 b9
       -0.1389749 0.003922162 -0.03620653 -0.00038306846
000180 76 2a b3 bd 78 9b b9 3e 57 5e 2c be 89 bb 3b be
       -0.08748333 0.36251426 -0.16832863 -0.18333258
000190 01 67 84 bd b0 f3 2d be 8f a1 16 3e 7c ee 4e 3b
       -0.06464959 -0.1698749 0.14710067 0.0031575253
0001a0 43 5d 20 be 4c a2 56 be 7b 62 85 3e fc 83 8d bd
       -0.15660577 -0.20960349 0.26051697 -0.0690994
0001b0 1e ee 77 bd e0 ac 07 3f 2c 63 1e 3d 35 45 9a bc
       -0.06052982 0.5299816 0.038668796 -0.018831829
0001c0 df 60 b3 bd b9 71 81 be 06 3a 9e be fd f8 ab bd
       -0.08758711 -0.25282076 -0.30903643 -0.083971
0001d0 c8 b7 1e be 1c 76 95 be 24 c1 a4 be 20 82 ea bd
       -0.15499794 -0.29191673 -0.32178605 -0.114506006
0001e0 df e7 be 3e 2f 43 e7 bd ab f3 80 be 67 6b 17 be
       0.3728628 -0.11292111 -0.25185904 -0.14787064
0001f0 8e ab 71 bd ba 06 c1 bd ef ef 4f 3c fa c8 b1 be
       -0.059001498 -0.09425111 0.012691482 -0.34723645
000200 2f 78 69 3d 38 33 37 3d f7 ee 7d 3c 61 7e eb bd
       0.05699938 0.04472658 0.015498868 -0.11498714
000210 80 ed d9 bc ee 1a ad bc 0c 36 85 be e0 23 f4 3d
       -0.026602507 -0.021131005 -0.26017797 0.11920905
000220 4c b5 2a 3e af 08 af bc 5f 22 7d 3e be 88 04 be
       0.16670722 -0.021366445 0.24720143 -0.12942788
000230 cd 2a f7 bd 9c 2f c3 3c 3d 1e 5b 3e 55 ac a5 3d
       -0.120687105 0.023826413 0.21398254 0.0808951
000240 a2 7c 93 3e 87 a5 37 be 23 45 1e be 71 a4 1d bd
       0.28806025 -0.17934237 -0.15456061 -0.0384869
000250 ac df 23 be db c4 96 bc 6f 8a 0d be 81 c3 09 bc
       -0.16003293 -0.018404415 -0.1382234 -0.008408428
000260 61 2f ed bd cb 9a cb 3d 87 24 44 3e 02 d7 a6 bd
       -0.115813024 0.09941634 0.19154559 -0.08146478
000270 ff 69 3f bd 67 c4 60 3e 31 38 c3 bc 02 4a 5d be
       -0.046731945 0.21949922 -0.023830505 -0.21610263
000280 71 1d 5e bd c5 78 b9 3d ed f7 e2 3b 30 0d ce 3c
       -0.054227296 0.09056238 0.0069265277 0.025152773
000290 46 4e 09 3c d6 52 0f 3e 0b 85 bb 3d 6e 1e b9 bd
       0.008380478 0.13996443 0.09156235 -0.09039007
0002a0 b0 17 32 be 75 f4 9a 3e ab b8 96 bc b5 23 b9 be
       -0.17391849 0.3026463 -0.018398603 -0.36160055
0002b0 0a 75 80 bc 62 26 e9 3d f5 da 89 3d 70 24 85 bd
       -0.015680809 0.11384274 0.06731216 -0.065010905
0002c0 f7 d0 15 bd 7d ce 19 bd ad 1f cb bc 6d 03 b3 3e
       -0.036576238 -0.03755044 -0.024795378 0.3496355
0002d0 90 3d d5 bc 09 b6 01 be 49 dd 25 bd 5a f3 2c bd
       -0.026030332 -0.12667097 -0.040494237 -0.042224266
0002e0 74 fe dc 3d a9 7e 2d bd a3 b2 37 3e 4a 3d 9e 3d
       0.107907206 -0.04235712 0.17939238 0.07726534
0002f0 e1 97 7f bd 99 f3 29 3d 29 31 cc 3d 3d 22 99 bd
       -0.062400702 0.04149208 0.09970314 -0.074772336
000300 f5 83 09 be f9 42 b8 3e 1c 96 9a be bc a6 07 be
       -0.13429244 0.35988596 -0.3019265 -0.13247198
000310 9d 0a 9d be 78 02 ad bb 46 2d 6c bd d9 04 60 3e
       -0.3067216 -0.0052798353 -0.057660364 0.21876849
000320 2c 1d 39 be 20 b7 99 be 5d 4b 28 3b 0f ef 3a be
       -0.18077534 -0.30022526 0.0025679686 -0.18255256
000330 52 da 71 be 1f 74 87 be 8d 24 29 be 09 2f 36 be
       -0.23618439 -0.2645578 -0.1651785 -0.1779138
000340 b6 d9 1a bc be 21 83 bd 28 16 90 be 2c ec e6 bc
       -0.00945132 -0.0640292 -0.28141904 -0.028188787
000350 56 ae ce 3c 65 a5 1e be 0b ce 08 be 72 21 0d 3e
       0.025229614 -0.1549278 -0.13359849 0.1378229
000360 5a 5f fc 3d 25 29 26 be 24 20 02 be e5 02 a3 be
       0.12322874 -0.16226633 -0.12707573 -0.31838146
000370 3d 3b be bd eb d8 3d be a8 83 6a be 7d 98 af be
       -0.092886426 -0.18539779 -0.22901785 -0.34296027
000380 dc 8c f7 be 9e 10 31 3e 4a 33 a6 be 43 b4 96 bd
       -0.48349655 0.17291495 -0.32461005 -0.07358601
000390 8c aa 83 be 30 e0 97 bd 29 93 45 be 12 90 91 bc
       -0.25716054 -0.07415807 -0.19294418 -0.017768893
0003a0 33 44 91 be a2 2a 11 3d b8 7c eb bd bd 1c 0e be
       -0.28372344 0.03544105 -0.114983976 -0.1387815
0003b0 37 23 d7 ba 8b 38 b6 3e fe 16 a5 3b 03 d3 da bd
       -0.0016413693 0.35590014 0.0050381413 -0.106847785
0003c0 87 a1 35 3d 71 3d df bd 0b 50 92 bd 50 93 df bd
       0.044343498 -0.10900391 -0.07144173 -0.109167695
0003d0 45 2c 4b be 6b 97 6b be cd 4c a6 be d7 93 55 be
       -0.19841106 -0.2300698 -0.3248047 -0.20857178
0003e0 6b 52 ec 3e 95 37 33 bb 22 c2 5e be fb 07 8e be
       0.4615663 -0.0027346362 -0.21753743 -0.27740464
0003f0 35 03 98 3e 19 53 ae bd d0 8a 52 b9 b5 f8 9f be
       0.29689947 -0.08511943 -0.00020078872 -0.31244436

lstm_cell.bias_hh f4 [256]
000000 e6 b9 2e be 78 e8 bf be 94 35 d0 be 7d a2 24 3e
       -0.17063102 -0.37482047 -0.40665877 0.1607761
000010 66 40 14 be 26 e8 dd 3e 83 aa 62 be a5 76 fa be
       -0.14477691 0.43341178 -0.22135358 -0.48918644
000020 12 f8 7f ba a1 5b 3a be cc 3c 95 be 1e 5f d1 be
       -0.00097644434 -0.18199016 -0.29147947 -0.4089288
000030 48 b4 9c be c6 d1 cd 3d c5 c5 2c be 2d 0f 9a be
       -0.30606294 0.10049777 -0.16872318 -0.30089703
000040 30 d5 99 3d 7d ce 58 be eb 00 2b be 6e b7 09 bd
       0.075113654 -0.21172519 -0.16699569 -0.033622198
000050 73 72 be 3d 03 a0 c4 bd 28 7f 26 3e ea d1 f6 be
       0.09299173 -0.09600832 0.16259444 -0.48207027
000060 70 f0 0b be 1c c1 80 be 5f 36 88 be 30 e4 0a bf
       -0.13665938 -0.2514733 -0.26603982 -0.54254436
000070 84 64 3e be 23 28 f1 bb 06 6f 7c bd 2b 05 9d be
       -0.18593031 -0.007359521 -0.061629318 -0.30668005
000080 be e4 15 be 14 a6 93 3a bb a4 40 be 88 95 26 bd
       -0.1463804 0.0011264705 -0.1881284 -0.040669948
000090 13 40 0c be de 28 7f be 8c 61 15 3e 94 27 39 bf
       -0.13696317 -0.24917933 0.14587992 -0.72326016
0000a0 37 db 43 be 77 5a c6 be 2c 6a 86 be df 42 47 bd
       -0.19126593 -0.38740894 -0.26252878 -0.048647758
0000b0 b4 c4 44 bd c9 f9 5f be ba a8 3f 3e 2f 46 17 be
       -0.048039153 -0.21872629 0.18716708 -0.14772867
0000c0 d4 8a 91 be 5e 88 32 be ab 60 5b be c8 4c 28 3c
       -0.2842623 -0.17434832 -0.21423595 0.010272212
0000d0 4a ef 08 bf 07 2c 01 bf 32 8e 2b be cb 66 1e be
       -0.53490126 -0.50457805 -0.16753462 -0.154689
0000e0 f7 25 8f be 16 f7 82 be ec 46 83 bc 45 47 7b be
       -0.27958652 -0.25579137 -0.01602503 -0.24538906
0000f0 b9 8f d4 be 02 00 cf bd b1 a7 75 be 8e af b4 be
       -0.41515902 -0.10107423 -0.2398975 -0.35290188
000100 fd 28 b3 bd 2d a7 34 3e 69 70 0b bd f3 9c 2a 3e
       -0.08748052 0.17641897 -0.03404275 0.16661434
000110 06 43 e7 bd 88 98 4c 3e 92 b9 22 3e ce b0 89 bc
       -0.112920806 0.19980061 0.15891102 -0.01680794
000120 48 8d fa bc 4b c1 50 bd 72 6f 39 bc 18 da 7f bd
       -0.030584946 -0.05096559 -0.011318075 -0.06246385
000130 3c 4d 11 3e c8 0a 1a 3e 28 b7 8b be a5 69 ab be
       0.14189619 0.15043175 -0.27288175 -0.33479038
000140 8d cc 27 be b7 b4 09 be d2 a0 ab 3d af 1a 83 bc
       -0.16386624 -0.13447843 0.083802834 -0.016003935
000150 3d e0 32 3e 39 9d a4 3d 68 98 c7 bb 4f 24 01 3e
       0.17468353 0.080378 -0.0060911663 0.12611507
000160 55 bd ba 3e 25 92 2e be 0f 8a 7c be d3 ad 56 be
       0.36472574 -0.17047937 -0.2466204 -0.20964746
000170 54 ea 48 be 5a c7 34 bc 0a a4 18 3e 13 2e 64 bd
       -0.19620639 -0.011033857 0.14906326 -0.055708002
000180 c3 fc 72 be 18 5a bc 3e 3a e3 8a bc 07 ef 61 be
       -0.23729233 0.36787486 -0.016954053 -0.22063838
000190 72 cb 50 3d 68 76 6a bc 79 42 b2 3d d1 5f 86 bc
       0.05097527 -0.014310457 0.08704085 -0.01640311
0001a0 87 8e 0c 3d c4 c0 ef bd fc 7b 2b 3e 9e 9e 87 3d
       0.034315612 -0.11706689 0.16746515 0.06622051
0001b0 56 46 e7 3d 05 55 b5 3e 73 0e 03 3e c4 e6 10 3e
       0.112927124 0.35416427 0.1279848 0.1415053
0001c0 f5 46 0f be ea 37 93 be 07 ca d8 bd fd 6a 0f bd
       -0.13991912 -0.28753597 -0.10585409 -0.03501414
0001d0 26 00 2c be 48 63 23 be 10 3d da bd bb c8 d0 bd
       -0.16796932 -0.15955842 -0.10656178 -0.10194536
0001e0 42 56 6b 3e bd ae 22 bd 42 e8 c7 bd ef 31 20 be
       0.22982123 -0.039717425 -0.097610965 -0.15644048
0001f0 90 3d 7c 3d 57 55 06 be 16 e5 1c be f8 fc b9 be
       0.061582148 -0.13118492 -0.15321764 -0.36325812
000200 17 44 56 3c 84 0f 56 3d 18 2e ed bd 61 52 a7 bd
       0.013077757 0.05226089 -0.11581057 -0.081700094
000210 cf 9a 52 3d ff 24 95 3d 7c e3 ea bd 61 c8 13 3d
       0.05141717 0.07282447 -0.114691705 0.036079768
000220 06 bd bc 3d 03 2a bc bd a6 41 49 3e 9d ec dd bd
       0.09215741 -0.091877006 0.19653949 -0.10836146
000230 0c 3d 75 3c 73 66 af 3d a3 13 33 3e 60 59 79 3e
       0.014968168 0.085644625 0.1748796 0.243505
000240 08 8e ac 3e 69 cb 0b be 6e 2e 93 be f8 a5 e0 3b
       0.3370211 -0.13651814 -0.2874636 0.0068557225
000250 87 7e 6c bd c7 b2 97 3c 15 43 0f be be 83 db 3a
       -0.057737853 0.018517865 -0.13990434 0.0016747636
000260 0b 47 43 bd a6 95 54 3e f9 93 3e 3e c4 76 ab bd
       -0.047675174 0.20760211 0.18611135 -0.08372262
000270 d7 80 81 3d 87 a9 65 3e 8c 32 ac bd d8 ad 94 be
       0.063234024 0.22427951 -0.084080786 -0.29038882
000280 88 54 ed 3c e3 63 45 bc 3c f3 b8 3d e7 bf b3 bc
       0.028970972 -0.012047741 0.09030768 -0.021942092
000290 c3 9c 9c 3d e8 89 63 3d a3 e1 b2 bd 70 f7 0a be
       0.076470874 0.05555144 -0.08734443 -0.13570952
0002a0 b6 88 31 be e7 58 34 3e 32 95 0d bd c7 dc a3 be
       -0.17337307 0.17612039 -0.034566112 -0.32004377
0002b0 93 9f 9d 3c a0 3a cc bd 71 76 1c be 60 5c 9e bd
       0.01924113 -0.09972119 -0.15279557 -0.07732463
0002c0 c4 b6 e0 bb 74 d4 29 b9 83 fe bd bc 0c b9 69 3e
       -0.006857725 -0.00016196241 -0.02319265 0.22824496
0002d0 7a ea 05 3d ed 38 b3 bd bf 85 f0 bd fa f8 07 3d
       0.032694317 -0.08751092 -0.1174426 0.033196427
0002e0 f3 7f e4 3c 09 03 13 bd da b2 8d 3e f4 ac d1 3d
       0.027893042 -0.035891566 0.27675515 0.10238066
0002f0 30 19 10 be db c8 3c 3e f1 7c 0f bd d1 e5 64 bc
       -0.14072108 0.18435995 -0.035031263 -0.013970808
000300 cf 76 22 be 7f 83 96 3e 82 ef 52 be 00 0a 78 3c
       -0.15865634 0.293972 -0.20599177 0.015139103
000310 0d 8a 3e be b4 b2 4a 3e ae 68 44 be 37 ee 33 3e
       -0.1860735 0.19794732 -0.19180557 0.1757134
000320 1c a7 37 be b1 6d 71 be 64 47 29 3e 3d f0 3d be
       -0.17934841 -0.23577 0.1653114 -0.18548675
000330 18 7d 81 be f9 9f 20 be 09 c7 0b be 7d 1a 1e be
       -0.2529075 -0.15686025 -0.13650145 -0.15439792
000340 bc 36 dd bd 89 04 3d be e6 88 e5 bd 4d 8b ea bd
       -0.108014554 -0.18458761 -0.11207752 -0.11452351
000350 c9 b0 70 3e d1 ae 0c be 77 94 04 be 6b 15 c3 3d
       0.23504938 -0.13738562 -0.1294726 0.095255695
000360 5c 44 17 3d 5a 78 fc bd 97 3f ac be 9a d4 71 be
       0.036930427 -0.12327643 -0.33642265 -0.23616257
000370 77 98 22 be 87 4e 92 be b7 bc 14 be 7b 59 c8 be
       -0.15878473 -0.28575537 -0.14525114 -0.39130768
000380 0a 72 ee be d6 6b 26 3e b0 36 c5 be 08 05 86 be
       -0.4657138 0.16252074 -0.38518286 -0.26175714
000390 11 1d bc be f3 ed 37 bc 0f 86 43 be 2f a5 47 bd
       -0.36740926 -0.011226165 -0.19094108 -0.048741516
0003a0 db 78 c2 be 0a d0 14 3d f7 73 c4 bc 27 94 c6 bd
       -0.3798283 0.036331214 -0.023981078 -0.096962266
0003b0 15 81 ba bb a5 f2 dd 3e 9a 34 42 3e 3f 81 c5 bd
       -0.0056916573 0.43349186 0.18965378 -0.09643792
0003c0 a4 4e af 3d 98 67 9d be 57 2b ec bc e6 68 18 be
       0.085599214 -0.30743098 -0.02882926 -0.14883766
0003d0 19 d2 29 be 7f d6 9f be c0 99 53 be 41 47 67 be
       -0.16584052 -0.31218335 -0.2066412 -0.22585775
0003e0 15 25 ef 3e db 85 09 be 1a d9 ee bd f9 4f 2a bd
       0.4670798 -0.13429968 -0.116625026 -0.041580174
0003f0 20 72 8d 3e ed a5 29 bc 76 6e 9d bd 1d 53 6f be
       0.27626133 -0.010354501 -0.076870844 -0.23371549

fc_out.weight f4 [2, 64]
000000 07 ac 13 bf 7c c2 e9 3d a0 b6 0d bd 4f a8 14 bd
       -0.5768437 0.11414048 -0.034597993 -0.036293324
000010 2a 22 15 3b fe 91 1e be 9f d0 a8 3d b6 57 80 be
       0.002275596 -0.15485379 0.08242916 -0.25066918
000020 b9 85 f2 3d c2 7a c2 be a1 fa e7 bd d2 6b 3b be
       0.11841912 -0.37984282 -0.113271005 -0.18302849
000030 b6 3f 15 3d 4b 07 fe bd 65 5c a0 3d 63 0e c5 3d
       0.036437713 -0.12403735 0.07830123 0.09621885
000040 64 a5 bc 3c e7 05 16 3e 8c fd b5 3e 67 fa 36 3e
       0.023028083 0.14650689 0.35545003 0.17868958
000050 6a de 19 3a f5 0e ff 3e 04 f8 9f bd 69 e9 70 be
       0.0005869629 0.498161 -0.07810977 -0.23526539
000060 af d6 fc ba 0b 7c 9a 3d 37 92 18 be ad 3d 22 be
       -0.0019290055 0.075431906 -0.14899527 -0.1584384
000070 9d e5 ff be ec 72 af 3c e6 22 d1 3d 50 69 31 be
       -0.4997987 0.021417104 0.102117345 -0.1732533
000080 e7 bd ed bd 54 51 68 bd e2 05 e4 bc c3 86 ce 3d
       -0.116084866 -0.056718186 -0.027834836 0.100842975
000090 e7 88 ca bd 46 d7 76 3e 13 da 5d 3d 0e a1 f7 bd
       -0.09889393 0.24105558 0.05416305 -0.120912656
0000a0 99 ef 26 3d e0 e3 68 be 35 d4 a5 bd 64 5c a1 3d
       0.040755842 -0.22743177 -0.08097116 0.0787895
0000b0 87 71 85 3c 1a 74 0a 3e 7e aa 58 3d 16 c9 23 be
       0.016289486 0.13520852 0.05289697 -0.15994677
0000c0 68 92 bb be 9b 6b 31 3d 2b 4d 20 3d c2 d1 1c 3c
       -0.36635137 0.04331551 0.039136093 0.009571495
0000d0 a6 a8 8f bd a5 57 dc bd 04 67 e1 bd f8 52 19 bd
       -0.07014589 -0.10758904 -0.11005977 -0.03743264
0000e0 5a 59 6d 3d 96 e0 93 3e 73 5d fe bd 74 d6 fc be
       0.05794654 0.28882283 -0.12420168 -0.49382365
0000f0 2e 83 9c be 4f 43 59 3d 77 e3 fb be 2a 28 ce bd
       -0.30568832 0.053042706 -0.4919698 -0.100662544
000100 54 00 09 3f 53 85 43 be 6e 5a 6d 3e 52 7e 01 3d
       0.53516126 -0.19093828 0.23179027 0.03161461
000110 5d 72 ef 3c c9 30 05 3e fd f3 1c 3d d6 a8 95 3e
       0.029229337 0.13006891 0.038318623 0.29230374
000120 e2 a6 b8 3b e6 af 48 3e 36 9c 65 3d 06 d3 7e 3d
       0.0056351284 0.1959835 0.056057177 0.062212966
000130 21 fe 41 be f9 03 2d 3e a8 a5 df bb b2 d5 7c bc
       -0.18944599 0.16896047 -0.0068251677 -0.015431808
000140 3e 4d a9 bd 99 13 bd bc f0 8c f7 be 64 91 6b be
       -0.08266686 -0.023080634 -0.48349714 -0.23004681
000150 53 bc 70 bc 4a d7 f3 be 7d ba 1b bd 9f 26 9e 3d
       -0.0146933375 -0.4762519 -0.038019646 0.0772221
000160 56 f0 df 3d 7d fb 2d 3d 5a 1a 26 3e ee d3 47 3e
       0.10934512 0.042476166 0.1622099 0.19514439
000170 02 23 a2 3e bc b5 2a bd e1 e7 33 be 0c e6 7c 3d
       0.31667334 -0.04167722 -0.17568924 0.061742827
000180 88 de 8a 3d 64 2a 67 bd a5 04 b3 bd 85 15 1f be
       0.06780726 -0.05643691 -0.0874112 -0.15535553
000190 fa 61 c5 3d 81 f9 c6 bc 7f 16 97 3d 78 c0 ee 3d
       0.09637828 -0.024288895 0.07377338 0.11657804
0001a0 7b d2 03 bd 90 6b 63 3e a2 82 f4 3c 7f be ba bc
       -0.03218315 0.22209 0.029847447 -0.022795914
0001b0 b5 4d 0d be 9a d1 d8 bd 3b ee 55 bc 0e 81 a9 3d
       -0.13799174 -0.10586853 -0.013057287 0.08276568
0001c0 8b 05 e0 3e dd 97 6d 3d f8 cf 1e be 7a 03 1f 3c
       0.4375423 0.058006156 -0.15509021 0.009705419
0001d0 3e c2 9c 3c e3 80 07 3e 61 5a 5a 3e ae 03 f4 3a
       0.01913559 0.1323276 0.2132354 0.0018616819
0001e0 fe 41 da 3c 71 a5 8a be 3c af 29 bc 03 fb 01 3f
       0.026642796 -0.27079347 -0.010356721 0.5077364
0001f0 43 04 8c 3e d7 07 93 bc 4e d0 01 3f 9f ae b7 3d
       0.27347 -0.017948074 0.5070847 0.08968853

fc_out.bias f4 [2]
000000 a2 95 68 3d 8d c9 9c 3d
       0.056783326 0.0765563
