model_ckpts/cric_prediction_test_train_split.pth (torch_old, 72263 bytes, 6 tensors)

lstm_cell.weight_ih f4 [256, 3]
0	0x3db85362	0.09000279
1	0x3cbec7b2	0.023288582
2	0x3e35bb78	0.17747295
3	0x3e854c4a	0.26034766
4	0x3e201934	0.15634614
5	0xbd648537	-0.055791106
6	0x3db6a8aa	0.08918889
7	0x3d885f84	0.06658843
8	0xbc737fd3	-0.014862019
9	0xbd3b0c6b	-0.04566614
10	0xbae97623	-0.0017811697
11	0x3e169703	0.14706044
12	0x3d637a86	0.05553677
13	0xbe046017	-0.1292728
14	0xbd19c671	-0.037542764
15	0x3e19e142	0.15027335
16	0x3c605675	0.013692488
17	0x3cb03ecd	0.02151432
18	0xbe7d97f7	-0.24765001
19	0x3d94d371	0.07266892
20	0xbdeae92f	-0.114702575
21	0x3da64ab0	0.08119714
22	0x3e09766c	0.1342408
23	0x3e0ee55f	0.13954686
24	0xbe148ace	-0.14506075
25	0x3d5efee1	0.05444229
26	0xbdadcce9	-0.08486349
27	0x3dc388eb	0.095475994
28	0x3def4340	0.11682749
29	0x3df3aac5	0.11897806
30	0x3d28e8a2	0.04123748
31	0x3d14d329	0.03633419
32	0xbd8bda05	-0.06828693
33	0x3e2ed506	0.1707345
34	0x3e2ece63	0.17070918
35	0x3d9b43bf	0.07581281
36	0xbdd537bb	-0.1041102
37	0x3ccc1660	0.024913013
38	0xbd911cd1	-0.070855744
39	0x3e853ae9	0.26021507
40	0x3dbb995d	0.09160111
41	0x3d4a6d98	0.049420923
42	0x3e530894	0.20608741
43	0x3d0606a4	0.032721177
44	0x3d8cf3bb	0.068824254
45	0x3e1b0dfc	0.15142053
46	0x3c8c095c	0.017094307
47	0x3d97c667	0.07410889
48	0x3d7b11b4	0.06129618
49	0x3e78a7b9	0.24282731
50	0x3e0e0eff	0.13872908
51	0xbd02afbc	-0.031905875
52	0x3e38a07b	0.18029968
53	0xbc7a6513	-0.015282887
54	0x3de98081	0.11401463
55	0x3d52fa45	0.051508207
56	0x3dcc0ac5	0.099629916
57	0xbdbaa801	-0.091140755
58	0x3a653725	0.0008743874
59	0x3db1d48f	0.086831205
60	0xbe393283	-0.18085675
61	0x3de5de21	0.11224008
62	0xb793e110	-1.7628568e-05
63	0x3d118b75	0.035533387
64	0xbded6dda	-0.11593218
65	0xbd3bf32a	-0.045886196
66	0x3dd69625	0.104778565
67	0x3daeef2b	0.085417114
68	0x3db95d76	0.090510294
69	0xbdeffa6e	-0.117176875
70	0xbde7a3ea	-0.11310561
71	0x3e3b43dc	0.18287605
72	0xbe0aa827	-0.13540708
73	0xbe0f6387	-0.1400281
74	0xba154cc7	-0.00056953396
75	0x3dae9927	0.08525305
76	0x3c03d7b7	0.008047036
77	0xbe1eb928	-0.15500319
78	0x3d1610d8	0.036637157
79	0xbf04408c	-0.5166099
80	0x3dd54592	0.1041366
81	0xbdc36f1e	-0.09542678
82	0xbe1048d5	-0.14090283
83	0x3da54650	0.08070052
84	0xbddff606	-0.10935597
85	0xbda7b75e	-0.081892714
86	0x3d3fbebc	0.046812758
87	0xbe33879f	-0.17532204
88	0x3b801259	0.003908437
89	0xbcf94c78	-0.030431971
90	0xbdee4fe7	-0.11636334
91	0xbdb07bc1	-0.08617354
92	0xbe6c372e	-0.23067924
93	0x3ea25550	0.31705713
94	0x3e855994	0.26044905
95	0x3e96eb68	0.29476476
96	0x3e0bedc3	0.13664918
97	0x3ddaf48d	0.106911756
98	0x3e1cedb2	0.15325049
99	0x3e2918f5	0.16513427
100	0x3e21ac23	0.15788321
101	0x3da38bec	0.07985672
102	0x3de92eb5	0.11385862
103	0x3d42b491	0.047535483
104	0x3e08f846	0.13375959
105	0x3db7a7f0	0.089675784
106	0xbe07b8fa	-0.13254157
107	0x3cc01ee4	0.02345223
108	0xbe366259	-0.17810954
109	0xbe0029ed	-0.12515993
110	0xbda7e866	-0.08198623
111	0xbd754d2b	-0.059888046
112	0xbd1b5868	-0.037926108
113	0x3d985bcf	0.07439386
114	0xbd905207	-0.070468955
115	0xbd177b10	-0.036982596
116	0xbde40270	-0.111332774
117	0xbe358708	-0.17727292
118	0x3da35b36	0.079763815
119	0x3e49eadb	0.19718497
120	0x3e03f63b	0.12886898
121	0x3ddc74cd	0.107644655
122	0x3db8e3d0	0.09027827
123	0x3e0f28fd	0.1398048
124	0xbb14b9e8	-0.0022693817
125	0x3d3066a9	0.043066654
126	0x3e5652a7	0.20929967
127	0x3da2e1be	0.07953213
128	0x3db27205	0.08713154
129	0x3db2de9e	0.08733867
130	0xbcf0d237	-0.029397113
131	0xbdc0d062	-0.09414746
132	0x3df080b8	0.11743301
133	0x3e314e52	0.17315033
134	0x3e1661cf	0.14685749
135	0xbdc9f49e	-0.0986111
136	0xbe60989c	-0.21933216
137	0x3e30b375	0.17255957
138	0xbcf8c2ff	-0.030366419
139	0xbd05414e	-0.032532983
140	0xbcad2258	-0.02113454
141	0xbd93de89	-0.072201796
142	0xbe4c8736	-0.19973454
143	0x3db28a67	0.087178044
144	0x3dca8a5f	0.098896734
145	0x3ea8770a	0.3290332
146	0x3d80d737	0.06291049
147	0xbe1d2b3f	-0.15348528
148	0x3bc49683	0.0059993877
149	0x3dd2396b	0.10264858
150	0xbdbfa392	-0.093573704
151	0xbec2cc3a	-0.38046438
152	0xbe893cc0	-0.2680416
153	0xbc68435d	-0.014176217
154	0x3e22e5e7	0.15908013
155	0x3dbb7fec	0.091552585
156	0xbcd98bff	-0.026556013
157	0xbf6e77f7	-0.931518
158	0xbf1d01c1	-0.613308
159	0x3dbc89b2	0.09205951
160	0x3dc81022	0.09768702
161	0xbdae0805	-0.08497623
162	0x3cef75d3	0.029230988
163	0xbe4ce767	-0.20010148
164	0xbd18518c	-0.037187144
165	0x3df0133d	0.117224194
166	0xbd9c4825	-0.07630948
167	0x3de85017	0.11343401
168	0x3d20841e	0.039188497
169	0xbd801ac7	-0.062551074
170	0xbda28db9	-0.07937188
171	0x3e6169da	0.22013035
172	0x3d93fab4	0.07225552
173	0x3d51882e	0.05115526
174	0x3d710d21	0.05885041
175	0x3dba172b	0.0908645
176	0x3decd942	0.11564876
177	0x3db2faff	0.0873928
178	0x3c624bf4	0.013812054
179	0xbdf25c47	-0.11834007
180	0x3e608ff1	0.2192991
181	0xbd8b6293	-0.06805911
182	0x3e6a8fe5	0.22906454
183	0x3d9b1597	0.07572477
184	0x3e0b281b	0.13589518
185	0x3ce620d7	0.028091831
186	0xbe331fe9	-0.17492642
187	0xbd5f8de4	-0.054578677
188	0x3dab9090	0.083771825
189	0x3d2f5721	0.042807702
190	0xbd02d511	-0.031941477
191	0xbc35f95d	-0.011106816
192	0xbde46402	-0.111518875
193	0x3d60b169	0.05485669
194	0x3e110c8e	0.14164945
195	0xbdd8a132	-0.105776206
196	0x3e19bd94	0.15013725
197	0xbda3bb7f	-0.079947464
198	0x3e2b9d33	0.16759185
199	0xbdcd87f5	-0.10035697
200	0xbe0cd7a5	-0.13754137
201	0x3d9d4a8e	0.07680236
202	0x3e5e8a6b	0.2173249
203	0x3bdea140	0.006794125
204	0x3e124899	0.14285506
205	0xbe18db23	-0.14927344
206	0xbd0c4e90	-0.03425461
207	0xbdd1dd4f	-0.102472894
208	0xbdab6a8e	-0.08369933
209	0x3dc0153a	0.09379049
210	0xbcd56a34	-0.026051618
211	0xbd67e313	-0.05661304
212	0x3ba79f1c	0.005115403
213	0x3e1a033c	0.15040296
214	0xbd83df40	-0.06439066
215	0xbd81b648	-0.063335955
216	0xbd64b0c7	-0.05583265
217	0x3d782cb7	0.06058952
218	0x3d52ac0f	0.05143362
219	0x3e19eb44	0.15031153
220	0x3d4e6c76	0.050396405
221	0x3ca0238a	0.019548196
222	0x3e012c93	0.1261466
223	0xbd622a88	-0.055216342
224	0x3d16bf5a	0.03680358
225	0x3e1cf136	0.1532639
226	0xbd6adcd3	-0.0573395
227	0x3dbe71ce	0.0929905
228	0xbdb68209	-0.08911521
229	0x3c445b3e	0.011984644
230	0xbdba2273	-0.09088602
231	0xbe704f9d	-0.2346787
232	0xbe5fd547	-0.21858703
233	0xbe678844	-0.22610575
234	0x3e0e7d5c	0.13915008
235	0x3c90bce4	0.017668195
236	0x3d1fd1f6	0.039018594
237	0xbe123397	-0.14277492
238	0xbe197a45	-0.14988048
239	0xbddef024	-0.10885647
240	0x3dd26dbf	0.10274839
241	0x3e1d86f4	0.15383512
242	0xbbf04e9e	-0.0073335906
243	0x3dcd5c5a	0.1002738
244	0x3e2a85c8	0.16652596
245	0x3e0971c5	0.13422306
246	0x3e3da149	0.18518557
247	0x3dd093df	0.10184454
248	0x3d05a04d	0.032623578
249	0xbdd29d42	-0.10283901
250	0xbda0150f	-0.078165166
251	0xbd9d1b7e	-0.07671259
252	0xbd1d9209	-0.038469348
253	0xbdcc35d5	-0.09971205
254	0xbdf99e7a	-0.1218843
255	0x3d898731	0.06715239

lstm_cell.weight_hh f4 [256, 64]
0	0xbe3d48dc	-0.18484825
1	0xbd747efd	-0.059691418
2	0x3e268789	0.1626264
3	0xbd6eaea3	-0.058272015
4	0x3db758eb	0.08952507
5	0x3de53c9e	0.111932024
6	0xbe37077e	-0.17873952
7	0xbe44d17a	-0.19220534
8	0x3d8792ef	0.06619822
9	0xbe4cb336	-0.19990239
10	0x3dbdcdb1	0.09267748
11	0xbc884dcc	-0.016638659
12	0x3d4b782e	0.04967516
13	0xbe7ecdec	-0.2488324
14	0x3e386e74	0.18010885
15	0xbdf4ba8d	-0.11949644
16	0xbd04399d	-0.032281507
17	0x3b080b83	0.0020758815
18	0x3b9dd535	0.004816676
19	0x3dbf8ed7	0.093534164
20	0x3e00da97	0.12583385
21	0xbbd46215	-0.006481419
22	0xbdeb5d88	-0.11492449
23	0x3e39fa35	0.18161853
24	0xbe4ede7d	-0.2020206
25	0x3de286dd	0.110608794
26	0xbc9e1e83	-0.019301658
27	0xbdb170ed	-0.08664117
28	0x3d391fda	0.04519639
29	0x3da3e900	0.080034256
30	0xbd82ec59	-0.06392736
31	0xbcc9deea	-0.024642427
32	0xbddd6d0f	-0.10811817
33	0xbd9e10b3	-0.07718029
34	0x3c64ef85	0.0139731215
35	0x3db30cf8	0.08742708
36	0x3cc98423	0.02459914
37	0xbba4e682	-0.0050323615
38	0xbe1b37e6	-0.15158042
39	0x3e8fd613	0.28093013
40	0x3ceae006	0.028671276
41	0x3e00fa00	0.12595367
42	0xbe0e7cd7	-0.1391481
43	0x3d928797	0.07154768
44	0x3e22a35e	0.15882632
45	0xbdf0d806	-0.11759953
46	0x3d5a83d1	0.053348366
47	0x3e58d504	0.21175009
48	0x3e639530	0.2222488
49	0x3dcee690	0.1010257
50	0x3bf10d29	0.007356305
51	0x3e502c92	0.20329502
52	0xbe07d4cb	-0.13264768
53	0x3c62eb01	0.013849975
54	0x3d008b76	0.031383
55	0x3da2d8b0	0.07951486
56	0x3d751677	0.059835877
57	0x3ca5c41f	0.02023512
58	0x3da8a469	0.08234484
59	0x3d8ee155	0.069765724
60	0xbd0bf7ca	-0.034171857
61	0x3db6d0ac	0.0892652
62	0x3cb27f57	0.021789236
63	0xbc07ff69	-0.008300641
64	0x3e14f69c	0.14547199
65	0xbc30e575	-0.010796894
66	0x3e00875a	0.12551633
67	0xbdbfda79	-0.09367842
68	0x3d857230	0.0651592
69	0x3de37979	0.111071534
70	0xbe1cee54	-0.1532529
71	0xbd8fba68	-0.07017976
72	0x3db6dc1d	0.08928702
73	0xbd5ea81f	-0.05435955
74	0x3dc671be	0.09689663
75	0xbd20ce75	-0.039259393
76	0xbd0aef5e	-0.033919685
77	0x3c2ccb46	0.010546511
78	0xbc8f11aa	-0.017464478
79	0xbda28785	-0.079360045
80	0xbcd1e8ba	-0.025623668
81	0xbccd2e21	-0.02504641
82	0x3c75892e	0.0149863195
83	0x3e4522ad	0.19251509
84	0x3dbc70ba	0.092011884
85	0x3dbe3b02	0.092885986
86	0xbe04fcb2	-0.1298702
87	0x3ccbae8a	0.0248635
88	0x39a5220d	0.00031496622
89	0x3c34f383	0.011044386
90	0xbdf4edfb	-0.11959454
91	0xbb2e6ad4	-0.0026613967
92	0xbbc866c7	-0.0061157676
93	0x3cde727a	0.027154196
94	0xbe47955c	-0.1949057
95	0x3e41433f	0.18873309
96	0xbdaa9e8f	-0.08331024
97	0x3e1238c5	0.14279468
98	0x3d5ca1d2	0.05386526
99	0x3c6d7ab1	0.014494584
100	0xbd860ad0	-0.06545031
101	0xbe09e2db	-0.13465445
102	0xbdc05b3b	-0.09392401
103	0xbde0e196	-0.10980527
104	0xbe1c6986	-0.15274629
105	0x3e185f4e	0.14880106
106	0xbd0e8af6	-0.034800492
107	0xbcc23421	-0.023706498
108	0x3d0097a5	0.03139462
109	0xbe005b94	-0.12534934
110	0xbd4b6b2d	-0.049662758
111	0x3e1fa4e0	0.15590239
112	0xbccab230	-0.02474317
113	0xbe3dceb4	-0.18535882
114	0x3c914ae3	0.017735904
115	0x3dad2618	0.084545314
116	0xbde6715a	-0.11252089
117	0xbe64c6f8	-0.22341526
118	0x3cc06d81	0.023489716
119	0xbd9d1da3	-0.076716684
120	0xbd89abce	-0.06722222
121	0x3e3f7797	0.18697964
122	0x3c1e0db0	0.009646818
123	0x3d047fb3	0.032348346
124	0x3b998946	0.0046855537
125	0xbb2cb7d2	-0.0026354683
126	0xbd1bc1d4	-0.038026646
127	0xbdca8b06	-0.09889798
128	0x3d27f438	0.04100439
129	0x3da0eb0b	0.07857331
130	0xbe46371f	-0.19356965
131	0xbe4a6e1f	-0.1976857
132	0xbd7d03c6	-0.061771177
133	0x3e181e7c	0.14855379
134	0x3d81289a	0.06306572
135	0xbd7f9839	-0.06240103
136	0x3da70110	0.081544995
137	0xbbc11df5	-0.0058934637
138	0x3d7ab58e	0.0612083
139	0xbd187697	-0.03722247
140	0x3dc2d2ae	0.0951284
141	0xbd93695f	-0.07197832
142	0xbe479043	-0.19488625
143	0x3dc9848d	0.09839735
144	0xbe1f9ff7	-0.15588365
145	0xbe093a00	-0.13401031
146	0xbd310f87	-0.0432277
147	0xbc61f50d	-0.013791335
148	0x3e2c2e2a	0.16814485
149	0xbdce9aa0	-0.10088086
150	0x3d93105b	0.07180854
151	0x3d0eac1c	0.034832105
152	0xbde7fa2c	-0.113270134
153	0xbd661c8f	-0.05617958
154	0x3cc2d073	0.023781037
155	0x3c841790	0.016124517
156	0xbcc6980a	-0.02424242
157	0xbe1cdb3f	-0.15318011
158	0xbe035179	-0.12824048
159	0x3d0173c9	0.031604562
160	0x3d197e52	0.037473984
161	0xbaa7f91d	-0.001281533
162	0x3dcab825	0.09898404
163	0xbe531ac1	-0.20615675
164	0x3cb4dde6	0.022078466
165	0xbdb275e2	-0.087138906
166	0x3e2b1d94	0.16710502
167	0x3d33c6ce	0.043890767
168	0x3d6743dd	0.056461204
169	0x3e5c15ac	0.21492642
170	0x3db8de9d	0.09026835
171	0x3d8f5090	0.06997788
172	0xbd90a2ef	-0.07062327
173	0xbe416c7e	-0.18889043
174	0x3da16c56	0.078819916
175	0x3d7b0b67	0.06129017
176	0x3df1ca80	0.11806202
177	0xbdbe3679	-0.092877336
178	0x3d9a9f2e	0.07549892
179	0xbd18a03f	-0.037262198
180	0x3da099dc	0.07841846
181	0xbe010c6c	-0.12602395
182	0x3df40769	0.11915476
183	0x3d9f0bda	0.077659324
184	0xbd9a7298	-0.07541388
185	0x3dd363e3	0.10321786
186	0x3d9f798b	0.07786854
187	0x3ca5a0e2	0.020218316
188	0xbdb75d47	-0.08953338
189	0x3d208b12	0.039195128
190	0xbc82f313	-0.015985047
191	0xbd4e46b4	-0.050360397
192	0xbdfdd07b	-0.1239328
193	0x3de8dbd2	0.113700524
194	0xbe20f4c2	-0.15718368
195	0xbccd19bc	-0.025036685
196	0xbdc23696	-0.09483068
197	0xbd6a14ea	-0.05714885
198	0xbd8f3cc7	-0.06994014
199	0x3c00b836	0.007856419
200	0x3d24526f	0.040117677
201	0x3c42e53e	0.011895476
202	0xbea52062	-0.3225127
203	0x3deef915	0.116686024
204	0x3e1262c1	0.14295484
205	0x3dc1f6c1	0.09470893
206	0x3d5bf708	0.053702384
207	0x3e163bd7	0.14671265
208	0xbd1ce1fa	-0.038301446
209	0xbd8f693a	-0.07002492
210	0xbe489291	-0.1958716
211	0xbc32484f	-0.0108814975
212	0x3dc3f768	0.09568673
213	0xbdfcd959	-0.12346143
214	0xbd0dd73a	-0.034629084
215	0x3e0c6018	0.13708532
216	0x3cec9751	0.028880747
217	0x3e11db6c	0.14243859
218	0xbe7b1ba7	-0.24522267
219	0xbdcb142c	-0.09915957
220	0xbd3bf1e2	-0.045884974
221	0xbc52ca92	-0.012865679
222	0xbd3bdf68	-0.045867354
223	0x3c6ca4b4	0.014443565
224	0xba82c42d	-0.0009976678
225	0xbe0374c9	-0.12837519
226	0xbd6e83d3	-0.058231186
227	0xbdf8f418	-0.12155932
228	0x3d3e0b45	0.046397466
229	0x3dbe580a	0.09294136
230	0x3e79aa74	0.24381429
231	0xbdad4c94	-0.08461872
232	0x3d78fc35	0.0607874
233	0x3d723a29	0.059137497
234	0x3e07f9ce	0.13278887
235	0xbcfdee02	-0.03099728
236	0xbe11f29d	-0.14252706
237	0xbe8360d8	-0.25659823
238	0x3e9decc0	0.30844688
239	0x3ca8bc2c	0.02059754
240	0x3dfd8343	0.12378552
241	0xbbbd9e4c	-0.0057866927
242	0x3d1f8aed	0.03895085
243	0x39822620	0.00024823938
244	0xbd5ab493	-0.053394865
245	0xbd742bd5	-0.059612114
246	0xbdca6f2d	-0.09884486
247	0xbe0d3ce3	-0.13792758
248	0xbe1fc09e	-0.15600821
249	0xbe817c94	-0.25290358
250	0x3e0779f9	0.13230123
251	0xbe575191	-0.21027209
252	0x3e0cd55e	0.13753268
253	0xbe916f34	-0.28405154
254	0xbc59e3af	-0.013298913
255	0xbe9040aa	-0.28174335

lstm_cell.bias_ih f4 [256]
0	0xbe0f35de	-0.13985392
1	0x3dc291fc	0.095005006
2	0x3df6de53	0.12054124
3	0x3cea3648	0.028590336
4	0xbdbc4966	-0.09193687
5	0xbe129405	-0.14314277
6	0x3da90daa	0.08254559
7	0xbc967282	-0.018365148
8	0xbdad962b	-0.08475908
9	0x3d5f0e48	0.05445698
10	0x3dfbcf80	0.12295437
11	0xbd2d8a7a	-0.04236839
12	0x3e09b6a2	0.13448575
13	0xbe090cf8	-0.13383853
14	0xbe1a5255	-0.1507047
15	0xbda593dd	-0.08084843
16	0xbd8704d8	-0.06592721
17	0x3e24e4d0	0.1610291
18	0x3d4c45b7	0.049871173
19	0xbcee5e73	-0.029097771
20	0xbd19f0ab	-0.037583034
21	0xbd4533f1	-0.04814524
22	0xbd98847f	-0.074471466
23	0xbe31846e	-0.17335674
24	0xbd0bff83	-0.03417922
25	0x3c8558f8	0.016277775
26	0xbe0cbcd5	-0.13743909
27	0x3db53b6d	0.08849225
28	0x3d84d207	0.06485372
29	0xbd93f94b	-0.07225283
30	0x3e27e7f8	0.16397083
31	0xbe806894	-0.25079787
32	0xbd83c63b	-0.06434294
33	0x3dfd01fa	0.123538926
34	0xbe00b686	-0.12569627
35	0x3e0cfcab	0.1376826
36	0xbe3b70f5	-0.18304808
37	0xbce66b34	-0.02812729
38	0xbdcf23b9	-0.101142354
39	0xbe42450a	-0.18971649
40	0xbe3c5e11	-0.18395258
41	0x3a76a073	0.0009408064
42	0xbdf930cc	-0.121675104
43	0x3d5c71b3	0.05381937
44	0x3d0d2231	0.034456436
45	0xbd67606f	-0.05648845
46	0xbe1f6d0a	-0.15568939
47	0x3d206c60	0.039165854
48	0xbdd6f544	-0.104959995
49	0xbdc60cde	-0.09670423
50	0x3cb35ab0	0.02189383
51	0x3d10a096	0.035309397
52	0x3dc2c539	0.095102735
53	0xbc529190	-0.012852088
54	0xbd4579e7	-0.04821196
55	0xbc8949e7	-0.016758872
56	0xbd30a599	-0.043126676
57	0xbd8ef723	-0.06980731
58	0x3d85a0a5	0.06524781
59	0x3e0c6846	0.13711652
60	0xbe22e771	-0.159086
61	0xbd94431d	-0.07239363
62	0x3d3a4b4b	0.04548196
63	0xbb0eee38	-0.002180947
64	0xbe69856c	-0.22804803
65	0x3cb8fd8c	0.022581838
66	0xbd0a5a37	-0.03377744
67	0xbe14d2f6	-0.145336
68	0xbb2f4678	-0.0026744884
69	0xbd7766be	-0.060400717
70	0xbddbc5c8	-0.10731083
71	0x3dc4d70b	0.09611329
72	0xbd02782e	-0.031852894
73	0x3d0c6740	0.034278154
74	0xbcb1dab2	-0.021710727
75	0x3d21ac3e	0.039470904
76	0x3e11896c	0.14212579
77	0x3e38fb1b	0.18064539
78	0x3e0ded98	0.13860166
79	0x3d002e0a	0.031293906
80	0xbcae7186	-0.021294367
81	0xbda9440c	-0.08264932
82	0x3e2ad6f8	0.16683567
83	0x3e1fd805	0.15609749
84	0x3b9b9ed3	0.004749158
85	0x3de159df	0.1100347
86	0x3e5a6aba	0.21329775
87	0x3da4980b	0.080368124
88	0x3d2b2a17	0.041788187
89	0x3e0a3a8c	0.13498896
90	0x3d33dff6	0.043914758
91	0x3e30fa04	0.17282873
92	0xbdf2f8eb	-0.118638836
93	0xbe4b7617	-0.19869266
94	0x3c5c482b	0.013444941
95	0x3e4b0d31	0.19829251
96	0x3e13e380	0.14442253
97	0x3e280415	0.16407807
98	0x3d2f9d66	0.042874716
99	0x3df4ad57	0.119471245
100	0xbd255fbf	-0.040374514
101	0x3d8635b6	0.06553213
102	0xbd0af58c	-0.033925578
103	0xbc93d47a	-0.018045653
104	0x3e42eb80	0.19035149
105	0xbbc4f4f9	-0.0060106483
106	0xbd113c61	-0.035457972
107	0x3d23cc9b	0.03999005
108	0xbcf02210	-0.029313117
109	0x3dd3245c	0.103096694
110	0xbd638c09	-0.05555347
111	0xbc84e146	-0.0162207
112	0x3e4ee1f5	0.20203383
113	0xbddc5562	-0.10758473
114	0x3ea51a0f	0.32246444
115	0x3d680af7	0.056651082
116	0x3dbdc589	0.092661925
117	0x3e19a969	0.15006031
118	0x3d7b18b1	0.061302844
119	0xbccf9ae7	-0.025342418
120	0xbcdafc9b	-0.02673178
121	0xbbdae8c7	-0.0066805813
122	0xbddf14d3	-0.10892644
123	0x3d5b5a7b	0.053553086
124	0x3e799ee3	0.24377017
125	0x3d399a4c	0.045313165
126	0x3e1667f1	0.14688088
127	0x3c3533dc	0.0110597275
128	0x3cfab7a4	0.030605145
129	0xbd84127b	-0.06448837
130	0x3c7d0c80	0.015444875
131	0xbd83a054	-0.064270645
132	0x3dfc7c8a	0.123284414
133	0xbd958586	-0.07300858
134	0xbd6d79f8	-0.057977647
135	0x3dd19c7b	0.102349244
136	0x3d8603f8	0.06543726
137	0x3e2e97cb	0.17050092
138	0xbdaf2431	-0.08551825
139	0x3dbbaf01	0.09164239
140	0xbdc296dd	-0.09501431
141	0xbca3e062	-0.020004455
142	0xbcd79231	-0.026314827
143	0xbd6c5803	-0.057701122
144	0x3c654664	0.013993833
145	0x3dd17052	0.102265015
146	0xbdea32d5	-0.11435477
147	0x3d9ffa52	0.07811417
148	0x3c014cc6	0.007891839
149	0x3dbcab8b	0.09212407
150	0xbb4764a5	-0.003042498
151	0xbd0ebadd	-0.034846175
152	0x3e0e5fcd	0.13903733
153	0x3cc3db65	0.023908326
154	0x3a879e87	0.0010346927
155	0x3d83fe0d	0.06444941
156	0x3dd99d63	0.10625722
157	0xbe01bddb	-0.1267008
158	0xbca42d42	-0.020041112
159	0x3da98d02	0.08278848
160	0xbcfef1b0	-0.031121105
161	0x3d7347c8	0.059394628
162	0xbdec131d	-0.11527083
163	0x3ddb15e8	0.10697538
164	0xbd164300	-0.03668499
165	0xbd957d9a	-0.07299347
166	0xbdbfda92	-0.09367861
167	0x3d63bbc3	0.055598985
168	0xbc891f05	-0.016738424
169	0xbcb31f4f	-0.021865515
170	0xbd86d9f8	-0.06584543
171	0xbbcfbf8f	-0.0063399742
172	0x3c78a47b	0.015175934
173	0xbcf93ea4	-0.030425377
174	0x3d93a0be	0.072083935
175	0xbcc44704	-0.023959644
176	0x3d6dfe8c	0.058104083
177	0xbdb897c7	-0.09013324
178	0x398db13c	0.00027025666
179	0xbe157568	-0.14595568
180	0xbbec5807	-0.007212642
181	0x3cbe9269	0.023263173
182	0x3cbbbf9f	0.02291852
183	0x3d5e3ba7	0.054256108
184	0x3dc20055	0.094727196
185	0xbcc48030	-0.023986906
186	0x3d1c87e2	0.038215525
187	0x3c97425d	0.018464262
188	0xbe003538	-0.12520301
189	0x3d374cf0	0.044751108
190	0x3d2349fd	0.039865483
191	0x3da8a3fb	0.08234402
192	0xbe43e982	-0.19132045
193	0xbd9bd643	-0.076092266
194	0x3b6f1f3c	0.0036487123
195	0xbde2018f	-0.110354535
196	0xbd0e22b0	-0.03470105
197	0xbd0f5902	-0.034996994
198	0x3db442c0	0.08801794
199	0x3db4c752	0.0882708
200	0xbb13160e	-0.0022443566
201	0x3e13647c	0.143938
202	0x3c8bf306	0.017083656
203	0xbe3706f4	-0.17873746
204	0x3dc7182a	0.09721406
205	0x3e19d58d	0.1502287
206	0x3c807e63	0.015685266
207	0x3dd48b00	0.10378075
208	0xbb145651	-0.0022634456
209	0x3e0c77a5	0.13717516
210	0xbb04ad28	-0.002024481
211	0xbde3b35a	-0.11118193
212	0x3d6ac4ea	0.057316698
213	0xbc1f9892	-0.009740965
214	0xbd6c8d88	-0.057752162
215	0xbe1336de	-0.14376399
216	0x3d66a6f9	0.05631158
217	0x3dd78d93	0.1052505
218	0x3e149e18	0.14513433
219	0x3db66caa	0.08907445
220	0xbd8aa4d0	-0.06769717
221	0xbe115535	-0.1419266
222	0x3d710a81	0.058847908
223	0x3e0461c0	0.12927914
224	0xbde78b8a	-0.11305912
225	0xbccaa92b	-0.024738869
226	0xbdd5f5fa	-0.10447307
227	0xbd6ba694	-0.05753191
228	0xbd2911ba	-0.04127667
229	0xbdc370b0	-0.09542978
230	0xbd960bd9	-0.073264785
231	0xbe6126ad	-0.2198741
232	0x3df08a24	0.11745098
233	0xbd912c86	-0.0708857
234	0xbe170bd0	-0.147506
235	0x3e00146b	0.12507789
236	0xbdc4982f	-0.09599339
237	0xbcc1e2b3	-0.023667669
238	0xbd8fd20c	-0.07022485
239	0x3de0509b	0.10952874
240	0x3df6d969	0.120531864
241	0xbe4f33dc	-0.20234627
242	0x3e3aeb31	0.18253781
243	0xbd6fb0d9	-0.058518264
244	0x3dc17292	0.09445681
245	0xbdf2bcda	-0.11852427
246	0xbe1d50a6	-0.15362796
247	0xbdac4287	-0.084111266
248	0xbdbf1b2b	-0.09331354
249	0x3d86e889	0.06587321
250	0xbe1cbdc5	-0.15306766
251	0x3c35ee48	0.011104174
252	0x3e4651b9	0.19367112
253	0xbdfc0865	-0.12306289
254	0x3db7bbc6	0.08971362
255	0x3bb114b5	0.00540408

lstm_cell.bias_hh f4 [256]
0	0xbe289ebc	-0.16466802
1	0xbdb83114	-0.08993736
2	0x3e0e319f	0.13886116
3	0xbc805b15	-0.015668431
4	0x3d89d086	0.06729226
5	0x3be6c0f0	0.007042043
6	0x3c9cb228	0.01912792
7	0x3d1ef387	0.038806465
8	0x3c981069	0.018562512
9	0xbdd11247	-0.10208564
10	0x3e6128cf	0.21988223
11	0xbdca748b	-0.0988551
12	0x3c637022	0.013881715
13	0xbd24343a	-0.04008887
14	0xbe261252	-0.16217926
15	0xbd0cb013	-0.034347605
16	0xbc43a5ca	-0.011941383
17	0x3c7bc92b	0.015367786
18	0x3d1ccf13	0.03828342
19	0xbc8a6460	-0.016893566
20	0xbdcf6b09	-0.10127837
21	0xbded0d4d	-0.115748025
22	0xbddccf24	-0.107816964
23	0x3d39a89c	0.045326814
24	0x3c43b154	0.011944134
25	0x3da21b8b	0.0791541
26	0xbde07229	-0.10959274
27	0x3d693c91	0.056942526
28	0xbb28c391	-0.0025751332
29	0xbe6aa0a1	-0.22912838
30	0xbd762ec5	-0.060103197
31	0xbe80c303	-0.25148782
32	0x3d3821d0	0.04495412
33	0x3c6153fd	0.0137529345
34	0xbca495b7	-0.02009092
35	0x3e1ac4b3	0.15114097
36	0xbdc1fc52	-0.094719544
37	0x3d8deec1	0.06930304
38	0xbdddb74b	-0.10825976
39	0xbe0c3aa6	-0.13694248
40	0xbe4c1473	-0.19929676
41	0xbdd51fbe	-0.10406445
42	0xbe4d4d6e	-0.20049068
43	0x3d842575	0.06452457
44	0x3da418d3	0.08012547
45	0xbd2abe92	-0.04168565
46	0xbd9ffffb	-0.07812496
47	0x3d225372	0.03963036
48	0xbcc59eba	-0.024123538
49	0xbdc9a4f6	-0.09845917
50	0x3e095ef1	0.13415124
51	0xbdbc9850	-0.09208739
52	0xbd8018d9	-0.06254739
53	0xbd695dbd	-0.05697416
54	0xbd031bdf	-0.032009
55	0xbb25aa01	-0.0025278332
56	0x3d13d542	0.03609205
57	0xbd873719	-0.06602306
58	0x3dea1368	0.11429483
59	0x3d71fc97	0.05907878
60	0xbd9f16fa	-0.07768054
61	0x3c5a5950	0.013326958
62	0x3d79a1af	0.06094521
63	0x3d657c9f	0.05602705
64	0xbe73cf72	-0.23809603
65	0xbdecd0cc	-0.11563262
66	0x3e0b9142	0.1362963
67	0xbdff7b88	-0.124747336
68	0x3d56376e	0.052298956
69	0xbe0d06f9	-0.13772191
70	0x3dc842a4	0.09778336
71	0xbcc9878a	-0.024600763
72	0x3de9a0ac	0.11407599
73	0x3d3a8fe7	0.045547392
74	0x3df55ec0	0.11980963
75	0xbd183a48	-0.037164956
76	0x3e10b41c	0.14131206
77	0x3e63de27	0.22252713
78	0xbd42dc0e	-0.04757314
79	0xbd42a7bf	-0.047523256
80	0x3d6f4e4b	0.058424275
81	0x3d93c8c9	0.07216031
82	0xbcc5d19f	-0.024147807
83	0x3de869cc	0.11348304
84	0xbd89fa9f	-0.06737255
85	0xbcc5133d	-0.024057025
86	0x3e6ca862	0.23111108
87	0xbe16948c	-0.14705104
88	0x3d40bfcb	0.047057908
89	0x3e1371d3	0.14398889
90	0x3ab145dc	0.0013524848
91	0x3d076e70	0.033064306
92	0x3de0b9b2	0.109729186
93	0xbd34ad35	-0.044110496
94	0x3e237d13	0.15965681
95	0x3ecd69fb	0.4011992
96	0x3de57dff	0.112056725
97	0x3e6539f3	0.22385387
98	0xbd8dc353	-0.06922021
99	0x3dbde385	0.092719115
100	0x3d468f73	0.048476648
101	0x3d96806c	0.07348713
102	0xbcd937fd	-0.026515955
103	0xbdb10d4f	-0.086451165
104	0x3c2c67b9	0.010522776
105	0x3cfaa6d7	0.030597134
106	0xbdfc0ae0	-0.12306762
107	0xb89dcc9b	-7.524454e-05
108	0x3e24b433	0.16084366
109	0xbdd6ffca	-0.10498007
110	0xbe0302d5	-0.12794049
111	0x3d948fdc	0.072540015
112	0x3e6b8a3d	0.23001952
113	0xbc65c302	-0.014023544
114	0x3e6c3446	0.23066816
115	0xbae3c99a	-0.0017378808
116	0x3cdf99a6	0.027294945
117	0x3c0833d8	0.008313142
118	0x3d98433f	0.07434701
119	0x3e0b3d8c	0.13597697
120	0x3e134a1b	0.14383738
121	0x3e0c578b	0.1370527
122	0xbe1a4e84	-0.15069014
123	0x3dfbb02b	0.12289461
124	0x3e1dcd98	0.15410459
125	0x3e0f1724	0.13973671
126	0xbc864ead	-0.016394937
127	0xbcc67574	-0.024225928
128	0xbd6114c7	-0.054951455
129	0x3dc5cd8a	0.09658344
130	0xbe007a7a	-0.12546721
131	0xbcb6ce4d	-0.022315169
132	0xbddbc734	-0.10731354
133	0xbd2d3bb1	-0.042293254
134	0x3c2f134f	0.010685756
135	0x3d9894c7	0.07450252
136	0x3d3fbb71	0.046809617
137	0x3d282d19	0.041058633
138	0x3c8ea6ad	0.017413462
139	0x3ce8210a	0.028336067
140	0xbe2ad74c	-0.16683692
141	0xbce9f170	-0.02855751
142	0xbc8e93fd	-0.01740455
143	0xbd568c9d	-0.052380193
144	0x3da1256d	0.078684665
145	0xbdae6c8a	-0.08516796
146	0x3ddcedc9	0.107875414
147	0x3c306b1b	0.010767723
148	0xbc7e6d84	-0.01552904
149	0xbd28aec7	-0.041182306
150	0xbd1c6dfa	-0.03819082
151	0xbd62e3cf	-0.055393036
152	0xbd245619	-0.04012117
153	0xbdd5d26e	-0.10440527
154	0x3d732232	0.059358783
155	0x3e13dc0b	0.14439408
156	0x3e2476da	0.16060963
157	0xbd917acf	-0.07103502
158	0xbded0759	-0.11573667
159	0xbcb816f1	-0.022471877
160	0x3d3973f6	0.045276605
161	0x3de52ad6	0.11189811
162	0x3d953d77	0.07287114
163	0xbd141da2	-0.036161073
164	0x3d908f22	0.070585504
165	0x3c802fcf	0.015647797
166	0xbdacb4bb	-0.08432909
167	0x3d19c95f	0.037545558
168	0x3d2fa7ae	0.04288452
169	0x3d681ecd	0.05667
170	0x3d9ba3ec	0.07599625
171	0xbd602117	-0.054719057
172	0xbd9bf83b	-0.076157056
173	0xbdcd7625	-0.100323
174	0xbe14a099	-0.14514388
175	0x3d544506	0.05182364
176	0x3ca63e32	0.020293329
177	0xbdae18a1	-0.08500791
178	0x3d8198aa	0.063279465
179	0x3d44f4f1	0.048085157
180	0xbd42fc0e	-0.04760366
181	0xbdadde54	-0.08489671
182	0x3d9e9895	0.077439465
183	0xbd813330	-0.06308591
184	0xbd3f0163	-0.04663218
185	0x3d182c30	0.037151515
186	0xbd89fc69	-0.067375965
187	0xbdfa9a3b	-0.122364484
188	0xbe09b7c0	-0.13449001
189	0x3e0c97cc	0.13729781
190	0x3c14225e	0.009041397
191	0xbbf44bff	-0.0074553485
192	0xbe68f712	-0.227505
193	0xbcd14c38	-0.02554904
194	0xbc8b0bc7	-0.01697339
195	0xbdf7cfbf	-0.12100171
196	0xbda100ad	-0.07861457
197	0xbe4924ca	-0.1964294
198	0xbdfd1ed0	-0.12359393
199	0xbc6f6577	-0.014611593
200	0x3da821fc	0.08209607
201	0x3d8d69bd	0.069049336
202	0x3e0d0506	0.13771448
203	0xbdb66394	-0.08905712
204	0x3d16d4fe	0.03682422
205	0x3db20854	0.08692995
206	0xbcfb5774	-0.03068135
207	0xbcc1ee3a	-0.023673166
208	0x3d043a73	0.032282304
209	0x3b903ebf	0.004402011
210	0xbd677b53	-0.056514096
211	0xbdc6fbf7	-0.09716027
212	0xbd90f48e	-0.07077895
213	0x3d703a6e	0.058649473
214	0x3c8f2c8a	0.017477293
215	0x3d47af32	0.048751064
216	0xbca01099	-0.019539164
217	0x3e696b05	0.22794731
218	0x3de41b82	0.11138059
219	0x3d8a338a	0.067481115
220	0xbdc4e5c2	-0.09614135
221	0xbe0f47ab	-0.13992183
222	0xbc9a158b	-0.0188091
223	0x3e42664f	0.1898434
224	0x3dfae750	0.122511506
225	0x3d5a3b14	0.053278998
226	0x3d30881c	0.043098554
227	0x3d103046	0.035202287
228	0xbdb1f2c4	-0.08688882
229	0xbc8ffff4	-0.017578103
230	0xbd1ec86c	-0.038765356
231	0xbe69e625	-0.228417
232	0x3d9d8851	0.07692016
233	0xbe099ff1	-0.13439919
234	0xbcdb1bf2	-0.026746724
235	0x3c824663	0.015902704
236	0xbd70dd34	-0.058804706
237	0xbd5a7c13	-0.053340983
238	0xbd3b73d0	-0.045764744
239	0x3d46f40d	0.04857259
240	0x3e480869	0.19534458
241	0xbcf8e5da	-0.03038304
242	0x3e66b90d	0.22531529
243	0xbd2b16ce	-0.041769795
244	0x3e4c3718	0.19942892
245	0xbd4211d9	-0.047380302
246	0x3ca4e5f7	0.020129187
247	0x3d2ca06a	0.04214517
248	0x3cb67f5b	0.022277525
249	0xbcef9e1f	-0.029250203
250	0xbe4baf75	-0.1989115
251	0x3d8c88f7	0.068620615
252	0x3d32d666	0.043661498
253	0xbe31bcfc	-0.17357248
254	0xbdc5d0c4	-0.096589595
255	0x3c136c94	0.008998055

fc_out.weight f4 [2, 64]
0	0xbc8013c5	-0.015634427
1	0x3b24960e	0.0025113854
2	0xbdaf64d5	-0.08564154
3	0xbec2302f	-0.37927386
4	0xbcf8def4	-0.03037975
5	0x3e1ab3ec	0.15107697
6	0xba658ed4	-0.000875694
7	0xbc894d7a	-0.016760577
8	0x3e543a80	0.20725441
9	0x3d6adf75	0.05734201
10	0x3e970522	0.29496104
11	0x3d2bd1a9	0.041947994
12	0x3dc39fe4	0.09551981
13	0x3de725ef	0.11286532
14	0xbe2a9816	-0.16659579
15	0x3d164ffb	0.03669737
16	0x3c91667b	0.017749062
17	0xbe01411e	-0.12622496
18	0xbd1927ff	-0.03739166
19	0x3d4dc301	0.0502348
20	0x3e144da8	0.14482749
21	0xbe58ce33	-0.21172409
22	0x3d2426ea	0.040076174
23	0x3d9f2f77	0.07772725
24	0x3ccec4a7	0.025240256
25	0x3ccd1b23	0.025037354
26	0xbe96c901	-0.2945023
27	0x3d57b1bf	0.052659746
28	0xbe07c1a4	-0.13257462
29	0x3d908391	0.07056344
30	0x3dc3148f	0.095254056
31	0x3eadd890	0.33954287
32	0x3e0c4e23	0.13701682
33	0x3c1d0a8e	0.009585036
34	0xba102fd6	-0.0005500292
35	0xbe093d93	-0.13402395
36	0x3db8cffe	0.09024046
37	0xbc52467b	-0.012834187
38	0x3dbcd9be	0.092212185
39	0xbde05158	-0.10953015
40	0x3da51362	0.080603376
41	0xbcc1bb7f	-0.023648975
42	0xbd36889f	-0.044563886
43	0xbd3977d9	-0.04528031
44	0xbe21918f	-0.15778182
45	0xbda8ed22	-0.082483545
46	0x3dfa4759	0.1222064
47	0xbdc69909	-0.09697158
48	0x3d9f9040	0.077911854
49	0xbd08e2ce	-0.033419423
50	0x3dc8fbbf	0.09813642
51	0x3ca98cab	0.020696959
52	0x3d1bd1ab	0.03804175
53	0xbde5d08d	-0.112214185
54	0xbd38a981	-0.045083527
55	0xbe43d9a5	-0.19125994
56	0xbe156305	-0.14588554
57	0x3e67402b	0.22583072
58	0x3d951608	0.07279593
59	0x3d37497a	0.044747807
60	0xbe40ec66	-0.18840179
61	0x3aab70b7	0.0013079856
62	0x3c00dd1d	0.0078652175
63	0xbe1b1011	-0.15142848
64	0x3d5d48f4	0.05402465
65	0x3df6cb07	0.12050443
66	0x3dd691f2	0.104770556
67	0x3ede8cbd	0.4346675
68	0x3c79a1e1	0.015236349
69	0xbc990886	-0.018680822
70	0x3dacba66	0.0843399
71	0x3dd08f4f	0.10183584
72	0xbd83bb15	-0.064321674
73	0x3d3f3d0c	0.04668908
74	0xbe205e55	-0.15660985
75	0xbe07c567	-0.13258897
76	0xbdde39f3	-0.10850897
77	0x3de879fc	0.11351392
78	0x3e0cebcd	0.13761826
79	0x3cb7e0be	0.022446033
80	0x3d001583	0.031270515
81	0x3e2d4039	0.1691903
82	0x3decebdf	0.11568426
83	0xbdebc70a	-0.11512573
84	0x3cf1faa1	0.029538454
85	0x3d8a00f3	0.06738462
86	0x3d94bf05	0.072629966
87	0x3d6ca204	0.057771698
88	0xbd4ac8e7	-0.049508
89	0x3de00ab2	0.1093954
90	0x3efea69a	0.49736482
91	0x3d94b00e	0.07260142
92	0x3de4f44c	0.111794084
93	0x3ddfdb48	0.109304965
94	0xbca4c6a5	-0.020114252
95	0xbeb46256	-0.35231274
96	0xbd19e44d	-0.03757124
97	0x3cdba337	0.026811225
98	0xbd8f1e9c	-0.0698826
99	0x3e3596ff	0.17733382
100	0x3d4a9072	0.04945416
101	0x3e1e9505	0.15486534
102	0x3cfee64f	0.03111568
103	0x3c06d921	0.0082304785
104	0xbc8d46c2	-0.017245654
105	0x3c4b9e22	0.0124278385
106	0xbda31aec	-0.07964119
107	0xbe211bed	-0.15733309
108	0x3e0e2e13	0.13884763
109	0x3da3dda8	0.08001262
110	0xbb5870f0	-0.00330263
111	0xbd71987f	-0.058983322
112	0xbc2b9210	-0.010471836
113	0xbd5a66e7	-0.05332079
114	0x3d31a821	0.04337323
115	0x3d5485ef	0.05188554
116	0x3c6e9b6b	0.014563422
117	0xbc037824	-0.008024249
118	0xbcf58268	-0.02996941
119	0x3e5cb058	0.21551645
120	0xbbf92282	-0.0076029906
121	0xbe8fffeb	-0.28124937
122	0xbdaf4570	-0.08558166
123	0xbd63aa49	-0.05558232
124	0x3d5f7876	0.05455824
125	0x3e481532	0.19539335
126	0x3d8f35e3	0.069927
127	0x3cb00fef	0.021491973

fc_out.bias f4 [2]
0	0xbd5e3366	-0.054248236
1	0xbdc7df0c	-0.0975934
