model_ckpts/cric_prediction_all_output_batch_wickets_cumsum.pth (torch_old, 74239 bytes, 6 tensors)

lstm_cell.weight_ih f4 [256, 5]
000000 8b 4d 23 be ec 62 b5 3d 7e 7e 67 3e 86 97 e7 3c
       -0.15947549 0.088567585 0.22606847 0.028270494
000010 b7 44 05 3d 57 6d 67 bd 16 26 c9 3d ec f5 24 be
       0.032536235 -0.05650076 0.098217174 -0.16109437
000020 d9 82 e1 3e f1 7b 2f bd 2a e7 35 3c d0 bc 1a be
       0.4404514 -0.04284281 0.011102477 -0.15111089
000030 e1 dc dd bd 91 a1 fc 3e e1 60 69 3d b7 f9 d0 bd
       -0.10833145 0.49342015 0.056977157 -0.10203879
000040 66 29 65 3e 20 12 d6 be bf 01 85 3e 89 9d b2 bd
       0.22379074 -0.41810703 0.25977895 -0.08721454
000050 0d 56 25 3d c2 03 fe bc 69 7a 69 3d 17 13 a5 bd
       0.040365268 -0.031007651 0.057001505 -0.08060282
000060 af 0d e2 3d d6 31 16 3e 7f d1 a2 3d 43 f8 27 bd
       0.11037766 0.14667448 0.079501145 -0.041008245
000070 33 ed 2c be c7 80 d5 bd ab b9 c9 ba e1 64 fa 3c
       -0.1688736 -0.10424953 -0.0015390416 0.030565681
000080 8b b1 be bd 6d 3b 1b be 90 8b 91 3d 86 78 bc 3d
       -0.093112074 -0.15159388 0.071066976 0.092026755
000090 75 7b 84 be 58 17 d6 3c 02 0d 6a be 94 cf f2 3d
       -0.2587544 0.026134178 -0.22856525 0.11855999
0000a0 3d 9f 96 be 24 d1 21 3f 0d 53 24 3f ab 15 c9 3c
       -0.29418364 0.6320975 0.64189225 0.024546465
0000b0 5b 5a 82 3d c1 c6 06 3e 98 99 70 be fb 05 8a bf
       0.0636489 0.13161756 -0.23496091 -1.0783075
0000c0 77 0c 8b be 0e e2 c9 bd cf 65 8a bd 82 ee 9d 3f
       -0.27157947 -0.0985757 -0.067577 1.2338412
0000d0 3f 86 00 3f 57 ac 4a bf 12 63 2c bc 49 9b 1a 3b
       0.50204843 -0.7916922 -0.010521667 0.0023591092
0000e0 21 7d 03 c0 a7 f8 c9 3f 29 cd 8d 3e 14 09 e7 3c
       -2.0545123 1.5779008 0.27695587 0.028202571
0000f0 38 10 ba 3d 4b c7 db 3d 76 15 80 3d ce 98 4c bc
       0.09085125 0.107313715 0.06254093 -0.012487603
000100 cc a9 19 3e 6d cf ea 3e 23 f5 06 bf 1a 35 cd 3e
       0.15006179 0.45861378 -0.527178 0.40079576
000110 49 ac 3d 3e 6b 5f ae bd 38 aa 8f 3e 8b 9b 8d 3f
       0.18522753 -0.08514293 0.28059554 1.1063093
000120 4d 32 a7 3f 6f 52 0d bf 90 44 09 bd b5 36 a3 3e
       1.3062226 -0.5520391 -0.033512652 0.31877676
000130 bc a4 28 be 98 45 a3 3d 99 41 16 3f a7 0e 93 bc
       -0.16469091 0.07972258 0.58693844 -0.017951323
000140 5c bc c8 be 05 8c 38 3e e6 3c 30 bf fa e6 b1 3c
       -0.39206207 0.18022163 -0.68842924 0.021716584
000150 99 52 68 bd fc ee cc 3d 53 c5 1a be ff 87 8d 3b
       -0.056719396 0.1000652 -0.15114336 0.0043191905
000160 5c e5 e6 bc 3d 65 02 3e d7 81 4a 3e 8b 5b d2 3e
       -0.028185539 0.12733932 0.19776092 0.41085467
000170 13 48 f4 3e e4 b2 5f be 09 48 e7 bd aa 9c 57 bc
       0.47711238 -0.21845585 -0.112930365 -0.01315991
000180 eb 48 be 3c c0 b4 bc bc c4 8e bc 3d e5 82 7f bd
       0.02322813 -0.023035407 0.09206918 -0.06238069
000190 49 7e 29 3d 4f 49 c0 bd 45 84 b8 3d 24 ba 0f be
       0.0413802 -0.093889825 0.090096034 -0.14035851
0001a0 16 38 f2 3d 17 97 e3 bb e6 57 c3 bd 1e fa e3 bc
       0.11827104 -0.0069455015 -0.0953825 -0.027829226
0001b0 b1 03 37 bd d7 c8 90 bc 25 e8 6a 3f 03 84 0e 3f
       -0.044681255 -0.017673893 0.91760474 0.55670184
0001c0 ea 2f f1 3e 01 23 49 3f dd 6f e5 3c a3 9b 0a 3e
       0.47106868 0.78569037 0.028007442 0.13535933
0001d0 b3 08 66 3f 8d ca df 3f be 92 15 bf 6a fa d2 bc
       0.89857024 1.7483689 -0.58427036 -0.025754172
0001e0 9d 7e 1f 3e 4d 34 06 3f 52 69 9e be 79 1d b7 3e
       0.15575643 0.52423555 -0.30939728 0.35764673
0001f0 18 39 e6 bd 79 af 14 3e 50 44 8f 3e 90 e1 40 3e
       -0.112413585 0.14520063 0.27981806 0.18836045
000200 9a a9 06 3d f8 9f d1 3d 4a 6d 93 be cb ca 65 bf
       0.03287659 0.1023559 -0.28794318 -0.8976256
000210 2e f2 c4 bf c5 a4 92 3e 50 20 8d bd 9b e6 be bd
       -1.5386407 0.28641334 -0.06890929 -0.09321328
000220 08 09 10 3d 3f 00 12 3c 1f 52 e4 3c 20 69 a9 3d
       0.035164863 0.0089111915 0.02787119 0.08272004
000230 27 01 f9 3d 89 89 4e be 3d 4a 83 3e 32 21 71 be
       0.12158423 -0.20169653 0.25642577 -0.2354782
000240 63 c1 f2 bd 90 d0 83 be d8 a1 8c 3f c5 b8 6e 3f
       -0.11853292 -0.25745058 1.0986891 0.93250686
000250 70 a7 0d c0 5b 1f 0a bd f9 5c bb 3d e0 f2 84 bd
       -2.2133446 -0.03372131 0.091485925 -0.06491637
000260 37 5a da 3c 91 ae bc bd 38 f5 02 3e 2e b3 f1 3e
       0.026654346 -0.092129834 0.12788856 0.47207016
000270 26 71 80 3f 9c b1 6a bd eb 30 29 bf 5b fc 84 bd
       1.003453 -0.057298288 -0.6609027 -0.064934455
000280 e9 c2 74 bc 0d be e4 bf 31 07 f0 3e c4 79 5a 3e
       -0.014939048 -1.7870499 0.46880487 0.21335512
000290 7e 06 e8 3c 28 87 bd bd 66 76 7c be 61 36 bf 3d
       0.028323408 -0.09254295 -0.2465454 0.09336544
0002a0 cc 26 45 be 74 7b ff 3b 10 21 4d bd e7 56 9e 3f
       -0.19253081 0.007796699 -0.05008036 1.237027
0002b0 ff b3 00 3e 4a 5e 96 be 8a c5 c7 bc c3 de 9a be
       0.12568663 -0.29368812 -0.024386186 -0.3024808
0002c0 f6 5c 76 3f f7 ad ab 3f 65 93 01 c0 17 7a b7 bc
       0.962356 1.3412465 -2.0246212 -0.022397084
0002d0 ff 35 08 3f b4 6b 37 3f 97 30 09 3f 24 89 18 3f
       0.5320739 0.71648717 0.5358977 0.5958426
0002e0 5c f3 c9 3c 87 77 d5 3d ea 0c 62 bd cc 06 ae bd
       0.024652176 0.10423189 -0.055188097 -0.0849739
0002f0 69 1c b4 3d fc f6 86 bd 35 24 30 be e9 a0 e2 3d
       0.08794481 -0.06590077 -0.17201312 0.110658474
000300 62 35 b7 be a1 ec 95 3d 84 d7 f4 bc fa e8 09 3e
       -0.35782915 0.07320524 -0.029887922 0.1346778
000310 7c f4 e9 be ec 22 2a bf a4 bb 5c 3f 0a 1d 4d 3b
       -0.4569434 -0.66459537 0.86223817 0.0031297826
000320 e8 47 87 3d 43 a1 67 bd 99 7c ed 3d 53 cf a4 bd
       0.06605512 -0.056550276 0.11596031 -0.080473565
000330 74 c0 a9 3d f9 9e 85 3d 8a d9 86 3f 03 00 a6 3e
       0.08288661 0.06524462 1.0535138 0.32421884
000340 ec f7 13 bf be d2 e3 bc f0 1a c2 bd 2a 14 c7 3d
       -0.57800174 -0.02781045 -0.09477794 0.09720643
000350 51 cd c2 3d 00 2e 3a 3d 9b cf 12 3e 7f 19 1d be
       0.09511817 0.045454025 0.14337008 -0.15341757
000360 e3 36 55 3f d3 5c 3f bf e4 7a 95 bd 3f 4e 36 bd
       0.83286875 -0.74751014 -0.0729883 -0.044508215
000370 84 5c aa 3e 66 09 3c 3f f2 56 8f 3f f5 d8 f8 be
       0.3327371 0.7345184 1.1198409 -0.48603025
000380 e4 a8 a0 bd 39 48 6f 3e 5d 1b 58 3e aa bc 25 3f
       -0.07844713 0.23367395 0.21104188 0.64741004
000390 1f 33 1a be 6f 9a f7 bd ee ee 53 3d e6 ff 68 3e
       -0.15058564 -0.12090003 0.051741533 0.22753868
0003a0 bd 44 74 bf 96 e1 1b 3e 8b f5 a3 3d ae a5 60 bd
       -0.95417386 0.15222773 0.08005818 -0.054845504
0003b0 04 f7 af 3f 14 ed b9 be c7 7c 89 3f 83 1d 55 bc
       1.3747258 -0.3631369 1.0741204 -0.013007524
0003c0 49 d5 9e 3d c1 a5 5e be cd a2 9e 3d aa d7 6a be
       0.07755525 -0.21742918 0.077458955 -0.22933832
0003d0 ed 8a f4 bd 87 b6 01 be cb 3d 79 3f 88 f6 64 bf
       -0.119405605 -0.12667285 0.97359914 -0.89438677
0003e0 34 bb d8 3e df 7f 0d bd 76 80 f3 3c ea f5 99 bd
       0.42330325 -0.034545776 0.02972434 -0.075176075
0003f0 05 c8 de bd 62 cc 78 bd b7 ba 03 be 98 1a 8b bd
       -0.108779944 -0.06074179 -0.12864195 -0.06792182

lstm_cell.weight_hh f4 [256, 64]
000000 f6 ac f1 3d 82 94 6f 3d ab 9d 5a bc de 3d f6 bd
       0.11800568 0.058491237 -0.013343255 -0.12023519
000010 83 54 b4 3d 15 69 69 bd 3c 0b b8 bd e0 14 f9 bd
       0.08805182 -0.05698498 -0.08986518 -0.12162185
000020 4d 94 62 3e fa 45 87 3d 49 69 ba 3d 17 44 85 3e
       0.22126885 0.06605144 0.09102113 0.2602851
000030 93 f5 82 3e 9e 4d 87 ba 59 10 08 be 94 49 a1 3d
       0.25577983 -0.0010322814 -0.13287486 0.07875362
000040 89 47 f1 bb 24 9b 36 be e0 be 04 3b 18 22 b3 bc
       -0.007363264 -0.17832619 0.0020255372 -0.021866843
000050 85 34 7b bd 3d af b6 bc ce 2e 34 be c8 02 78 3d
       -0.061329383 -0.022300357 -0.1759598 0.060549527
000060 65 12 b2 3d f0 84 bf 3c 77 d8 ea 3a 1d 3c ab bc
       0.08694915 0.02337882 0.0017917295 -0.020902688
000070 ec 67 8b bd 35 40 08 bd 73 9d a7 3d 27 2c 60 bd
       -0.06806931 -0.033264358 0.08184328 -0.054729607
000080 f9 15 92 3e 68 16 34 bc af 85 34 3d ea 99 d1 3c
       0.2853239 -0.01099167 0.044072803 0.025586087
000090 c7 9a b7 3d 4e ed 9f bd 25 97 bf 3d ef b2 27 be
       0.08965068 -0.07808934 0.093550004 -0.16376851
0000a0 d8 67 98 3c 8c 8d 38 bd 62 1f a6 bd 75 4a eb bc
       0.018604204 -0.045056865 -0.081114545 -0.028722027
0000b0 a6 6c c9 3c be e9 c1 bc b2 fb d4 bd 89 59 1c 3e
       0.02458794 -0.023671027 -0.103995696 0.1526853
0000c0 f1 d5 fe 3d ec b4 7b bb 10 c4 2a 3d e5 97 1c be
       0.1244315 -0.0038407398 0.041690886 -0.15292318
0000d0 42 17 59 bd 5a c9 6c 3d 00 f4 ee bd 29 95 ec 3d
       -0.053000696 0.05780921 -0.11667633 0.115518875
0000e0 a0 6f 63 bd 64 56 4b 3e 47 b2 82 3c 7d 79 7b bc
       -0.055526376 0.19857174 0.01595415 -0.015348789
0000f0 de bb a6 bd 05 3d a2 3c be 2a 80 bd 89 dc 97 3c
       -0.081413016 0.019804487 -0.062581524 0.018537777
000100 45 33 ba 3c d6 80 56 3d 7c 0b 80 bd 6e 1d c3 bc
       0.022729525 0.05236896 -0.062521905 -0.023817744
000110 fe d1 10 bf 44 3b 52 be d5 8c 14 bd ab 47 7d bd
       -0.5657042 -0.2053042 -0.03626712 -0.061835926
000120 91 a5 c2 bd ed c2 28 be 43 ba d0 3d 15 ae ae 3c
       -0.095042355 -0.16480608 0.101917766 0.021323243
000130 ba 93 8d 3c 69 ce 2b be 02 03 c7 3e 12 95 0f 3f
       0.017282356 -0.16777958 0.38869482 0.5608684
000140 8e 9b 65 3d fa aa d3 bd 33 b3 f2 bd a4 8b d6 bd
       0.05605655 -0.103353456 -0.11850586 -0.10475853
000150 a9 a9 2f bd a3 03 c6 bc bb 1c 10 bf ac 98 a0 be
       -0.04288641 -0.024171656 -0.5629384 -0.3136648
000160 59 9b c1 bb 48 d7 f6 3d 48 7b b5 bd f9 59 d9 3c
       -0.0059084115 0.120527804 -0.08861405 0.02653216
000170 1f 13 e3 3d 05 fb a7 bd 29 d8 f8 3c 4d 34 05 3f
       0.110876314 -0.08202175 0.03037651 0.5203293
000180 ce ed 17 3e f3 39 80 3c 32 79 cf be 65 9c d6 bd
       0.14836809 0.015652632 -0.40522152 -0.10479049
000190 56 8c ce 3e 8b 30 33 3d e6 69 ef bc e3 51 5e 3d
       0.40341443 0.043747466 -0.029225301 0.054277312
0001a0 4e 52 33 3d 78 7f f1 be 3e e3 a4 3e 4e 33 83 be
       0.043779664 -0.47167563 0.32204622 -0.2562508
0001b0 56 90 a0 bd 50 59 86 bb ad 30 81 ba 2c b3 4e 3f
       -0.0784003 -0.0041000023 -0.0009856425 0.80742145
0001c0 66 b0 0f be 91 11 82 be 61 15 9b 3b 67 9a 8e be
       -0.14032134 -0.25404027 0.004732773 -0.27852175
0001d0 82 39 a6 bd 7e 0d 0e 3b 8c bf 93 3e 3f cd 93 3e
       -0.081164375 0.0021675522 0.28857076 0.28867528
0001e0 44 9d c3 bb 3b 13 33 3e 29 c1 c4 bd f3 ff 00 3e
       -0.0059696753 0.17487805 -0.09607155 0.12597637
0001f0 24 68 54 be e6 c0 ef 3d 5f 25 66 3e c5 44 4f bd
       -0.20742851 0.11706714 0.22475193 -0.050602693
000200 dd c8 46 3f 4a b5 a6 3e b1 ec 5f 3e 92 f5 cf 3d
       0.77650243 0.32560188 0.21867634 0.10154261
000210 49 43 46 bf e1 1b 77 3f 7e 24 3b bf d6 75 3e bf
       -0.7744642 0.96526915 -0.7310256 -0.74398553
000220 11 2d a1 be 31 cf bb 3f a3 41 27 3f 0c 1d 91 bb
       -0.31479695 1.4672605 0.6533453 -0.0044285115
000230 de ea 18 bf 5c c1 05 40 0e bd 2d 3f c1 63 08 3f
       -0.5973338 2.0899267 0.678666 0.5327721
000240 04 88 1d bf 88 12 96 3e d9 fd ab bf 13 4c cb bd
       -0.6153567 0.29311013 -1.3436843 -0.099266194
000250 d6 00 92 be d0 ab de 3d 3b 96 95 be 17 cc 1e bf
       -0.28516263 0.108726144 -0.2921618 -0.62030166
000260 ed 43 94 bf 48 ef 1d 3c 31 c7 37 be 64 8e 12 be
       -1.1583229 0.009639569 -0.17947079 -0.1431213
000270 1f 69 4f bf c1 87 08 be bf e9 89 3e 35 06 a6 3f
       -0.8101978 -0.13333036 0.26936147 1.2970644
000280 bb 92 07 be 04 3d 92 be b2 e2 af be 34 a8 a6 be
       -0.13239567 -0.28562176 -0.34352642 -0.32550204
000290 6e 80 81 3e 95 0b 63 3d 1b 83 3b be 13 e8 03 3f
       0.25293297 0.055430967 -0.18311732 0.5152599
0002a0 d8 07 80 bd 10 50 13 be e6 e6 d8 3e 42 a0 9e be
       -0.06251496 -0.1438601 0.42363662 -0.30981642
0002b0 61 20 8b bf 1c 46 cc bf 8b e7 47 3f 50 85 95 3e
       -1.0869256 -1.5958896 0.7808768 0.29203272
0002c0 bb b0 56 3f 39 d4 ac be 8c cd 50 3d 25 39 6b be
       0.8386342 -0.33755663 0.050977275 -0.22971018
0002d0 b5 ff a4 3d 69 03 5f be ef 31 01 3f 8d 83 a9 3e
       0.08056585 -0.21778645 0.5046682 0.33108178
0002e0 7e d5 dc 3e b8 e1 dd 3c 9f 2d bb bd c3 a7 41 bd
       0.43131632 0.02708517 -0.09139561 -0.04727913
0002f0 e6 f7 c1 3d 34 80 30 3c 9d b1 be 3d c1 73 93 be
       0.09471111 0.0107727535 0.09311221 -0.2879925
000300 34 66 34 bc d3 c2 94 bc aa cc d4 3e 0e e2 84 bf
       -0.011010695 -0.018159306 0.41562396 -1.0381486
000310 1a 28 b8 3e 71 ac 62 be ae 8e c7 3e 3c b1 a6 3e
       0.35968095 -0.22136094 0.38976043 0.32557094
000320 ce f6 87 be 68 0d 94 be b2 6d 4b be ba 81 3c be
       -0.26555485 -0.28916478 -0.19866064 -0.18408862
000330 41 6e 95 be 8f 26 e4 bf f7 8d 3e bf f0 87 cf be
       -0.2918568 -1.7824267 -0.7443537 -0.405334
000340 90 6f 57 3f 12 2f 3f 3e b9 30 90 3e b1 c2 5a bc
       0.84154606 0.186703 0.28162172 -0.013352082
000350 6e 48 ac 3e 3b 81 2a 3c da 4a 81 3e 15 a3 a5 3e
       0.3364901 0.0104067875 0.2525242 0.32350984
000360 d0 c4 be 3f 93 07 ce be 96 f0 76 3f 1e 8d 84 3d
       1.4903812 -0.40240154 0.96460855 0.064722285
000370 f8 2b f3 3d 92 c1 31 3f a3 58 be bd 14 4d 9a bf
       0.11873621 0.6943599 -0.0929425 -1.2054772
000380 d0 ed 84 be ef b0 99 3e 61 61 9c 3e da 05 d0 3e
       -0.25962687 0.30017802 0.30543044 0.40629464
000390 fa 72 be be 8b ae b0 bc a1 13 08 be 93 1e bc 3e
       -0.37197095 -0.021567604 -0.13288738 0.36742076
0003a0 02 f2 17 3f 3d 71 05 3f 60 69 98 be 5b 1d e8 3e
       0.5935365 0.5212591 -0.29767895 0.45334896
0003b0 b7 ae b4 3f ef 73 f5 3e bb ea 72 3e 6d c5 0f 3f
       1.4115819 0.47940013 0.23722355 0.5616062
0003c0 92 b0 38 be 92 9b a7 3e d2 56 42 3d 74 e8 4c 3e
       -0.18036106 0.32735878 0.04744608 0.20010549
0003d0 94 ee 39 bd 4d 4b 83 bf 6f db 21 3f 40 b1 1f be
       -0.04539354 -1.0257355 0.63225454 -0.1559496
0003e0 18 06 27 be c1 5f bc be 8c 1a 52 3e b5 9f 78 3d
       -0.16310918 -0.36791804 0.2051794 0.060699183
0003f0 2c d4 bf 3e 72 6f ce be 11 ed 24 bf a0 12 89 be
       0.37466562 -0.403194 -0.64424235 -0.26772022

lstm_cell.bias_ih f4 [256]
000000 a1 f1 26 be 0d 04 0d 3d 7d 39 36 bd b4 d5 55 3e
       -0.16303112 0.03442769 -0.04448842 0.20882303
000010 07 27 bb 3d ec cc 9e 3d b1 4e 85 3d ed aa 05 3e
       0.09138303 0.077539295 0.0650915 0.13053484
000020 66 84 f8 be 4d 31 36 3d a0 9e c0 3d 31 00 9d be
       -0.48538512 0.04448061 0.09405255 -0.3066421
000030 87 25 44 bd 9c 8c d2 bc c1 67 cd bd e7 be 9b 3e
       -0.04788735 -0.025701813 -0.10029555 0.30419084
000040 34 af 90 3d 09 96 14 3e 99 18 a0 3d 65 e6 65 bd
       0.07064667 0.14510359 0.07817192 -0.056127924
000050 3a ac 85 bd 93 a0 0b bd d0 55 c2 be 77 6e 02 be
       -0.0652699 -0.034088682 -0.37956095 -0.12737451
000060 c6 0e 04 3e 0e 4f d9 3d 69 33 a9 3e c7 de 12 3c
       0.1289626 0.106107816 0.33047035 0.008964247
000070 96 68 2e bd d7 6a fb bd e6 ad 92 bd 17 ab 1b be
       -0.04258021 -0.122762375 -0.07162075 -0.15201984
000080 43 55 6e be 8e 9a 8b bd 04 69 f3 bc de b6 fb 3d
       -0.23274712 -0.06816588 -0.029713161 0.122907385
000090 89 e3 72 be bf 95 f5 bd 91 39 18 be 1a 85 5b 3e
       -0.2371961 -0.119914524 -0.1486571 0.21437493
0000a0 fc 5e b8 bd e4 ff bf 3d 70 29 de bc 40 00 3d 3e
       -0.09002492 0.09374979 -0.027119368 0.18457127
0000b0 11 86 a3 be b6 92 93 bd c2 b0 9b 3d 25 13 8a bd
       -0.31938222 -0.07205717 0.07602073 -0.06741933
0000c0 e6 64 96 3d 86 76 60 3e 1e 58 99 bd 2a 0f 73 bd
       0.073434636 0.21920213 -0.0748751 -0.059340633
0000d0 c2 c4 58 3d df a8 05 3e d0 62 e1 bd ba f7 44 be
       0.052922018 0.130527 -0.11005175 -0.19235125
0000e0 7c a9 af bd fe a4 4b 3c 88 28 2b 3d 6c ae f4 bd
       -0.085772485 0.012429474 0.0417867 -0.11947331
0000f0 43 95 02 3e 56 d7 2c bd 4e 36 40 3e 5f 6e f7 bd
       0.12752251 -0.042197548 0.18770716 -0.120815985
000100 3d e3 0d be 38 8a b2 bd 4f 45 2a bd 63 a1 32 3e
       -0.13856216 -0.087177694 -0.041570004 0.17444377
000110 c6 ce 2c 3e 0e f0 13 be 62 a5 71 3d 86 fe 4d ba
       0.16875753 -0.14447042 0.058995612 -0.00078580563
000120 08 24 0e 3e d6 aa 9d bd 69 1a 08 3d db ee e2 bd
       0.13880932 -0.076986 0.03322831 -0.11080714
000130 83 b2 f6 3d 2a d6 31 bd f0 e8 9d bc 6b 04 21 3e
       0.12045767 -0.043417133 -0.019276112 0.15724342
000140 58 30 77 bd 6f df 83 3e f6 e1 0f 3e cd 8f c8 3d
       -0.06034884 0.25756404 0.14051041 0.09793053
000150 85 62 89 3e 20 e4 db 3d 5d f2 e7 3d ce d8 30 be
       0.26832977 0.10736871 0.11325524 -0.17270204
000160 88 1c 77 bd 1f e8 cf 3d 03 77 13 3e cc 50 b9 3c
       -0.060329944 0.101516955 0.14400868 0.022621535
000170 0c 20 f7 bc e6 9e 1b bd f7 68 a0 bd 2f 3c 38 3d
       -0.030166648 -0.037993334 -0.078325205 0.04497927
000180 6b 57 d3 3d 90 b4 35 be fe c7 12 bd 1d 43 c0 bd
       0.10319408 -0.1774466 -0.03583526 -0.09387801
000190 54 26 8e be cb aa e6 bd 8d de e0 bd 86 43 1e 3d
       -0.27763617 -0.11263045 -0.10979948 0.038638614
0001a0 29 92 d0 bd 01 b9 ac 3d 19 02 b7 3d 7b 22 12 3d
       -0.10184128 0.08433724 0.08935947 0.035677414
0001b0 70 e5 88 be 25 bb 33 3d 52 6a cd bd 01 d3 65 3e
       -0.26737547 0.043879647 -0.100300446 0.22443773
0001c0 3e 90 dc 3d 1e 44 ff bd 91 5f 00 be 09 13 45 3d
       0.107696995 -0.12464164 -0.12536456 0.048113856
0001d0 f6 1e 45 bc 5a 99 31 bd 46 6c 56 3e 58 82 d1 3d
       -0.012031307 -0.043359138 0.2093974 0.10229939
0001e0 79 c8 54 3b 56 d5 08 bd 89 07 a7 3d 52 bd 94 bd
       0.0032468124 -0.033406578 0.08155734 -0.072626725
0001f0 6d ce be 3d e2 4c 72 bd c3 58 2f be 5b 42 7b 3e
       0.09316716 -0.059155352 -0.17123704 0.24537031
000200 09 58 0e bd df 99 90 bd de 1a 4e 3d 5c e4 24 be
       -0.034751926 -0.070605986 0.05031859 -0.16102737
000210 83 41 9b bc a5 8f 73 3c d9 cd 4f bc f6 62 a0 bd
       -0.018952137 0.0148657905 -0.012683355 -0.07831375
000220 cc 2a b1 bd cc 6c 28 3c a6 dd 3f 3d fb 85 00 be
       -0.08650741 0.010279845 0.04684224 -0.1255111
000230 5d c7 bf 3b 26 ee 68 3d 56 b3 4b 3d f0 24 00 be
       0.0058526234 0.05686774 0.049731575 -0.1251409
000240 8b 35 1a 3c fd 79 06 3d a8 65 0d 3e f8 e0 ab 3d
       0.00941218 0.03283118 0.1380831 0.08392519
000250 7a 52 c8 bc 0f 8d 5d 3d 07 86 d4 bd 37 28 a8 bd
       -0.02445339 0.054089602 -0.10377126 -0.082107954
000260 67 c3 d8 3d dc 06 6a bd 79 7b 90 bd 25 09 2a 3e
       0.10584145 -0.057135448 -0.070548005 0.16605051
000270 7d 82 cc bd ea 4c 78 bd 2a 77 1f be 6b cc fb bd
       -0.09985826 -0.060620226 -0.15572801 -0.12294849
000280 82 20 e3 ba d3 f8 8f 3d 20 6d 1c 3e 18 c4 29 bc
       -0.0017328414 0.07029881 0.15276003 -0.010361694
000290 17 a3 81 3c ee 8c b1 bd 49 b1 7e 3c 57 13 ed 3d
       0.015824838 -0.08669458 0.015545198 0.115759544
0002a0 96 89 56 bd 6e 19 bc bc 21 ab e9 3b d9 bc f6 bd
       -0.052377306 -0.022961345 0.007130996 -0.120477386
0002b0 75 75 83 3d 8a 0b e4 3d 1c ac ea 3d cd c7 c4 3d
       0.064188875 0.111350134 0.114586085 0.096084215
0002c0 d7 05 87 3d 49 81 bd bd a1 16 7c 3d 82 85 c8 bd
       0.06592911 -0.09253175 0.061545018 -0.097910896
0002d0 38 80 9c 3d da 28 37 3e 6b 69 75 bd 7b e3 0a 3c
       0.07641643 0.17886677 -0.059914988 0.008477087
0002e0 d4 bc da bd c7 b0 16 3d 06 ab b7 3d 6e f1 74 3d
       -0.10680547 0.03678968 0.08968167 0.059800558
0002f0 7f 8f 3c bd d4 6b 64 bd 53 e2 36 3d f3 8c be bd
       -0.046035286 -0.055766895 0.044649433 -0.09304228
000300 28 61 03 3d c6 a6 b2 bd a0 ed d9 bd 87 f2 5e 3d
       0.032075077 -0.08723216 -0.106410265 0.05443051
000310 98 db 86 3e ec 32 a1 bc c1 e0 93 3e f5 c6 f6 3d
       0.26339412 -0.019677602 0.2888241 0.12049667
000320 04 72 05 be a1 9b 9d bd 11 30 23 be 93 c6 04 be
       -0.13031775 -0.076956995 -0.15936305 -0.12966375
000330 59 1e b5 3d e2 10 bb bc 78 1f 2f 3c 8a 52 19 bc
       0.08843679 -0.022835199 0.010688655 -0.009358058
000340 26 f1 37 bd 49 7c d6 3d ce ea 3a 3d b6 98 5b bd
       -0.04490771 0.10472924 0.045634083 -0.053612433
000350 c0 5c 04 3f 82 93 4e bd 9c 0e 7c 3e 52 c7 99 3d
       0.51704025 -0.050433643 0.24614948 0.075087205
000360 3d 48 b4 3d 18 d4 03 bb 43 d6 8d 3d 72 2f 52 bd
       0.08802841 -0.0020115431 0.06925633 -0.05131478
000370 3b 15 2d bd 72 4a ad be 99 c8 71 3d fd 32 e1 3c
       -0.042256575 -0.3384586 0.059029195 0.027490133
000380 22 09 dd bc 8b 9d 91 3e 3f 46 d7 be e1 b8 b7 be
       -0.026981894 0.28440508 -0.4204578 -0.3588324
000390 5b bb ae 3e d2 b7 90 3d cd e4 70 be 59 44 02 bd
       0.34127316 0.07066311 -0.2352478 -0.031803463
0003a0 be fd 49 3d ff 4f c1 3d 45 94 9b 3d d4 72 df be
       0.049314253 0.09439086 0.075966395 -0.43642294
0003b0 00 d4 b4 3d 1b 00 fa bc 1f 1d 0e bd ff 43 d5 3d
       0.08829498 -0.030517628 -0.03469574 0.1041336
0003c0 f2 48 0b 3e e6 17 1f 3d 04 d3 3e bc dc d9 c7 3e
       0.13602045 0.03884115 -0.01164699 0.390334
0003d0 29 13 34 3d 39 ce 01 3e 8a 5e 22 be e9 f9 0e 3e
       0.043963585 0.12676324 -0.15856376 0.1396252
0003e0 76 0f 12 3e 88 ed c7 3b 3d 33 4b 3c df 0d c7 3d
       0.1426371 0.006101314 0.012402353 0.097194426
0003f0 87 c9 0d 3e f9 eb 24 3e 50 c7 26 3d b5 b2 62 be
       0.13846408 0.16105641 0.040717423 -0.22138484

lstm_cell.bias_hh f4 [256]
000000 b7 d3 4f be f0 84 29 be d6 79 cd 3c 0a 06 b0 3e
       -0.20295607 -0.16554618 0.02508251 0.34379607
000010 fd 27 ba 3d f0 ea 51 3d b2 94 12 3e a7 62 d0 3d
       0.090896584 0.051249444 0.14314535 0.101750664
000020 b4 f9 c6 be 0f fd 0b be 2e 1f 03 3e cd 9d 9f be
       -0.38862383 -0.13670753 0.12804863 -0.3117508
000030 07 1e 82 bc f5 32 18 be 7e 1c 04 bd 2a 9c 8c 3e
       -0.015883459 -0.14863189 -0.032253735 0.27462894
000040 df a7 a0 3d 38 06 3d 3d c2 08 b8 bc 85 e3 d0 bd
       0.07844519 0.04614851 -0.022465114 -0.10199646
000050 ed c5 8c 3d 8c ff 08 3d c6 1b ad be 0e c7 a1 bd
       0.06873689 0.033446833 -0.33810252 -0.07899295
000060 08 c7 9e 3d a8 e9 ca ba 47 74 99 3e 88 44 79 3d
       0.07752806 -0.0015481012 0.29971525 0.060856372
000070 1b a8 44 bd 61 5c 4f be ce 0f ed 3d e1 3c 5a be
       -0.04801188 -0.20250084 0.1157528 -0.21312286
000080 bf 2a 73 be 39 47 09 be 7d bc 04 be 04 93 98 3d
       -0.23746775 -0.13406076 -0.12962528 0.07449916
000090 ef 5e 5f be 28 fa 96 bb 6c 49 f7 3c b6 3c 86 3e
       -0.21813558 -0.0046074577 0.030186377 0.26218194
0000a0 14 29 93 bd 51 f8 f1 3c ad 63 b2 3d 07 7e ea 3d
       -0.071855694 0.029537352 0.08710418 0.11449819
0000b0 b1 31 9a be 9b cd d2 3d 4d 05 ec 3b 03 70 e1 bd
       -0.30116037 0.102931224 0.0072027803 -0.11007693
0000c0 19 20 6f bd 8d 43 90 3e c1 76 89 bd 1c cb 22 3d
       -0.05838022 0.28176537 -0.06712104 0.03974448
0000d0 39 e9 b9 bc cc 00 0a 3e 6a 11 93 bc c3 ab 96 be
       -0.022694217 0.13476866 -0.01795264 -0.2942792
0000e0 a8 a5 13 3d e3 a5 d3 3d 4a f0 83 3d ff af e0 bd
       0.036046654 0.10334375 0.06442316 -0.109710686
0000f0 37 53 f8 3d dc f7 69 bc 64 41 63 3e cf aa 53 be
       0.12125247 -0.014280286 0.22192913 -0.20670627
000100 79 fc 0d be 71 84 37 3d 2c 52 65 3d 45 37 da 3d
       -0.13865842 0.04480404 0.05598657 0.10655073
000110 1b fa 55 bd 34 ee 3a be 0b 9b 29 3b 07 62 68 3c
       -0.052240472 -0.1825493 0.0025879766 0.014183528
000120 fa 61 41 3d 9c d4 44 3d 4b d5 a8 ba 2b a7 72 3d
       0.04721258 0.048054323 -0.0012880949 0.059241455
000130 0d a2 93 bd be 8c 86 3c 5a 0c c7 bd 79 8c 0f 3e
       -0.07208643 0.016424533 -0.09719153 0.1401843
000140 6f 7f 31 3d b8 7e 6c 3e b7 67 2e 3d a2 f5 b3 bc
       0.04333442 0.23095214 0.04257938 -0.021967713
000150 39 1c a5 3d 74 97 e7 bd aa ba ff 3d bd 00 ac be
       0.08062024 -0.11308184 0.12486775 -0.33594313
000160 1b 48 a6 3c 61 21 ee 3d 2e 49 8b 3d c1 a5 b7 3d
       0.020298054 0.1162746 0.06801067 0.08967162
000170 69 eb 12 3e a1 c7 16 be 4c b8 a3 3d 0a 95 96 3b
       0.14347614 -0.1472459 0.07994136 0.0045954036
000180 fa 11 10 bd 05 4d 32 be 0e 9f e5 3d 4d 62 8f be
       -0.035173394 -0.17412193 0.11211978 -0.28004685
000190 90 21 ac be 21 eb 91 3d e0 5b 5f bd 66 62 78 bd
       -0.33619356 0.071249254 -0.05453098 -0.060640715
0001a0 fa 7d 7a bd 0b 64 55 3e 6c 40 85 3e 9a e2 b2 bd
       -0.061155297 0.20838945 0.26025712 -0.08734627
0001b0 c3 1b b2 be 2a cf b9 3d 39 fc 01 be ad a0 93 3e
       -0.34786806 0.090727165 -0.12693872 0.28833523
0001c0 84 91 df 3d de 04 a0 bd d6 78 de bc f8 f8 da 3b
       0.10916427 -0.07813428 -0.027157228 0.0066825114
0001d0 4f cb cc 3d f8 e0 d0 3d 5c 5d 42 3e a0 fd ba bd
       0.099997155 0.101991594 0.18980926 -0.091304064
0001e0 13 44 e1 bd f3 88 93 bd 16 1b be bc 1c 11 d1 3d
       -0.10999312 -0.07203855 -0.023206275 0.102083415
0001f0 07 dd 0f 3e 79 92 50 bc e9 e8 28 be e3 50 4a 3e
       0.14049159 -0.012730234 -0.16495098 0.19757418
000200 ba e4 07 3d 45 b1 09 bd 90 ae bf bd 89 64 2c 3d
       0.033177115 -0.033616323 -0.09359467 0.042088065
000210 d5 db 4e bc 39 c7 b5 bd cf 84 d6 3b 78 43 5f bd
       -0.012625654 -0.08875889 0.0065465937 -0.054507703
000220 ab 55 92 3c 30 b1 48 39 cc ce 68 3d 13 85 bc bd
       0.017863115 0.00019139494 0.056837842 -0.092050694
000230 f5 07 fe 3c 8a 9f 66 bd 0b 87 ea bd d9 78 d2 bb
       0.031009654 -0.056304492 -0.11451539 -0.0064230976
000240 83 ab 20 3e 1c 6e d8 3d c9 02 c7 3d 0f 9a 0b bd
       0.15690427 0.10567877 0.09717328 -0.03408247
000250 70 83 81 bd a7 57 79 3d 35 03 48 bd 02 2d 12 3d
       -0.06323898 0.060874607 -0.048831183 0.035687454
000260 5b c5 a5 bd 76 fe 9d bc 46 ec 1e ba f5 e0 39 3e
       -0.08094283 -0.019286375 -0.0006062429 0.1815222
000270 e9 e2 91 bd 95 25 d1 3d a3 4a 63 bd 41 6d 87 3d
       -0.07123358 0.10212246 -0.0554911 0.066126354
000280 6a 6d 67 bd eb ec 86 bd 57 fb 4e 3b 08 0d 52 3c
       -0.05650083 -0.06588157 0.0031582916 0.01282049
000290 da 6c 69 bb 04 6a cd 3d a9 24 df 3d 9b 0c 5b 3d
       -0.003561786 0.100299865 0.10895664 0.05347882
0002a0 88 23 9b bc f6 27 05 bc ef 60 c4 bd b4 28 25 bd
       -0.018937841 -0.008127203 -0.09588801 -0.04032202
0002b0 e3 ce e7 bd 0c ca 83 3d f8 f8 dc 3b fd a8 a2 3d
       -0.113187574 0.06435022 0.0067435466 0.07942388
0002c0 13 9e a2 bd b4 9c 81 bc 56 a6 12 3c 11 fb 66 bd
       -0.079403065 -0.015821792 0.00895079 -0.05639178
0002d0 5e f6 7c 3d 4a eb 18 3e 1e a3 b6 3d 89 df af bd
       0.06175839 0.14933506 0.08917831 -0.08587558
0002e0 5a eb 78 3d 8a be db 3d d4 0a 9b bd 70 29 f6 3d
       0.060771324 0.10729702 -0.07570425 0.12019622
0002f0 5b 50 c9 3d 5f 07 89 bd 36 4f ab bd 59 ac a2 3d
       0.0982978 -0.06690859 -0.08364718 0.07943029
000300 75 79 91 3d ba 30 30 be 1c 11 c0 bd 1b 38 b4 3c
       0.07103244 -0.17206088 -0.09378263 0.02199941
000310 e4 4f 39 3e 86 bf ae 3c fd e8 f2 3d 99 c3 38 bd
       0.18096882 0.02133156 0.11860845 -0.04510841
000320 27 94 91 bd 60 40 c8 bc 28 d0 48 bd e6 6e 0a 3d
       -0.07108336 -0.024444759 -0.04902664 0.033797167
000330 f3 0a 35 3a cf 3f 32 be d0 0a 84 bd 46 25 d6 3d
       0.00069062336 -0.17407154 -0.06447375 0.10456328
000340 8b 4d 04 3e 97 ef 99 3c e2 b9 40 3d 83 0f d6 bc
       0.12920205 0.018791003 0.04705227 -0.026130443
000350 16 84 fd 3e 4e 23 e4 3d bb 06 e3 3e 8f d9 5a 3b
       0.49514836 0.11139546 0.44341072 0.0033393835
000360 d5 19 11 bd 47 4d b6 3d 68 64 c8 3d 4e 22 92 3d
       -0.035425026 0.08901458 0.09784776 0.07135449
000370 54 36 b6 3d 50 f3 a7 be 53 50 79 3b e3 a3 7a bd
       0.08897081 -0.3280282 0.0038042262 -0.06119145
000380 39 ba 08 be 2d 68 f1 3e 67 13 ab be bb b6 ad be
       -0.13352288 0.47149792 -0.3341324 -0.33928475
000390 43 a6 37 3e 1c 9e 70 3d 20 e9 95 bc 2a a0 27 3d
       0.17934518 0.058744535 -0.01829964 0.04092423
0003a0 63 d0 8b bd ee 34 0a bc 1a e3 8c 3e b2 48 ea be
       -0.06826856 -0.008435471 0.27517015 -0.45758587
0003b0 2a 89 b2 3d 0a 37 80 3d a7 5b bd 3d 3b 5b 40 3d
       0.08717568 0.06260498 0.09245997 0.046962004
0003c0 45 91 8e bc 64 9d 7a 3d 72 a0 d7 bd 1e 88 9c 3e
       -0.017403254 0.061185256 -0.105286494 0.305726
0003d0 70 9c b7 3d b7 29 06 bb fd 7d 08 be 92 9a a3 bd
       0.08965385 -0.0020471641 -0.1332931 -0.07988466
0003e0 c6 f8 f2 3d b6 33 d9 bb 90 88 e0 3d d5 b8 9f bd
       0.11863856 -0.006628479 0.10963547 -0.07798926
0003f0 86 05 61 bc 75 f6 02 3e 6a 80 b9 3d 79 d4 44 be
       -0.013734227 0.12789328 0.09057696 -0.19221677

fc_out.weight f4 [2, 64]
000000 0c 9d eb 3d f9 7c 47 3e dd e5 d5 3d c1 f0 79 3e
       0.11504564 0.19481267 0.104442336 0.24408247
000010 27 09 27 be 38 ef 80 3e d2 06 84 be 59 ad 42 be
       -0.16312085 0.2518251 -0.25786453 -0.1901144
000020 36 71 91 be b2 28 a6 3e cf 49 84 3d e8 f6 09 be
       -0.28406686 0.32452923 0.0645939 -0.13473094
000030 bb b0 92 be 94 fe 7e 3f c4 96 aa 3e 69 75 52 3d
       -0.2865046 0.99607205 0.3331815 0.051381502
000040 3d f8 0b be 97 c0 39 3e 93 75 83 bb f1 55 b6 3d
       -0.13668914 0.18139873 -0.0040118187 0.08903111
000050 f8 5c 9a be 0b e6 c0 bd 5c 87 82 be a9 78 18 be
       -0.30149055 -0.09418877 -0.25493896 -0.14889778
000060 c0 c7 20 3d f0 2b f5 bd ba ef f4 3e 3d 2a 69 be
       0.039252996 -0.11971271 0.47839147 -0.22770019
000070 3d 1f 03 be e1 af cd be 62 26 93 bd 34 57 a5 3e
       -0.12804885 -0.40173247 -0.07185055 0.32293093
000080 ce 39 2f be 6c fe 2f be 67 71 53 bf 67 4b 7a be
       -0.17111894 -0.17186898 -0.82594913 -0.24442826
000090 37 c3 78 3e ca 5d ba 3c 50 ab 3a be 75 0e cc 3e
       0.24293219 0.0227498 -0.18229413 0.3985478
0000a0 80 de 9c 3c 7c ac a3 be b1 ff f2 3d 57 e7 89 be
       0.019149065 -0.31967533 0.118651755 -0.2693431
0000b0 35 94 cc be 94 16 01 be 35 ed f6 3d f5 ff dc 3e
       -0.39956823 -0.12606269 0.120569624 0.4316403
0000c0 41 9d 2a 3d 8c 69 6b 3e b9 40 1d bd 12 75 7f bd
       0.041653875 0.22989482 -0.038391802 -0.062367506
0000d0 2d 02 27 be 8f 74 b1 be 9a d4 31 3f 25 cd f0 3d
       -0.16309424 -0.3465924 0.6946503 0.11757878
0000e0 a1 70 d1 3c 2c 40 37 be b6 ac 06 3e ea 65 3f bd
       0.025566401 -0.17895573 0.13151821 -0.046728052
0000f0 14 8a 32 3e 02 e0 e3 bd d4 2e 8b be 65 d9 dc be
       0.17435485 -0.111267105 -0.27184165 -0.4313461
000100 58 66 b7 bd 76 c3 0f be 05 66 5d be 09 2b 45 be
       -0.089550674 -0.14039406 -0.21620949 -0.19254698
000110 4f 51 70 3d 52 b3 77 be 0e f5 8c 3e 46 de e0 3d
       0.058671292 -0.24189499 0.27530712 0.10979895
000120 16 f9 bf 3e 81 af 5b be 99 50 1c be 41 57 d9 3d
       0.37494725 -0.21453668 -0.1526512 0.106123455
000130 26 87 58 3e d1 01 80 bf e3 6b d4 bd 30 2b 29 3c
       0.21145305 -1.0000554 -0.1037214 0.010325238
000140 f7 40 6c 3e 8b 74 39 be be 82 1f 3e 19 3c 84 3d
       0.23071657 -0.18110864 0.15577218 0.06456775
000150 f7 90 59 3e 42 30 8a 3d 1b 43 c9 3e 04 14 07 3e
       0.21246706 0.06747486 0.3930901 0.13191229
000160 9d 43 e4 3c da 71 93 3d f8 6f f4 be c3 e4 54 3e
       0.027864272 0.0719945 -0.47741675 0.2079039
000170 76 ca a6 3d 98 4e f7 3e e5 ac 9e 3d 5d 2c 93 be
       0.08144085 0.4830215 0.07747821 -0.28744784
000180 18 1f a6 3d 7c 34 c2 3c 41 f1 41 3f 59 0c b5 3e
       0.081113994 0.023706667 0.7575875 0.35360983
000190 ff 68 fd bc 8f 7b bf 3c 3b c0 eb 3d 63 15 9a be
       -0.030933855 0.023374347 0.115112744 -0.30094442
0001a0 3a fd 94 bd ce 5b 8e 3e 6e 74 a2 bd 96 30 4f 3e
       -0.07274862 0.27804416 -0.079323635 0.20233378
0001b0 e2 73 0e 3f 68 41 a5 3c 78 52 a6 be 9b d4 f7 be
       0.55645573 0.02017279 -0.32484794 -0.48404393
0001c0 f7 87 4a bc ba 35 81 be 4b 50 8b 3d 76 5d 21 3e
       -0.012361518 -0.25236303 0.06802424 0.15758309
0001d0 e0 87 c9 3d 06 35 9a 3e 70 e0 25 bf e4 55 36 be
       0.09840369 0.3011858 -0.6479559 -0.17806202
0001e0 04 80 43 3d f2 24 02 3e 73 17 20 3c 1b 49 0c 3e
       0.047729507 0.12709406 0.009771216 0.13699763
0001f0 c9 ee 39 be 8a 75 b4 3d 07 2c ac 3e f9 09 8b 3e
       -0.18157496 0.08811481 0.3362734 0.27156046

fc_out.bias f4 [2]
000000 f7 ac 52 3e 9f a7 43 be
       0.20573793 -0.19106911
