model_ckpts/cric_prediction_test.pth (torch_old, 72191 bytes, 6 tensors)

lstm_cell.weight_ih f4 [256, 3]
00000000: bb6f ee3d a404 993d da9e bbbe cc49 b5be
00000010: 8a42 c33d e927 fabe aeb6 993d cc91 123f
00000020: 952e 76bf 0ffc aabe e00e d1bb 4a04 863e
00000030: 51d6 66be 4e73 3bbe 1c90 1abf 5bb1 4c3e
00000040: d255 b5be a14a 07be c201 1e3f d388 a83e
00000050: d960 323f fa08 463f 95bf 613e 99ab a03e
00000060: e837 853e be09 13be 9471 55bf 8deb f4be
00000070: 749c 9ebe 62d7 143f 072b c53e b0a1 033f
00000080: 953e 2a3f 50bb 87be f9d6 3abd d04b f23e
00000090: 2d87 90be dc40 4dbe 271f 80be 00e6 efbe
000000a0: 9d41 b8be 515e c33d 90e2 d7be 3933 a13e
000000b0: 888e f63e 136b cc3d 8fd1 e93e c675 883f
000000c0: 7493 9ebe fbd4 273e 1f1c 22be adad a4bc
000000d0: 2116 923e a381 533f b60b 9abe 7a13 5cbf
000000e0: 989d 823e ed63 a63e 650e 83be f80e 22be
000000f0: 6f52 143e 4906 10be 7753 8a3f 2701 333f
00000100: 1d6d 083e b1bc 6fbf 609b 833d 544f 3cbe
00000110: 3283 08bf c9a3 4a3e ad27 9abe 6bf2 8c3f
00000120: f35d dc3e fdba 6cbe 9237 bfbe 5740 abbe
00000130: 2907 6b3e ed82 7f3f 1a49 c7be 47a4 833e
00000140: ccff 913f 9628 143e 44be 933d ae1e e9bc
00000150: 4474 0cbf eab9 dcbe 17e2 dabe 887f be3d
00000160: 39b5 b6be 7954 b23f bc71 b63d 6dd7 f13c
00000170: c29d 863e 2998 eabd 17cf 24bd d6d2 5e3f
00000180: a63b eabe f555 c6bf 81b7 b43c 1065 073f
00000190: 4396 893f 6001 083f df81 8a3e f8f0 edbe
000001a0: 7d87 e6be 7b2c 3abe a780 5dbf 44d0 05be
000001b0: 054b a0be 42ab 15bd 2b98 3f3f 3a3c 5fbe
000001c0: 5bd0 003f 0cd1 143f 4256 4ebe bd00 793e
000001d0: d427 4b3f a819 cabe a620 053e 5b8f cebd
000001e0: 0c4e bebd e5a0 dabe e8c9 16be 3b7f a2bd
000001f0: a101 9e3e e7ce d93e 3209 eb3d df26 823e
00000200: 9143 d43c 6171 b93c 0d02 57be 312d 083f
00000210: 0346 d6be e452 193e 8e13 20be 1389 82be
00000220: 030f f1bc ecb5 833f 1233 9a3e 8436 debd
00000230: 1a49 4b3f 7339 59bd 6328 7abe 1720 bd3d
00000240: 2803 883e f018 70be e8e7 b13f f01b c4be
00000250: b39a d23d df09 8dbe b2b5 af3e b74b cbbd
00000260: ae0f e7bd f748 8cbe b97d 1c3f 95df e13e
00000270: a0c9 1a3f eabf 93bd 9bba ab3e 80b9 043c
00000280: 4666 df3e c7a3 df3e 6646 2a3f 9d2e 853e
00000290: d3a4 9e3e ecb3 08be 9786 763d c820 503f
000002a0: 2831 ccbe 761d 4bbe a613 75be 8321 1f3c
000002b0: c547 923e 029c fd3e 6368 38be b550 9fbe
000002c0: 2c19 043f e8b5 c5be 98a3 f03e c8b8 903f
000002d0: b970 173e 2788 94be afeb 9c3d 5344 96bd
000002e0: 9608 71be 4880 25be 8e14 533e 2ada fd3e
000002f0: d28f 263d a0a3 9dbe d05d 5b3e ad0d d23f
00000300: 6767 253f 9a8e 5e3f bf53 b73f a993 9abd
00000310: 97d5 343e 42f6 363c 51ab 99be ed13 9bbe
00000320: 7009 9cbe a075 bbbe 16a3 703e 7303 6dbf
00000330: 0df0 ad3d c093 533e 13b6 09be ddbd c23d
00000340: a41a 96be 39a9 08bf 3aa6 b43d f329 6ebd
00000350: 55f5 a83e 2be9 5b3f 0ef5 053f 719c fa3e
00000360: 7580 b23d 15b8 92bf 77db 36be 2e36 38bf
00000370: 5a85 ccbe ee6d 383e c9d0 0f3f 1f56 183f
00000380: 752a 383f 26d4 3dbe b349 a23d 05dc 013f
00000390: 7fa3 a4be c302 b5be 70d6 d3be 3d07 22bf
000003a0: c9de 02be 1f7e 3c3e bee0 a0bd 5106 36be
000003b0: 5b62 7ebe 4cce 72be 12e6 8c3e 92e1 ee3e
000003c0: ba58 8ebc 331b 983e dc29 3dbe 4b89 f03d
000003d0: aa0d 9f3e 2382 b33e af63 73be d992 e9bd
000003e0: 5204 a93d b0b4 ae3e 70f4 873e e459 00be
000003f0: 9365 8cbe 5a03 49bf 10c3 10be 0903 49bd
0.11642405 0.07471588 -0.36644632 -0.35407865 0.09534176 -0.48858574 0.075055465 0.5725372
-0.9616483 -0.3339543 -0.006379947 0.26175147 -0.22542693 -0.18305704 -0.60376143 0.1998953
-0.35417038 -0.13212062 0.6172143 0.3291689 0.6967903 0.7735745 0.22045739 0.3138092
0.26019216 -0.14359185 -0.8337643 -0.4783596 -0.3097874 0.5814115 0.3850939 0.5141859
0.6650174 -0.26510096 -0.04561517 0.47323465 -0.2822813 -0.20044273 -0.25023767 -0.46855164
-0.3598756 0.09539474 -0.4216504 0.31484392 0.48155618 0.0998136 0.45667693 1.0660942
-0.30971873 0.1638984 -0.1583104 -0.020102346 0.28532508 0.82619685 -0.3008706 -0.8596722
0.2551086 0.32498112 -0.2559692 -0.15826023 0.14484571 -0.14064898 1.0806721 0.69923633
0.13322873 -0.93647295 0.0642612 -0.18389636 -0.5332519 0.19789042 -0.30108395 1.101148
0.43040428 -0.23118205 -0.37347084 -0.33447525 0.2295195 0.9980915 -0.3892296 0.2571127
1.1406188 0.14468607 0.07214025 -0.028457012 -0.5486491 -0.4311059 -0.42750618 0.093016684
-0.35685137 1.3932029 0.08908412 0.029521668 0.26292235 -0.114548035 -0.04023656 0.8704046
-0.45748633 -1.5494982 0.022060158 0.52888584 1.0748981 0.531271 0.2705221 -0.46472907
-0.45025244 -0.1818103 -0.8652443 -0.13067728 -0.31307235 -0.036540277 0.74841565 -0.21800318
0.50317925 0.5813148 -0.20150092 0.24316688 0.7935765 -0.394727 0.13000736 -0.10085937
-0.0929223 -0.42700878 -0.14725459 -0.079344235 0.30860618 0.42540666 0.11476363 0.2542028
0.025911124 0.022637071 -0.20996876 0.53193957 -0.4185029 0.14973027 -0.1563246 -0.25495204
-0.029426103 1.0289893 0.3011709 -0.10850242 0.7940842 -0.053033303 -0.24429469 0.09234636
0.26564908 -0.23447013 1.3898897 -0.38302565 0.10283413 -0.27546594 0.3431831 -0.09926551
-0.112822875 -0.27399418 0.6112934 0.44115892 0.60463905 -0.07214339 0.33540806 0.008100867
0.43632716 0.4367964 0.6651367 0.26012126 0.30985126 -0.13349885 0.06018695 0.8130002
-0.39881253 -0.19835457 -0.23933277 0.00971258 0.2857038 0.49533087 -0.1800857 -0.31116262
0.5160091 -0.38615346 0.46999812 1.1306391 0.14789094 -0.29010126 0.076621406 -0.073372506
-0.23538432 -0.16162217 0.2061331 0.49580508 0.0406645 -0.30788898 0.21422505 1.6410424
0.64610904 0.8693634 1.4322432 -0.07547695 0.17659603 0.011167111 -0.30013517 -0.3028864
-0.3047595 -0.36613178 0.23499712 -0.9258339 0.08493052 0.20661831 -0.13448362 0.0950887
-0.293172 -0.53383213 0.08820768 -0.058145475 0.32999673 0.8590266 0.5232705 0.4894748
0.087159075 -1.1462427 -0.17857157 -0.7195767 -0.3994549 0.18010685 0.56177956 0.5950641
0.71939784 -0.1853796 0.07924213 0.5072635 -0.32155988 -0.3535367 -0.4137454 -0.63292295
-0.12780298 0.18407486 -0.07855366 -0.17775847 -0.24842207 -0.23711509 0.2751928 0.46656471
-0.017376292 0.2970825 -0.18473 0.117449366 0.31065112 0.35060224 -0.23768495 -0.11404962
0.08252777 0.3412223 0.2655368 -0.1253429 -0.27421245 -0.7852074 -0.1413691 -0.04907516

lstm_cell.weight_hh f4 [256, 64]
00000000: e484 26be d025 ae3e 996c 13bf 150f c83e
00000010: 3c9f 713e 6c55 7c3d ac5d 00bf 32f6 723f
00000020: d68a 26bf a0f9 89be a317 8cbe 56ae 343e
00000030: 934c 7c3e 6c6c c73d dc34 c7bd 03a1 943e
00000040: 3f93 0b3f 3d35 a8bd 3719 363e d7bc cc3c
00000050: 3b14 003b 0abc aebe 7ecd 58bf 5fa5 943d
00000060: dc0d d83d 6e9d 9bbd 62c9 733e 4d3e 24be
00000070: 246b a63d 0f6b 3dbe e472 933d c533 0ebe
00000080: 9316 b0bd 3094 4dbf f68c 71be af65 fbbe
00000090: bdc5 ea3d 3085 193d 5891 01bd ca1f af3e
000000a0: 57ee 88bd f1eb 853d 3745 4dbf 5b94 30bf
000000b0: 126a de3e 0803 fbbc 2163 d43b b47e be3d
000000c0: d6bc 17bf 6156 f3bc 81df 84be 40e1 e8be
000000d0: 58a0 e33e b951 c3bd d231 ca3c a368 e9be
000000e0: 03a3 973c 197d 3b3f 87af e4be 3c07 163d
000000f0: cc25 4bbe 4ad9 74be 9f33 9b3e ece7 023d
00000100: f5fc 4b3d e594 f23d 46d2 b53e b004 123e
00000110: 8915 013e cc44 173b 74f0 bebe da6c 0e3f
00000120: ceb7 a4bd 6a92 633e 1fb2 00bf 1c72 a33e
00000130: b43c 093e 5c4c 56be b8a4 48bd 1e66 933e
00000140: 4936 96bc d0bb 943d f4d9 1f3f d03c 45be
00000150: 0d0d e7bd c692 c2bd 39d6 40bf abd4 5c3c
00000160: 7c45 443e 5a29 13be bc1b 393e 7cb6 c4bd
00000170: a8f6 eabe f1d2 d2bd 9e99 2d3e b8bc c7be
00000180: de2c 1abc 829d cfbe d740 74be 1210 8fbd
00000190: 7286 2e3e ccf0 9d3e 7270 ea3b 280d 3d3e
000001a0: ba32 273c 1c02 c4be ae7a f8be 039c 69bd
000001b0: 2ee5 783d 36ea 703e 4342 2bbe 15b8 8abe
000001c0: c2ff e8bd 3d81 553e 897b 3ebe fcd5 063e
000001d0: 8982 f33e 110b e33e 7e43 493d 3c4a 2fbe
000001e0: 4a53 bdbe 2239 7bbd 016d 89be 1f19 97be
000001f0: 6ac7 0bbe df0a 7ebc 05d6 cabe 9feb b53e
00000200: 9e9a d43e 2dbb 8f3c 12a9 b23e 6e29 0c3e
00000210: 55e6 d83c 4fde 0f3f 8481 47be 06f3 a93e
00000220: cf27 5dbe d91d b5bc 8d9e c7be d561 86be
00000230: 8cd2 9b3e ce14 933e 5fb7 fbbe 4d8a 93be
00000240: a7fc a13e b1e7 6dbe d32e 2c3f 0e07 abbe
00000250: 486f babe a9ad 1dbe 1b7d dcbe 03bf 023f
00000260: 8950 033e 398a 59be e0d4 7cbe 75a7 e63d
00000270: 7e08 9cbc 466c e9ba 29e6 05be ae09 853d
00000280: 77bd 4c3e cb08 98be 2b27 a2be 3041 adbe
00000290: ba76 b83c 0f73 813e 137e 0abe 6c11 f23d
000002a0: c49b 173e d953 05bf f4c0 2e3e 1c8b ee3d
000002b0: a0f1 ae3e 9a35 af3e 3e89 34bf 2201 d2be
000002c0: 3721 593e 1274 8d3e bc71 5abe dcc4 a43e
000002d0: 9a03 7f3d a9c6 de3e f3ed cf3d d281 ee3d
000002e0: c5a0 edbe 7d75 21bd 4fb5 90be f5cd 8d3c
000002f0: 36d1 9aba 7ca8 2abd 3cd6 f0be 33e7 b1be
00000300: 29ae c3be aa90 8e3e 4259 29be 3d38 00bf
00000310: e4ab ef3d d6a9 85be 5cf2 02bf babb bf3e
00000320: 64af 00be f5a7 99be 830e e3be 8f43 f1be
00000330: 011f 20be a9bd 13be 2b02 84bb d40e 753d
00000340: 1f02 153e defe b23e 7a0a bc3e 9766 40be
00000350: f9d3 993e 9907 14bb d9da 53bf 0e65 0fbe
00000360: 9bd2 e93e 4c0c a63c d797 b0be 5e1e 01bf
00000370: 2c0f 66be 81c5 68bd e33e 21bc d009 91be
00000380: 4e6a 3d3f c174 35bf e953 afbe cc97 c33d
00000390: 16e7 bf3e a843 a7be 0e37 39be 3e34 363e
000003a0: 853b 6c3c 0d15 84be 57a6 edbe b820 eebe
000003b0: dad8 803e ff4c 053f 7742 d43d 177e c8be
000003c0: 0c5f 14be 37c4 9a3e 24b8 abbd e22c f0bd
000003d0: f442 133f d17d f93e cab6 933d 3b3e 483e
000003e0: 86ee eebe 59d4 af3e 6b8a a03d ac51 67bd
000003f0: 8e1f aebd bc0f babd 64ae 11be 71ba 023d
-0.16261631 0.34013224 -0.5758758 0.39074007 0.235959 0.061604902 -0.5014293 0.94906914
-0.65055597 -0.2694826 -0.27361783 0.17644629 0.24638586 0.09737477 -0.09726879 0.29029092
0.54521555 -0.082132794 0.17783056 0.02499239 0.0019543308 -0.34127837 -0.84688556 0.072581045
0.105495185 -0.07598387 0.2380729 -0.16039391 0.08125904 -0.18497871 0.07199648 -0.13886936
-0.08598056 -0.8030424 -0.23588929 -0.49101016 0.11463497 0.037480533 -0.03163275 0.3420394
-0.06686085 0.06539143 -0.8018374 -0.6897637 0.434403 -0.030641094 0.0064815436 0.093015105
-0.59272516 -0.029704275 -0.2595177 -0.45484352 0.4445827 -0.09537072 0.02468196 -0.45587644
0.018510347 0.7323776 -0.44665167 0.036627993 -0.19838637 -0.23911014 0.3031282 0.03195946
0.049801785 0.11844806 0.35511988 0.142596 0.12605871 0.0023081778 -0.37292826 0.55634844
-0.080428705 0.22223821 -0.5027179 0.31922996 0.13402063 -0.20927566 -0.048985213 0.28788847
-0.018336432 0.07262385 0.62441945 -0.1926148 -0.11281786 -0.09500651 -0.7532688 0.013478438
0.19167131 -0.14371243 0.18076986 -0.09605119 -0.4589131 -0.1029414 0.16953132 -0.39011168
-0.009410111 -0.40549856 -0.2385286 -0.06985487 0.17043474 0.30847776 0.007154518 0.1846205
0.010204965 -0.3828286 -0.48531097 -0.05703355 0.060765438 0.23526844 -0.16724496 -0.27093568
-0.11376907 0.20850082 -0.18601812 0.13167566 0.47560528 0.4434438 0.04913663 -0.17118162
-0.36977607 -0.061333783 -0.26840976 -0.29511353 -0.13650289 -0.015505522 -0.3961641 0.35531327
0.41524214 0.017545307 0.34894615 0.13687679 0.026477018 0.5619859 -0.19483 0.33193225
-0.21597217 -0.022108959 -0.38988152 -0.26246515 0.30434072 0.2872681 -0.4916334 -0.28816453
0.3163807 -0.23232915 0.6725895 -0.3340382 -0.36413026 -0.15398277 -0.43064198 0.5107271
0.1282369 -0.21244134 -0.2469058 0.11262409 -0.019047018 -0.0017808757 -0.1307608 0.06495987
0.1999415 -0.29694209 -0.31670508 -0.33838797 0.02251755 0.25283095 -0.13524656 0.11819729
0.14805514 -0.52081066 0.17065793 0.11647627 0.3416872 0.34220582 -0.70521915 -0.4101649
0.21204077 0.27627617 -0.21332449 0.32181442 0.062259294 0.4351094 0.10152807 0.11645855
-0.4641172 -0.039418686 -0.28263327 0.017310122 -0.0011811617 -0.041664585 -0.47038448 -0.34746704
-0.3821881 0.27844745 -0.16537955 -0.5008581 0.117027074 -0.26106137 -0.5115106 0.37447912
-0.12566906 -0.30010954 -0.4434701 -0.47121856 -0.15636827 -0.14427818 -0.0040285788 0.059828594
0.1455159 0.34960073 0.36726743 -0.18789135 0.30044535 -0.0022587536 -0.8275581 -0.14003393
0.45668492 0.020269535 -0.34490845 -0.5043696 -0.22466725 -0.05682898 -0.0098416535 -0.283278
0.73990333 -0.7088128 -0.34243706 0.09550437 0.37480992 -0.32668805 -0.18087408 0.17793366
0.014418487 -0.2579731 -0.4641597 -0.46509337 0.25165445 0.5207061 0.1036424 -0.391587
-0.14489383 0.30227825 -0.083847314 -0.11727311 0.5752404 0.48728803 0.072125986 0.19554989
-0.46666354 0.34341696 0.07838901 -0.056474373 -0.08502112 -0.09085032 -0.14226681 0.031916086

lstm_cell.bias_ih f4 [256]
00000000: e1a6 c2be 7868 15bf eab1 203d faa9 cfbe
00000010: 5568 8fbf d8f7 35bf 9033 2ebf db4e 8fbd
00000020: 2fe7 d8be 3e73 47bf 6d04 e0be 34b0 37bf
00000030: 5613 c5bc 81d9 afbf 57cc 1fbf c9e7 25bf
00000040: faa6 a9be 539f 03bf daf9 36be bd2c 3cbf
00000050: e821 5abc cbb3 9dbe 113a 10bf 9888 2dbf
00000060: b3ff 4abf 35a8 88be d4b7 52bf 9d28 b9be
00000070: f2dc 49bf 77bf 3bbf d947 10bf 5b5b f4be
00000080: 8a30 9ebf 2f52 c6be 68fe a8be 0502 643d
00000090: 54e0 aabe b071 c1be 1db3 22bf f265 c0be
000000a0: 5e11 dabd 4bc1 59be 25fc d7be 2b7c 96be
000000b0: bea0 89be 3bea a6be 6481 f9be a5ca 17be
000000c0: 81cd 96be 8f9c 35bf be27 65bf 6eac 95be
000000d0: 93c4 2ebf 8fc5 95be a3ea c0be e8e7 41bf
000000e0: da54 e7be bd8d 9ebd 73c2 f43c c734 0abf
000000f0: 3a76 49bf 9e6c abbe 4465 f4bd e9cc 73bf
00000100: 3503 0fbe 4294 d7be 1e82 22be 8c0c bbbe
00000110: a0a2 19bf e45c 19bf 09f6 bcbe f11a 94bd
00000120: ce27 02bf 1e38 aabe 412c cbbe 512b 3fbe
00000130: cb5c 55bf 44ef 15bf 0d87 a5be 170b 93be
00000140: 1043 e6be 169b 76be 7b10 9cbe 4375 06bf
00000150: 3893 42bf db43 3dbf d3c7 fabe ced9 c3be
00000160: 7d6d 24bf e8f1 10bf bd4e 8dbe c668 2abe
00000170: e211 74be d809 14bf f114 4ebe 8ced 95be
00000180: 08ff 73bf d973 8fbe 4e72 b1be f2f0 82bf
00000190: bf33 5ebe d821 83be c92d c3be 7c1b 85be
000001a0: 3552 6abe 24fd adbe 780b 57bd 60bd 3bbe
000001b0: e47b c4be e562 3dbf be12 b3be 5757 e9be
000001c0: 7c6b 46be a719 9bbe 95b2 1cbf 520b 09bf
000001d0: 9457 02bf 1d14 a9be ac26 7ebe af79 a2be
000001e0: 1c98 57be 348f fdbe 18c9 1abf c2c7 77be
000001f0: 6db0 13bf c9c3 0bbe e8ce 67be 324e 47be
00000200: ec34 33bc 3018 463d c6ea 873d f8a6 46bb
00000210: 9359 b9bb 20b5 3dbd ae7e 283c 108c 24bd
00000220: 2e8b b0bc 70e4 ddbd d5eb f73d 292e 18bd
00000230: eaae bc3c 2172 8abc 4d69 61bd b9dc 61bd
00000240: 0baf 663c b013 cabd bfe6 943d fc69 c43b
00000250: 79ee 1d3e a814 f33d 6e70 c73d 97d2 dbbc
00000260: 409b a7bd 6dce cebc 8e59 04bd c80c 443d
00000270: b5e6 f33d 5b24 473d f0af 08be 7943 4bbc
00000280: 877b f4bd f85f 003b 5ff3 dabb 2f04 103d
00000290: e1bf dfbc 67b8 423c 9db4 10bd 2937 a0bd
000002a0: ad79 0b3e 479b 52bd 147d 853d 7c1a 6c3d
000002b0: c611 07be 5dcc aebd 279f 20bd b723 cabd
000002c0: 5d49 b63d a617 583d 5f24 fb3d f267 f93c
000002d0: c9b0 fdbc 0d04 3c3c 3f47 ed3c 7477 943c
000002e0: bf84 a23d 8a91 b4bd 993d d43d 04e4 fc3c
000002f0: 9093 fb3c 5e7b bd3c 5fcc 073d dea6 06bc
00000300: 1411 30bd 8bb1 e5be a825 103e bb72 eabe
00000310: ce56 95bf 5536 41bf bbd0 38bf 61a6 8b3e
00000320: 3bc4 cdbe d366 5ebf e0c3 0abf 8bfd 6abf
00000330: 90e6 66be 81c2 b9bf a79b 26bf b0af 3ebf
00000340: 23d6 d6be 074e 03bf 3e96 efbe 53d9 33bf
00000350: fba7 273e 26a0 fabe 8375 dfbe da76 d1be
00000360: 5e3f 2ebf 953c d4be f86a 13bf 0821 b93c
00000370: 919d 4fbf 4536 00bf d5fd 09bf 8641 f0be
00000380: 8c71 8dbf da69 9abe f948 afbe b1b7 9abd
00000390: 61b2 debe a4ef e3be 4251 6bbf 26a8 ebbe
000003a0: f62f 1abe d7f3 b3be b7be 33be 8289 dabd
000003b0: e624 cabe 10e4 75be 5f1e bebe ad25 82bd
000003c0: 5758 afbe f6fd 2fbf 7cbb 30bf e330 93be
000003d0: a917 0abf b5e3 81bd 54e8 efbe 81d6 0fbf
000003e0: 5fb4 24bf 3426 34bd f88d 13be 9042 32bf
000003f0: 32b5 46bf a994 bebe 6940 7dbe 7691 52bf
-0.38017944 -0.5836253 0.039232172 -0.4055937 -1.1203715 -0.71081305 -0.6804743 -0.06997462
-0.4236388 -0.7791022 -0.43753377 -0.7175324 -0.024057072 -1.3738252 -0.6242117 -0.648068
-0.33135206 -0.51414984 -0.17868748 -0.73505765 -0.013313748 -0.30801234 -0.563386 -0.6778655
-0.79296416 -0.26690832 -0.8231175 -0.36163798 -0.7885276 -0.7333903 -0.5635963 -0.4772595
-1.2358563 -0.38734576 -0.33006597 0.05566599 -0.33374274 -0.3778205 -0.63554555 -0.37577778
-0.10647844 -0.21265142 -0.4218456 -0.29391608 -0.2688045 -0.3260058 -0.4873153 -0.14823397
-0.29453662 -0.70942014 -0.89513767 -0.29233116 -0.682687 -0.29252288 -0.37679014 -0.75744486
-0.45181924 -0.07741878 0.029877877 -0.5398678 -0.78696024 -0.33481306 -0.119333774 -0.95234543
-0.13966067 -0.421053 -0.15869948 -0.3653301 -0.6001377 -0.59907365 -0.3690646 -0.07231701
-0.5084199 -0.3324594 -0.396822 -0.18668868 -0.83344716 -0.58568215 -0.32329598 -0.28719398
-0.4497304 -0.24082598 -0.30481324 -0.5252268 -0.7600589 -0.73931664 -0.4898058 -0.3825211
-0.64229566 -0.5661912 -0.27599135 -0.1664153 -0.23834947 -0.5782752 -0.20125176 -0.29282796
-0.9531102 -0.28018072 -0.3465752 -1.0229781 -0.21699427 -0.25611758 -0.3812087 -0.2599753
-0.22882922 -0.33982193 -0.05250117 -0.1833396 -0.3837577 -0.73979026 -0.34975237 -0.45574448
-0.1937694 -0.3029301 -0.61209995 -0.535329 -0.50914884 -0.33023158 -0.2481944 -0.31733462
-0.21054119 -0.49523318 -0.60463095 -0.24197295 -0.5769108 -0.13648905 -0.22637522 -0.19463423
-0.0109379105 0.04836291 0.06636576 -0.0030311923 -0.00565643 -0.046315312 0.010284109 -0.040172637
-0.021550741 -0.108345866 0.12105528 -0.037153397 0.023032624 -0.016900124 -0.055032063 -0.05514214
0.014079819 -0.09867036 0.07270574 0.0059940796 0.15423001 0.11869174 0.09738241 -0.026833816
-0.081839085 -0.025244916 -0.03231197 0.04786375 0.11909238 0.048618656 -0.13348365 -0.012406223
-0.119376235 0.0019588452 -0.006681844 0.03516024 -0.027313175 0.011884785 -0.035328496 -0.07823021
0.13620634 -0.051417615 0.065179974 0.057642445 -0.13190374 -0.08535073 -0.03921428 -0.09870093
0.08900712 0.052756928 0.122627966 0.030445073 -0.030968087 0.011475575 0.028964637 0.018123366
0.079354756 -0.08816822 0.10363311 0.030870445 0.030710012 0.023130115 0.033153888 -0.008218495
-0.042985037 -0.44862017 0.14076865 -0.45790657 -1.1667116 -0.7547353 -0.721935 0.27275375
-0.40188774 -0.8687565 -0.5420513 -0.91793126 -0.2254889 -1.4512483 -0.65081257 -0.7448683
-0.41960248 -0.51290935 -0.46794313 -0.70253485 0.16372673 -0.4895031 -0.43644342 -0.4091099
-0.6806544 -0.4145247 -0.57585096 0.022598758 -0.810998 -0.5008281 -0.5390294 -0.4692499
-1.1050277 -0.30158883 -0.3423536 -0.075545676 -0.43495467 -0.4451877 -0.91920865 -0.46026725
-0.15057358 -0.35146973 -0.1755322 -0.10670759 -0.39481276 -0.2401278 -0.37132546 -0.06354842
-0.34247085 -0.6874689 -0.6903608 -0.28748235 -0.5394235 -0.0634226 -0.4685694 -0.5618668
-0.64337724 -0.043981746 -0.14409626 -0.69632816 -0.7762023 -0.37222794 -0.24731602 -0.82253206

lstm_cell.bias_hh f4 [256]
00000000: 913c 9ebe 6e61 20bf 35ea cd3d aa31 c2be
00000010: c3a9 a3bf 782c 02bf e05a 30bf 5cb9 883c
00000020: 2cfd 27bf b688 3ebf bbca afbe 1849 33bf
00000030: da63 9abd 29ff b5bf 9017 febe 23cc 1fbf
00000040: 011d 16be 3402 aebe b848 52be 63a5 35bf
00000050: ccce e63d 1384 91be 399b e8be f0b0 1ebf
00000060: 1baf 45bf 7342 89be 9042 46bf 03ed 6dbe
00000070: 344a 0cbf 0723 14bf 7b72 b9be 4e79 f5be
00000080: 4091 91bf aa82 35be 5a66 fcbe 51d2 8fbc
00000090: 3e06 a7be 8a50 ffbe 43d4 47bf de4f 9ebe
000000a0: dc0b 0bbe 0317 1abe 152b e1be 0360 a5be
000000b0: cfc3 d3be 5931 ebbe f563 fbbe 1dad 62be
000000c0: a5d8 90be f99d 11bf be78 48bf 301c febd
000000d0: ab7f 14bf e160 9fbe 5bdc c6be d0d3 29bf
000000e0: b036 07bf bfdb ae3d 90a7 51bd 5c55 25bf
000000f0: fcf5 3dbf 9e83 b3be 2616 0cbe 318e 8dbf
00000100: df13 60bd 8493 ecbe fa2b b7be a432 e6be
00000110: 1ae4 f7be f4d2 14bf a356 eabe 47e0 9abd
00000120: daa8 02bf a222 a5be 7791 dabe bb14 88be
00000130: 57ad 2bbf e942 41bf dfea c6be 2bf5 c1be
00000140: ae3f a7be cbe1 06be 45be b3be 82a9 d0be
00000150: fca0 2abf dded 65bf e735 02bf 62a5 94be
00000160: 940c f1be 1ed9 1fbf dbed 72be cc71 23be
00000170: 78e8 8ebe e231 07bf 5a49 aebe 880d dabe
00000180: 8e72 7bbf 9dd0 97be 8aa6 eabe 6184 56bf
00000190: 44c7 a5be a909 97be edac 96be 9a40 03be
000001a0: 7424 07be 8c51 cfbe 6eec 88be facb 89be
000001b0: 4611 7fbe 6931 4ebf c85d b2be d7bf a4be
000001c0: f63d 3cbe f9da 86be 9eca 06bf d0d5 f2be
000001d0: 66eb babe f7ee adbe 4c02 85be 4720 8abe
000001e0: fa8b 81be 991d 06bf e289 2fbf d770 b3be
000001f0: b5af 40bf d19a edbd 0753 d3be 7e12 92be
00000200: a4a8 cd3d 7325 e4bd 231d ac3c ae99 b7bb
00000210: 0794 553d b7a9 12bc 89a0 023d 129f 2fbe
00000220: 1835 873d 62b9 713d 5079 b7bd 8397 6fbd
00000230: 6952 f1bd 5a02 56ba 358e 48bb 6e58 57bd
00000240: 994e 21bc 9f1e 693c 4f6d f6bd 0e0d 5a3b
00000250: 1860 afbd 4783 88bd 55b8 18bd bb24 6b3d
00000260: 0bcc 163d bfbb fb3d 1af4 25bc fe68 6b3d
00000270: ba11 5cbd affc 9ebd 923b 433d 6ed5 c73d
00000280: bdd6 923d 0871 213d 1963 683d 5b68 d03c
00000290: 4c5e 28bd e4df f1bc dcae 54bc a8cb c33c
000002a0: 83ca 79bd 6b9b 873d dc7b 303c c0ed 8a3d
000002b0: d0ba c93d cc9d 0d3c ec16 243d b7b3 b53c
000002c0: 0930 07bd dfd6 d5ba 302c 79bd 90ec 9a3d
000002d0: 232d 49bd e409 b33b 35ec ee3c b2ab 633d
000002e0: 246b 8fbd a139 6fbd 5d81 4dbd e2ca 8f3d
000002f0: ee8b 98ba c20f de3c 54aa 3d3c 43c2 69bd
00000300: 2265 31be 41a6 febe 5520 e73d 8748 e4be
00000310: 9c67 acbf 9ffd 36bf f8f8 01bf 330c 8c3e
00000320: 4b84 1dbf 93d9 4cbf ac21 0cbf e7e6 41bf
00000330: fa98 49be d3c3 a5bf 757b 12bf b440 3bbf
00000340: e11e 9dbe 0670 f5be 260d 8bbe f716 33bf
00000350: 4c26 f23d 9cfa d0be 81ec fabe 2e6f a9be
00000360: e408 4abf 6d0f e0be 948a 43bf 23e6 1fbd
00000370: 7733 2fbf 279f 09bf 2641 06bf 44a3 fbbe
00000380: 32a2 8ebf be27 8dbe 932f cbbe fad3 053c
00000390: 71ae e0be 7481 f9be a48d 6cbf ea30 c8be
000003a0: 0a5e 95be 7539 02bf cdae 1cbe 10b9 a2be
000003b0: d0c1 cbbe 0add 62be ed09 8ebe ea14 84be
000003c0: fbfc dcbe b4b6 15bf c485 01bf 4698 44bd
000003d0: b317 dabe b1ec 79be ff79 08bf abf4 3fbf
000003e0: 8f40 2abf c5a9 003e 26ed ae3c 7e90 37bf
000003f0: c077 50bf e74c dfbe 8452 c5be 1c9c 5cbf
-0.30905584 -0.62648666 0.10054437 -0.37928516 -1.2786182 -0.50849104 -0.68888664 0.016689949
-0.65620685 -0.74427354 -0.3433436 -0.7003341 -0.075385764 -1.4218494 -0.49627352 -0.6242086
-0.14659502 -0.33986056 -0.20535553 -0.70955485 0.11269912 -0.28421077 -0.45430925 -0.61988735
-0.77220315 -0.2680851 -0.77445316 -0.23234944 -0.54800725 -0.5786595 -0.36220154 -0.4794411
-1.1372452 -0.17725626 -0.49296838 -0.017556341 -0.3262195 -0.49866134 -0.7805826 -0.3092031
-0.13578743 -0.15047841 -0.4397818 -0.32299814 -0.41360328 -0.45936087 -0.490997 -0.2213635
-0.28290287 -0.5688167 -0.7830924 -0.1240772 -0.58007306 -0.311286 -0.38839993 -0.66338825
-0.5281782 0.08538007 -0.05118519 -0.64583373 -0.7420347 -0.35061353 -0.13680324 -1.1059018
-0.05470645 -0.46206295 -0.3577574 -0.4496051 -0.48416215 -0.5813439 -0.45769224 -0.07562309
-0.510389 -0.32252985 -0.42689106 -0.26578316 -0.6706137 -0.7549272 -0.38851067 -0.3788236
-0.3266577 -0.1317207 -0.35106102 -0.40754324 -0.6665189 -0.89816076 -0.508635 -0.29032427
-0.4707991 -0.6244067 -0.23723547 -0.15961379 -0.27911735 -0.5281049 -0.34040338 -0.4258845
-0.9822167 -0.29651347 -0.45830184 -0.83795744 -0.3237859 -0.29499558 -0.29428807 -0.12817612
-0.131975 -0.40491903 -0.26742882 -0.26913434 -0.24908933 -0.80544144 -0.34837174 -0.32177612
-0.18383011 -0.26338938 -0.5265292 -0.4742875 -0.3650772 -0.33971378 -0.25978315 -0.2697775
-0.25302106 -0.5238891 -0.6856977 -0.35047027 -0.7526811 -0.116017945 -0.41274282 -0.28529733
0.10041931 -0.11139955 0.021009987 -0.005603037 0.052143123 -0.008951596 0.03189138 -0.17150524
0.06601924 0.059014685 -0.089586854 -0.058494102 -0.117832966 -0.00081638026 -0.003060234 -0.052574567
-0.009845399 0.014228492 -0.12032568 0.0033271941 -0.0856325 -0.06665664 -0.037285168 0.057408076
0.036815684 0.12291669 -0.010128999 0.057473175 -0.053727843 -0.07763039 0.047664233 0.09757505
0.07169864 0.039414436 0.056735132 0.025440386 -0.041105554 -0.029525705 -0.012981143 0.023900822
-0.060984146 0.066214405 0.010771718 0.067836285 0.09850085 0.008643579 0.040060923 0.022180421
-0.033004794 -0.0016314647 -0.060833156 0.07564652 -0.04911531 0.0054638255 0.029165367 0.055583663
-0.07002857 -0.05840457 -0.0501722 0.07021119 -0.0011638382 0.027107123 0.011576254 -0.057070028
-0.17323735 -0.49736217 0.11285464 -0.44586584 -1.3469119 -0.71480745 -0.5077052 0.27353057
-0.6152999 -0.8001949 -0.5473888 -0.75742954 -0.19687262 -1.2950386 -0.5721963 -0.73145604
-0.3068762 -0.4793703 -0.2715847 -0.69956917 0.11823711 -0.408162 -0.49008563 -0.33092636
-0.78919816 -0.4376177 -0.7638333 -0.039037835 -0.68437904 -0.5375847 -0.5244316 -0.49148
-1.1143248 -0.27569383 -0.39684734 0.008168215 -0.43883088 -0.48731577 -0.92403626 -0.39099818
-0.2917331 -0.5086892 -0.15301056 -0.31781816 -0.39796305 -0.22154632 -0.27741948 -0.25797206
-0.4316176 -0.5848191 -0.50594735 -0.04799678 -0.42596206 -0.24406697 -0.5331115 -0.7498271
-0.6650476 0.12564762 0.021353316 -0.7170485 -0.81432724 -0.4361336 -0.38539517 -0.86175704

fc_out.weight f4 [2, 64]
00000000: 7c81 86be 5c04 f13c bb08 40be 0d90 fe3d
00000010: 2bfa c9bd 8dd4 7fbc 1f47 5e3c 69e3 523e
00000020: e097 d53b b84f 833d b8f1 8b3d a872 6d3d
00000030: 2091 163e 2ca9 063c 8591 c83d ddc5 9a3c
00000040: a7fe 193c 1bcc 903d 3813 80bb 2f05 103e
00000050: 0a99 1bbe b07a 55be 3c42 2338 afea 7cbe
00000060: 7782 c1bb ddee 78bd ae29 0a3e 867e adbe
00000070: 5035 7b3d 5352 55bd c46b bb3d ad22 f5bd
00000080: 2001 e9be f522 fe3d e943 863b 7b90 a2be
00000090: 0902 c43d 7943 323e 3ca2 f63d 75fc 823d
000000a0: c32f eabb 260d f6ba f3be 0dbe 4113 25be
000000b0: 531c c53d bf1d 493d 21a8 7b3e def0 1c3e
000000c0: bcf7 c0bd f235 5ebc 93ab debd 835b 64be
000000d0: 7601 cd3b 2791 cfbb bc1f acbd 5c0a 6b3d
000000e0: ed0c 4b3d 5dc3 2b3e 1ce8 4bbe d398 8cbd
000000f0: 5e35 2a3d 4edd 50bd 8220 3abd f017 a43d
00000100: f9e0 9c3e b157 bdbd 2fe5 203e 1f80 d0bd
00000110: 70bb 67bd 939b 95bd 361f 813d d7c2 a5bd
00000120: 5466 5e3d 7cb0 bcbd f97c 94bd e9d0 e5bd
00000130: 3c54 b0bd 4184 a13c 6c2e db3d 4462 d3bd
00000140: 755a b8bd 620b 26bd 5c38 383d 8b90 71bd
00000150: 772b 193e 142e a13e b2b1 6e3d 7c71 403e
00000160: e2f9 8fbd 8ba1 983d 34bb 00bd a961 b03e
00000170: d92f 0b3e 8779 ee3d fcea 02bd c88c 0ebd
00000180: 3daf 003f 7cef c43d 7aa5 973d d3f4 aa3e
00000190: 42ae dabc 5d76 923d 73fe 183d 8c27 d0bb
000001a0: 47e3 d03d afbc af3c 6f62 2a3e d6f0 4f3e
000001b0: 21eb 673d 888c 7c3d c272 abbd b842 ba3d
000001c0: 1cbc 143d 1078 4b3d 54e6 c5bd 4092 803e
000001d0: 7d01 69bd 2258 d83d 4cb4 1d3d fa14 1b3e
000001e0: d86a 27bc 2f29 5abe 383f 913d 5eb9 a53d
000001f0: f693 c03d 06aa 02bb 5e22 7abd 695e cdbc
-0.26270664 0.029421024 -0.1875333 0.12429819 -0.09862169 -0.015614641 0.013566761 0.20594563
0.006518349 0.064116895 0.068332136 0.057970673 0.14703798 0.008219045 0.09793381 0.018893177
0.009399093 0.0707018 -0.003908541 0.14064477 -0.15195099 -0.20847583 3.8923914e-05 -0.246989
-0.005905445 -0.060774673 0.13492462 -0.33885592 0.06133014 -0.052080464 0.09151414 -0.119695045
-0.4550867 0.12409011 0.004097451 -0.31750855 0.09570701 0.17408551 0.120426625 0.063958086
-0.007146807 -0.0018772229 -0.13842373 -0.16120626 0.09624543 0.049100634 0.24575855 0.15326259
-0.094222516 -0.013562666 -0.10872569 -0.22300534 0.0062562777 -0.006334442 -0.0840449 0.057382926
0.049572874 0.16773744 -0.19912761 -0.068650864 0.0415548 -0.050992303 -0.045441158 0.08012378
0.3064039 -0.092452414 0.15712427 -0.10180687 -0.05657524 -0.07305064 0.06304781 -0.080938034
0.054296806 -0.09213349 -0.07250399 -0.11221487 -0.086098164 0.019716384 0.10702214 -0.10321477
-0.09001628 -0.0405382 0.044975623 -0.058975738 0.14957987 0.31480467 0.058274932 0.18793291
-0.07030083 0.07452687 -0.03142853 0.3444951 0.13592471 0.11644273 -0.03196238 -0.03480223
0.5026739 0.096159905 0.07404609 0.3338991 -0.02669442 0.07151482 0.037352037 -0.0063523706
0.101996 0.021452276 0.16639112 0.20306715 0.05662072 0.06165746 -0.08371498 0.09094757
0.036312208 0.049675047 -0.09663072 0.2511158 -0.056886185 0.10563685 0.038502023 0.1514472
-0.010218345 -0.21304773 0.07092136 0.080919966 0.09403221 -0.0019937768 -0.06106793 -0.025069432

fc_out.bias f4 [2]
00000000: cb2a b33d 2efd 333d
0.087483965 0.043942623
