model_ckpts/cric_prediction_all_output.pth (torch_old, 71167 bytes, 6 tensors)

lstm_cell.weight_ih f4 [256, 2]
0	0xbe79bc3f	-0.24388216
1	0xbefae5d8	-0.49003482
2	0x3b3a5ac0	0.002843544
3	0xbe378ebf	-0.17925547
4	0xbebe09e8	-0.37116933
5	0xbf0cef61	-0.55052763
6	0x3e8c7523	0.27433118
7	0xbc18bac4	-0.009321872
8	0x3ee30255	0.44337717
9	0xbe625aac	-0.22104901
10	0xbddba379	-0.10724539
11	0x3e0a808a	0.13525596
12	0xbf11bfdc	-0.5693338
13	0x3e0ddca1	0.13853694
14	0x3e13a27a	0.14417449
15	0xbec9a32d	-0.39382306
16	0xbecb5d37	-0.39719555
17	0xbf2165a0	-0.6304569
18	0xba854ab4	-0.0010169358
19	0x3dc74933	0.097307585
20	0x3f2285b0	0.6348524
21	0xbda4b10a	-0.0804158
22	0x3e9fd58b	0.31217608
23	0xbd38d363	-0.04512347
24	0xbeba31f9	-0.3636625
25	0xbdbde0d6	-0.092714
26	0x3e202a78	0.156412
27	0xbd08cad3	-0.033396553
28	0xbd8c4b1a	-0.06850262
29	0xbe45590c	-0.1927225
30	0x3dd3d3ba	0.10343118
31	0xbe968634	-0.29399264
32	0xbec17067	-0.3778107
33	0xbe57b294	-0.21064216
34	0x3ebaa179	0.3645132
35	0xbe0b5bc7	-0.13609229
36	0xbe905c94	-0.28195632
37	0x3e67299e	0.2257447
38	0xbeeec09a	-0.46631318
39	0xbf4644f9	-0.77448994
40	0x3e2f4e8c	0.17119807
41	0x3f2fc748	0.68663454
42	0xbe054d20	-0.13017702
43	0xbec0cf06	-0.37657946
44	0x3d980a81	0.074238785
45	0x3f5d5501	0.8645783
46	0x3ddf8203	0.1091347
47	0x3ed5071e	0.41606992
48	0x3e1cb439	0.15303124
49	0xbe84309f	-0.25818345
50	0xbddafa16	-0.10692231
51	0xbee2c30d	-0.44289437
52	0xbe835619	-0.25651625
53	0xbca0fd6e	-0.019652095
54	0x3f0deed5	0.55442554
55	0x3edb5f2a	0.42846042
56	0x3efcebbf	0.4939861
57	0x3de4533f	0.111486904
58	0xbd34adbe	-0.044111006
59	0x3e727776	0.23678383
60	0x3ea6d7f3	0.3258663
61	0x3e2d2109	0.16907133
62	0x3e48edaf	0.19621919
63	0x3ed8bcf2	0.42331654
64	0xbe08f276	-0.13373742
65	0x3d975da8	0.073909104
66	0xbf747eab	-0.9550578
67	0xbeba90ee	-0.36438698
68	0xbf0e4a5c	-0.55582213
69	0x3de87021	0.11349512
70	0xbefbbf55	-0.49169412
71	0xbe668f56	-0.22515616
72	0x3e20964c	0.15682334
73	0x3e012647	0.12612258
74	0xbe747220	-0.2387166
75	0x3ea56175	0.32300916
76	0x3f069ac1	0.52579886
77	0x3f2f54d1	0.68488795
78	0xbe99446a	-0.29935008
79	0xbe5a6780	-0.21328545
80	0x3e95bd67	0.29246065
81	0xbe1bb5b4	-0.15206033
82	0x3d061e54	0.032743767
83	0x3e0dd18e	0.1384947
84	0xbd0821ee	-0.033235483
85	0x3de0cc97	0.109765224
86	0x3d84bf24	0.0648177
87	0x3da28c46	0.07936911
88	0x3dea9cdf	0.11455702
89	0x3d88c6ce	0.06678544
90	0x3e9149a8	0.28376508
91	0xbea1991e	-0.31562132
92	0xbddf69a0	-0.10908818
93	0xbf028e0d	-0.50998
94	0xbeca69ce	-0.39533848
95	0xbf23bcea	-0.63960135
96	0xbe9b23a0	-0.30300617
97	0xbf00732a	-0.50175726
98	0x3ee64b06	0.44979113
99	0xbe367809	-0.17819227
100	0xbeb2c6fe	-0.34917444
101	0xbe3704b4	-0.17872888
102	0xbe1c4c6a	-0.15263525
103	0x3e090686	0.13381395
104	0xbef83894	-0.48480666
105	0x3e8e3c52	0.27780396
106	0x3e050301	0.12989427
107	0x3e124c75	0.14286979
108	0x3ee84d74	0.45371592
109	0xbd446d54	-0.047955826
110	0xbe80cd9c	-0.25156868
111	0xbdb234cd	-0.08701477
112	0xbf53518f	-0.82546324
113	0xbf14330f	-0.5789041
114	0xbeffea4e	-0.49983448
115	0xbef1980f	-0.47186324
116	0xbf06f456	-0.5271658
117	0xbf1936e6	-0.59849393
118	0xbe902f10	-0.28160906
119	0xbf2a47a9	-0.66515595
120	0x3f2bfe04	0.6718447
121	0xbe3692fa	-0.17829505
122	0x3f0a3cdb	0.5399911
123	0xbf388d3c	-0.72090507
124	0x3ea96800	0.33087158
125	0x3d59cf8b	0.053176444
126	0x3f02b38f	0.51055235
127	0x3eacd987	0.3375971
128	0xbdb80f3a	-0.08987279
129	0xbf1b8c72	-0.6076118
130	0xbd79f177	-0.061021294
131	0xbe7a3009	-0.24432386
132	0xbecd8f4f	-0.40148398
133	0xbeff497d	-0.49860755
134	0x3f040902	0.51576245
135	0xbd798dcb	-0.06092624
136	0xbd94f9ee	-0.07274233
137	0x3e931202	0.28724676
138	0xbecd6b0c	-0.40120733
139	0x3e83814e	0.2568459
140	0xbf0695ae	-0.52572143
141	0xbf2ca3e7	-0.67437595
142	0x3ef1455e	0.47123235
143	0x3f069eba	0.5258595
144	0xbe301ab0	-0.1719768
145	0xbef6a66d	-0.48173848
146	0x3e51caa6	0.2048746
147	0xbe1db534	-0.15401155
148	0x3ee9d376	0.45669144
149	0x3bee52dd	0.0072730617
150	0xbdf92a92	-0.12166323
151	0xbefdee1f	-0.49595734
152	0xbe029912	-0.12753704
153	0xbdb0da1a	-0.086353496
154	0x3e2fff8b	0.17187326
155	0x3d7e5bc6	0.06209924
156	0x3e0f7c81	0.14012338
157	0xbee1d427	-0.44107172
158	0x3e21d1ad	0.15802641
159	0xbf0c7d68	-0.54878855
160	0xbe97e3ff	-0.29666135
161	0x3d0936fe	0.03349971
162	0x3f3c99b7	0.7367205
163	0x3da575db	0.0807912
164	0x3e5c6a21	0.2152486
165	0x3e5bffb8	0.21484268
166	0xbeb60d05	-0.35556808
167	0xbf1ddbaf	-0.61663336
168	0x3eea562f	0.45768878
169	0x3e9a6c33	0.30160674
170	0xbe705bf8	-0.23472583
171	0xbe94442e	-0.28958267
172	0x3f0b916e	0.54518783
173	0x3f03acd0	0.51435566
174	0xbed72f7f	-0.42028424
175	0xbf353a74	-0.7079232
176	0xbe0747aa	-0.13210931
177	0xbf1afee8	-0.60545206
178	0xbe3efb13	-0.18650465
179	0xbf17a657	-0.5923819
180	0xbf033fb3	-0.5126907
181	0xbf3ed580	-0.74544525
182	0x3f099ab4	0.53751683
183	0xbca7274a	-0.020404477
184	0xbea1e2f5	-0.31618467
185	0xbef5e3c9	-0.4802535
186	0x3d9d6244	0.07684758
187	0x3e1252ec	0.14289445
188	0x3f1dfa62	0.6171018
189	0xbd36f23c	-0.044664606
190	0xbe507948	-0.20358765
191	0xbedb2ef7	-0.4280927
192	0xbe6cfb3d	-0.23142715
193	0xbea20006	-0.31640643
194	0xbf45c4a7	-0.7725319
195	0xbee0fe49	-0.43944004
196	0xbf70e9e3	-0.9410688
197	0xbf70b261	-0.94022185
198	0xbf4fa7ee	-0.81115615
199	0xbf01bf17	-0.50682205
200	0x3e9693e9	0.29409721
201	0xbe3fddde	-0.1873698
202	0xbe5b0df1	-0.21392037
203	0x3da21b02	0.079153076
204	0x3c8187cf	0.015811829
205	0xbda17541	-0.078836925
206	0xbedf9e51	-0.43675473
207	0xbe8ef430	-0.27920675
208	0x3e98f0dc	0.2987126
209	0xbe40740a	-0.18794265
210	0x3e43a8e9	0.19107403
211	0xbe249a4f	-0.16074489
212	0xbf0c7b8d	-0.54876024
213	0xbf311c46	-0.69183767
214	0xbed3e1f8	-0.41383338
215	0xbf4d3fa1	-0.80175215
216	0x3e83e5a5	0.25761142
217	0xbf42c2f8	-0.7607875
218	0x3dab1561	0.08353687
219	0xbdab5b00	-0.08366966
220	0xbebff459	-0.3749111
221	0xbf30a745	-0.69005233
222	0xbeff3cac	-0.49850976
223	0xbf7df299	-0.991983
224	0xbe9b9bdd	-0.30392352
225	0xbeec7a5b	-0.461871
226	0x3d756285	0.05990841
227	0xbedb4579	-0.4282644
228	0xbeaff7a5	-0.34368625
229	0xbf16493d	-0.587055
230	0xbf404875	-0.7511056
231	0xbf660f7a	-0.89867365
232	0x3d9f2fa2	0.07772757
233	0x3d9f322f	0.07773244
234	0x3f074b22	0.5284902
235	0x3f7f2910	0.9967203
236	0x3ef7ec11	0.48422292
237	0xbc17a931	-0.009256647
238	0xbea50f0a	-0.32238036
239	0xbf789a7f	-0.9711074
240	0xbf3c0ecd	-0.73460084
241	0xbeee9182	-0.4659539
242	0xbf0afe3b	-0.54294175
243	0xbf1bad9b	-0.60811776
244	0xbeb72744	-0.35772145
245	0xbf4a95b5	-0.79134685
246	0xbd0a7fb7	-0.033813205
247	0xbf02ea63	-0.51138896
248	0x3f1f5b7d	0.62248975
249	0xbc9fe6b6	-0.019519191
250	0x3dc16887	0.09443765
251	0xbf1defa8	-0.6169381
252	0x3ea35ec6	0.31908244
253	0x3ec37533	0.38175353
254	0x3eaf6c65	0.34262386
255	0x3dd34dea	0.10317595

lstm_cell.weight_hh f4 [256, 64]
0	0x3e35003c	0.1767587
1	0x3e9ae169	0.302501
2	0xbf1615bb	-0.5862691
3	0xbde89def	-0.113582484
4	0xbd5fbd71	-0.054624025
5	0x3c3c5814	0.011495609
6	0xbf4cf7b9	-0.80065495
7	0x3f12f7e7	0.5740952
8	0xbf6a126e	-0.9143437
9	0xbefac5fe	-0.4897918
10	0x3dbc4b62	0.09194066
11	0xbe276346	-0.16346464
12	0xbe2e9103	-0.17047505
13	0x3e6d975d	0.23202272
14	0xbea65c47	-0.32492277
15	0xbef0cf2d	-0.47033063
16	0x3d66ac91	0.056316916
17	0x3ddfd7fa	0.10929866
18	0x3ec16cbd	0.37778273
19	0x3d729047	0.059219625
20	0x3eeb4ac2	0.45955473
21	0xbe5f8beb	-0.21830718
22	0xbda50b3d	-0.08058784
23	0xbe99a953	-0.30011997
24	0x3f1031e6	0.5632614
25	0xbeefe031	-0.46850732
26	0xbe8dbf7f	-0.27685162
27	0xbf057cb2	-0.52143395
28	0xbe88edf1	-0.26744035
29	0xbee70704	-0.4512254
30	0x3f7b1fe5	0.9809554
31	0xbee128db	-0.43976483
32	0x3d55f447	0.052234914
33	0xbe937c43	-0.28805742
34	0x3e8e0080	0.27734756
35	0xbecb8a38	-0.3975389
36	0x3e55517c	0.20831865
37	0x3f12a1d5	0.57278186
38	0xbb4dad08	-0.0031383652
39	0xbe278639	-0.16359796
40	0xbe75361c	-0.23946422
41	0xbef9996c	-0.48749864
42	0x3d3a5db3	0.045499515
43	0xbefcbcb2	-0.49362713
44	0x3f0e8ca8	0.55683374
45	0x3ec90cbe	0.39267534
46	0xbec4d6fb	-0.38445267
47	0xbdde8194	-0.10864559
48	0xbf6afde0	-0.9179363
49	0xbeda57bd	-0.42645064
50	0x3e9f5a9c	0.31123817
51	0x3ecb642b	0.3972486
52	0x3e913c87	0.2836649
53	0xbf22d052	-0.6359912
54	0xbe765c90	-0.24058747
55	0x3f161cf1	0.5863791
56	0xbe8b9a36	-0.2726609
57	0xbf21d219	-0.6321121
58	0xbec3f9ec	-0.38276613
59	0x3e0f9cc6	0.14024648
60	0x3e84088e	0.25787777
61	0xbe4873b3	-0.19575386
62	0xbf0ee6dd	-0.5582102
63	0xbb5523c9	-0.003252255
64	0x3e3b7dbb	0.18309681
65	0xbe5ffeda	-0.21874562
66	0xbf10c8da	-0.56556475
67	0x3e49c22d	0.19702978
68	0x3ea9df81	0.33178332
69	0xbe9bd7aa	-0.30437976
70	0xbf7a60c8	-0.97803926
71	0xbeccb1d4	-0.39979422
72	0xbecda3b7	-0.40163967
73	0xbe5627c1	-0.20913602
74	0xbe169662	-0.14705804
75	0x3ef86e29	0.48521546
76	0x3e0ddd4a	0.13853946
77	0xbe1de082	-0.15417674
78	0x3df000d6	0.117189094
79	0xbe5c8262	-0.21534112
80	0xbbf04075	-0.0073319026
81	0xbdb8e8a2	-0.09028746
82	0xbd0ecce8	-0.034863383
83	0xbdd236ba	-0.102643445
84	0x3e4de3af	0.20106386
85	0x3e0284b3	0.12745933
86	0xbdb7f02e	-0.089813575
87	0x3e9511fd	0.29115286
88	0x3ee643ad	0.44973508
89	0xbf0d3441	-0.5515786
90	0xbf1b0f91	-0.6057063
91	0x3eb0515e	0.34437078
92	0x3e93e79e	0.28887647
93	0xbdf42c57	-0.1192252
94	0x3e15db9c	0.14634556
95	0xbf1f9f5f	-0.62352556
96	0xbd4198a1	-0.0472647
97	0xbeada5b4	-0.33915484
98	0xbefab0c5	-0.4896299
99	0xbf2f4bd4	-0.6847508
100	0xbe36c4d3	-0.1784852
101	0x3f06ed5c	0.5270593
102	0x3eb697e0	0.35662746
103	0xbeee4f67	-0.46544954
104	0x3e1ec947	0.15506469
105	0x3ddb56ba	0.10709901
106	0xbf07e355	-0.53081256
107	0xbee4019c	-0.44532478
108	0x3ed525af	0.41630313
109	0x3e6afdfd	0.22948451
110	0xbee543a1	-0.4477816
111	0x3e07cb55	0.13261159
112	0xbf2ecfe2	-0.68285954
113	0xbdaf3f77	-0.08557027
114	0x3dd47cc2	0.10375358
115	0xbf030233	-0.5117523
116	0x3d7c4d83	0.06159736
117	0xbe85f95c	-0.2616681
118	0xbd60e338	-0.054904193
119	0x3e80b1e6	0.25135726
120	0xbe988896	-0.29791707
121	0xbf07ea69	-0.53092057
122	0xbeb21a33	-0.34785613
123	0x3f022e23	0.5085165
124	0xbe0699f7	-0.1314467
125	0xbe4492db	-0.19196646
126	0xbeec21c2	-0.46119505
127	0x3e3f2b13	0.18668775
128	0x3e8aba40	0.27095222
129	0xbd392043	-0.045196783
130	0x3e767082	0.24066356
131	0xbcd6ab9c	-0.026204877
132	0xbeac0fb4	-0.3360573
133	0xbeaf4063	-0.3422881
134	0x3e52e5ca	0.2059547
135	0x3d88c106	0.06677441
136	0x3e9dfdf2	0.30857807
137	0xbd4cfda3	-0.050046574
138	0x3e2d821f	0.16944169
139	0xbe01cb8c	-0.12675303
140	0xbea5bded	-0.32371464
141	0x3ebf0635	0.37309423
142	0xbe595a5c	-0.21225876
143	0x3de4224c	0.11139354
144	0xbdd9d595	-0.10636441
145	0x3e981b62	0.2970839
146	0x3e3fc3bb	0.18727009
147	0xbf0b7de4	-0.5448897
148	0x3da9cf3d	0.08291481
149	0x3da2eb20	0.07955003
150	0x3e288c92	0.16459873
151	0xbda8517b	-0.08218666
152	0xbd67fb37	-0.05663606
153	0x3ef4fe06	0.47850055
154	0x3e46c01d	0.19409223
155	0xbebc74b5	-0.3680779
156	0x3d98b8d8	0.07457131
157	0xbe54f9bb	-0.2079839
158	0xbe07e93f	-0.1327257
159	0x3cff6699	0.031176852
160	0xbd8f5150	-0.06997931
161	0xbe23b1cc	-0.15985793
162	0xbcb95e18	-0.022627875
163	0x3d520554	0.051274613
164	0xbf4610f1	-0.773696
165	0x3eb1b07a	0.34704953
166	0x3d63e2c7	0.055636194
167	0x3da9d3ce	0.08292352
168	0xbe64e762	-0.2235389
169	0x3e170d60	0.14751196
170	0xbe5b0861	-0.21389915
171	0x3e0e443b	0.13893215
172	0xbea73e65	-0.3266479
173	0xbeb7e5e9	-0.35917595
174	0x3e501b21	0.20322849
175	0x3d847690	0.064679265
176	0x3ee4ce22	0.44688517
177	0xbda128b9	-0.07869095
178	0xbe758d16	-0.23979601
179	0xbe08268c	-0.13295954
180	0xbe6581c5	-0.22412784
181	0xbd00e16b	-0.031464975
182	0x3da8fa86	0.082509086
183	0x3e7f397a	0.2492427
184	0x3e9dfe63	0.30858144
185	0x3ebc0f7c	0.36730564
186	0x3ed0f299	0.40810087
187	0xbe8551c2	-0.2603894
188	0x3f13fc4b	0.57806844
189	0x3e6033ba	0.21894732
190	0xbe3d33d4	-0.18476802
191	0x3c895109	0.016762273
192	0x3d1639cc	0.036676213
193	0xbe20a662	-0.1568847
194	0xbea74ffa	-0.32678205
195	0x3e0b3675	0.13594992
196	0x3e9b5f34	0.30346072
197	0xbce60dd5	-0.028082768
198	0xbf651567	-0.8948578
199	0xbefa5d5b	-0.4889935
200	0xbf12c78b	-0.5733573
201	0x3d078c87	0.033093
202	0xbf544d40	-0.82930374
203	0xbe5e6d46	-0.21721372
204	0x3eab5cc6	0.33469218
205	0xbe775cb9	-0.24156465
206	0x3e36c101	0.17847063
207	0xbef9abb8	-0.48763824
208	0xbd3bc596	-0.04584273
209	0x3f2b44cf	0.6690187
210	0x3d4eca96	0.05048617
211	0x3d93c498	0.07215232
212	0xbe7b98d7	-0.24570023
213	0x3e85c20a	0.26124603
214	0xbea4bdfd	-0.321762
215	0x3f114260	0.56741905
216	0x3f455151	0.77077204
217	0xbec21516	-0.37906712
218	0xbed26414	-0.4109198
219	0xbc5894f4	-0.013219107
220	0x3dec8d70	0.115504146
221	0x3ec04295	0.37550798
222	0x3e325023	0.17413382
223	0x3dd69df4	0.10479346
224	0x3e647698	0.22310865
225	0xbc598845	-0.013277118
226	0xbd5053cf	-0.050861176
227	0xbddff032	-0.109344855
228	0xbe3b20fc	-0.18274301
229	0xbe9eef57	-0.31041977
230	0xbe986368	-0.2976334
231	0xbf00b6b0	-0.5027876
232	0x3d8bf1af	0.06833207
233	0xbe929bae	-0.286344
234	0x3e8de0a3	0.27710447
235	0xbe51391e	-0.20431945
236	0xbbb08717	-0.0053871977
237	0x3e65a760	0.2242713
238	0xbe9f6f2c	-0.31139505
239	0x3ecf60d0	0.4050355
240	0xbebc8f30	-0.36827993
241	0xbec5e278	-0.38649344
242	0x3eababab	0.3352941
243	0x3dd4fc7d	0.10399721
244	0x3e50c8e4	0.20389134
245	0xbdcd6190	-0.10028374
246	0xbe401052	-0.18756226
247	0xbf117260	-0.5681515
248	0xbe3e8ad5	-0.18607648
249	0xbee0c107	-0.43897268
250	0xbe33a0da	-0.17541829
251	0xbece1dff	-0.4025726
252	0xbd3ed6e0	-0.04659164
253	0x3e0df933	0.13864593
254	0x3d80d70f	0.06291019
255	0x3e1dbc23	0.154038

lstm_cell.bias_ih f4 [256]
0	0xbe02cefa	-0.12774268
1	0xbbe931a8	-0.007116515
2	0xbd28c2ca	-0.04120139
3	0x3e1b4cdd	0.1516604
4	0xbe98875b	-0.29790768
5	0xbd978ef0	-0.0740031
6	0xbeca49d6	-0.39509457
7	0xbccf932a	-0.025338728
8	0x3d86e1b4	0.06586018
9	0xbd8f9cd6	-0.07012336
10	0xbe578be3	-0.21049456
11	0xbe19e12f	-0.15027307
12	0xbda0ec42	-0.078575626
13	0x3e91bf64	0.28466332
14	0x3e35dea2	0.17760709
15	0xbec04e16	-0.37559575
16	0xbdeedd21	-0.11663271
17	0xbf0d8cfb	-0.55293244
18	0x3e5b8e22	0.21440938
19	0xbeceaa69	-0.40364388
20	0x3efae2fa	0.49001294
21	0x3d144fd2	0.036208935
22	0x3f181bc7	0.59417385
23	0xbdb99709	-0.09062011
24	0xbec6e0de	-0.38843435
25	0xbe8f4561	-0.2798262
26	0x3eb95914	0.36200774
27	0x3da72d41	0.081629284
28	0x3cad3580	0.021143675
29	0xbe78e981	-0.24307825
30	0xbea6b779	-0.32561854
31	0xbeaae31d	-0.333764
32	0xbd004abf	-0.031321283
33	0xbebcb917	-0.36859962
34	0x3eaa3e6e	0.33250755
35	0xbeba6c41	-0.36410716
36	0xbdf9a004	-0.12188724
37	0xbec0492c	-0.37555826
38	0xbea741e1	-0.3266745
39	0xbd3345d0	-0.04376775
40	0xbdd921b5	-0.10602132
41	0x3a5a9c66	0.0008339345
42	0xbf07ebc2	-0.5309411
43	0xbda89cdc	-0.082330436
44	0xbed37beb	-0.4130548
45	0xbe91720f	-0.28407332
46	0x3e1cbd7f	0.15306662
47	0xbee5267f	-0.44755933
48	0x3b87bd9c	0.0041424762
49	0xbebea5e0	-0.37235928
50	0xbef9e58e	-0.4880795
51	0xbf19a251	-0.600133
52	0x3e684dac	0.2268588
53	0xbf3b77e1	-0.73229796
54	0xbe8c14a9	-0.27359512
55	0xbd398433	-0.04529209
56	0xbe052b9d	-0.13004918
57	0x3b1cd551	0.0023930857
58	0xbdc77fa7	-0.097411446
59	0xbd890edd	-0.06692288
60	0xbdb5b8f9	-0.08873171
61	0x3e18e689	0.14931692
62	0xbebcc3b8	-0.36868072
63	0xbc9c2063	-0.019058412
64	0xbed96f63	-0.42467794
65	0xbe73f13e	-0.23822495
66	0xbd992e01	-0.07479478
67	0x3e368445	0.17823894
68	0x3d2754b2	0.040852256
69	0x3e852fdc	0.26013076
70	0x3f3dc7a0	0.7413273
71	0x3f0550b0	0.52076244
72	0xbe3d7637	-0.18502127
73	0x3e37f4a9	0.17964424
74	0xbd554f77	-0.052077737
75	0x3d8e9356	0.06961696
76	0xbddde292	-0.108342305
77	0x3ed5df19	0.41771773
78	0x3e6699de	0.22519633
79	0xbe2fe4a9	-0.1717707
80	0x3e44b191	0.19208361
81	0x3dd879ec	0.1057013
82	0x3ef79ad3	0.4836031
83	0xbe2e796d	-0.17038508
84	0x3f3fda2e	0.7494229
85	0x3e700f8b	0.23443429
86	0x3f4458d1	0.76698023
87	0xbe8d4fa7	-0.27599832
88	0xbe33a634	-0.1754387
89	0xbda175d6	-0.078838035
90	0x3e954ee7	0.2916176
91	0xbe20cc29	-0.15702881
92	0xbc0f9017	-0.008762381
93	0xbe8ddcf6	-0.27707642
94	0x3e6b0ee8	0.22954905
95	0xbe4d61b6	-0.20056805
96	0x3e0912c7	0.13386069
97	0xbf147118	-0.5798507
98	0x3e845efe	0.25853723
99	0xbed43484	-0.41446316
100	0x3ed317c9	0.41229084
101	0xbd172175	-0.03689714
102	0x3e896e82	0.26842123
103	0xbdbac2ad	-0.09119163
104	0x3e5de68b	0.21669976
105	0x3d6ff479	0.058582757
106	0x3d853de8	0.06505948
107	0xbe25132e	-0.16120598
108	0x3d9fda24	0.07805279
109	0x3e8bcc8e	0.273045
110	0xbeb7102d	-0.3575453
111	0xbe5d729e	-0.21625754
112	0x3cb0e51d	0.021593625
113	0x3f064bdb	0.52459496
114	0xbec0c48b	-0.3764995
115	0xbedc1ec9	-0.42992237
116	0x3eca8021	0.3955088
117	0x3e86ff0b	0.26366457
118	0xbe914695	-0.28374162
119	0xbe164977	-0.14676462
120	0xbe75bc07	-0.23997508
121	0xbda184fd	-0.078866936
122	0x3dcfe705	0.10151485
123	0xbe109f52	-0.14123276
124	0x3e763b1b	0.24045984
125	0xbe7f0bc1	-0.24906828
126	0x3eebc83a	0.46051198
127	0xbcef25fe	-0.02919292
128	0x3e3fa47a	0.18715087
129	0x3b3e5abf	0.0029045788
130	0xbd905b89	-0.07048709
131	0xbbc3311f	-0.0059567834
132	0xbc17fb14	-0.00927617
133	0x3bb43909	0.005499963
134	0xbe3d3109	-0.18475737
135	0xbd856362	-0.065130964
136	0xbe54cc96	-0.20781168
137	0x3d847f17	0.06469553
138	0xbe2e8964	-0.17044598
139	0x3ccaeab3	0.024770116
140	0x3da1ab12	0.07893957
141	0xbd131a67	-0.03591385
142	0xbe1d00c2	-0.1533232
143	0xbe5c0a31	-0.21488263
144	0xbbaee2a0	-0.0053370744
145	0x3e541146	0.20709714
146	0x3d654be7	0.05598059
147	0xbe870d4c	-0.26377332
148	0x3b901a1b	0.0043976433
149	0xbe43f881	-0.19137765
150	0x3cf70396	0.030153077
151	0xbe12faba	-0.14353457
152	0x3dd58006	0.10424809
153	0x3cdaf532	0.026728246
154	0x3e19adbb	0.15007679
155	0x3d945065	0.072418965
156	0xbd437c24	-0.04772581
157	0x39fc2f79	0.00048100555
158	0xbd7beaaf	-0.06150311
159	0xbe258271	-0.1616304
160	0x3e66ab3b	0.22526257
161	0x3dd8a42e	0.1057819
162	0x3d0d162c	0.034444973
163	0xbd4877b4	-0.048942283
164	0x3e24daea	0.16099134
165	0x3dedb93b	0.116075955
166	0x3e0abfe9	0.1354977
167	0xbd4bcffe	-0.049758904
168	0xbd99968b	-0.07499417
169	0xbde6a85a	-0.11262579
170	0x3da037e1	0.07823158
171	0x3e6a007a	0.22851744
172	0xbe83d6e5	-0.2574989
173	0xbd6a0dbf	-0.057142016
174	0x3cc7c186	0.024384271
175	0xbda29a1c	-0.0793955
176	0xbe2efb66	-0.17088088
177	0x3dd9c6a6	0.10633592
178	0x3d0ca47f	0.034336563
179	0xbd6c73bd	-0.057727564
180	0xbd4891ab	-0.048967045
181	0xbafff364	-0.0019527492
182	0x3ce6b9b8	0.02816473
183	0x3e808c9c	0.25107276
184	0xbc277dc4	-0.010222856
185	0xbe52a3e6	-0.20570335
186	0xbd964a94	-0.073384434
187	0xbcfb0a49	-0.030644553
188	0xbe80052a	-0.2500394
189	0xbd36356a	-0.044484533
190	0xbd159e99	-0.036528204
191	0x3df2e700	0.11860466
192	0xbdec066e	-0.11524664
193	0xbec3d053	-0.38244876
194	0xbde2b9ba	-0.11070581
195	0xbe7681db	-0.24072973
196	0x3ee5d761	0.44890884
197	0x3e78bb39	0.2429017
198	0x3f18159c	0.59407973
199	0xbcfe0d12	-0.031012092
200	0x3e80d40b	0.25161776
201	0xbce72da7	-0.02822001
202	0xbdc50fe4	-0.096221715
203	0xbc6ddb63	-0.014517638
204	0xbef40dc4	-0.47666752
205	0xbead9d68	-0.33909154
206	0x3c1fab5d	0.009745446
207	0xbf019525	-0.506182
208	0x3e1a55e6	0.1507183
209	0xbf0c7937	-0.5487246
210	0x3d94d1c9	0.07266576
211	0xbeb24366	-0.34817046
212	0x3ea10fcd	0.31457368
213	0x3db05f71	0.08611954
214	0x3f704fe2	0.9387189
215	0x3ddd0c3b	0.107933484
216	0xbeb6caf6	-0.35701722
217	0xbe3378a0	-0.17526484
218	0xbd0b503d	-0.034012068
219	0xbe0fd6b2	-0.14046744
220	0x3df6f0c8	0.12057644
221	0xbe09c7dd	-0.13455148
222	0xbe924de4	-0.2857505
223	0xbe0874e1	-0.13325836
224	0xbd26b002	-0.040695198
225	0xbeb4190f	-0.35175368
226	0x3dd7c3b6	0.10535376
227	0xbef9438b	-0.48684344
228	0xbe320646	-0.17385206
229	0x3e955793	0.29168376
230	0x3dd8cf15	0.10586373
231	0xbe3dea48	-0.18546402
232	0x3dbd5fb0	0.092467666
233	0x3ca46f3e	0.020072576
234	0x3e9fb2e7	0.3119118
235	0xbea8e4ce	-0.32987064
236	0x3e586808	0.21133435
237	0xbf1b9f0a	-0.6078955
238	0xbda08e8d	-0.078396894
239	0xbf11ef83	-0.5700609
240	0x3dec0569	0.115244694
241	0xbe1b49c5	-0.1516486
242	0xbeaea72e	-0.34111923
243	0x3eaaa9a1	0.33332542
244	0xbeace161	-0.337657
245	0xbcfbeab2	-0.03075156
246	0xbe18fa1b	-0.14939158
247	0xbdbb0256	-0.09131305
248	0xbe29cee5	-0.1658283
249	0x3dc6be0d	0.09704218
250	0xbd217bc1	-0.03942466
251	0xbe76bf39	-0.24096383
252	0xbe2677b1	-0.16256596
253	0xbe7acbae	-0.2449176
254	0x3dad45fa	0.084606126
255	0x3eadf8cd	0.33978882

lstm_cell.bias_hh f4 [256]
0	0xbe88ddfe	-0.26731867
1	0xbc62373e	-0.013807116
2	0xbe32e1f0	-0.17469001
3	0x3d53f66f	0.05174869
4	0xbed6004f	-0.4179711
5	0x3d05d6a2	0.032675393
6	0xbebe6b2c	-0.3719114
7	0x3e1fa26d	0.15589304
8	0xbdb3d49a	-0.08780785
9	0xbe89ff2a	-0.26952487
10	0xbd0e65e3	-0.034765135
11	0xbe321bfb	-0.17393486
12	0x3d47a27c	0.04873894
13	0x3e3742cf	0.17896579
14	0x3e110ad8	0.14164293
15	0xbedb1dae	-0.4279608
16	0x3c7f28c3	0.015573683
17	0xbf0bfbdd	-0.5468119
18	0x3eafbb90	0.34322786
19	0xbe704d34	-0.2346695
20	0x3f0a7fbd	0.54101163
21	0x3e490594	0.19631034
22	0x3eedf1e6	0.46473616
23	0xbe596e99	-0.21233596
24	0xbec563e4	-0.38552773
25	0xbddafeb2	-0.106931105
26	0x3ee1d906	0.44110888
27	0x3c653d3c	0.01399165
28	0x3d1d9689	0.03847364
29	0xbea4e692	-0.3220716
30	0xbea048f1	-0.3130565
31	0xbe6e9dac	-0.23302335
32	0x3d84a77e	0.06477259
33	0xbed24d0f	-0.41074416
34	0x3e92f036	0.2869889
35	0xbe8f211f	-0.27954957
36	0xbe01da7b	-0.12681
37	0xbea988b8	-0.3311212
38	0xbeae0757	-0.33989975
39	0x3d1ddb8c	0.038539454
40	0xbdfb6d49	-0.12276704
41	0x3da7b2a9	0.081883736
42	0xbf1d26d6	-0.61387384
43	0xbd9d10a6	-0.07669191
44	0xbebc041b	-0.36721882
45	0xbe95b0a8	-0.2923634
46	0x3dd8bab1	0.105824836
47	0xbf0eeba0	-0.55828285
48	0x3d69f5cd	0.05711918
49	0xbef72bb6	-0.48275536
50	0xbec27efb	-0.37987503
51	0xbf024800	-0.50891113
52	0x3e6aefcc	0.22943038
53	0xbf14c2ef	-0.58109945
54	0xbe49c4b4	-0.19703943
55	0xbe5ecc93	-0.21757726
56	0xbe821d0e	-0.25412792
57	0x3d9c9c11	0.07646955
58	0xbe69564b	-0.22786824
59	0xbdf0146d	-0.11722646
60	0xbe537d75	-0.20653327
61	0x3d9a4457	0.07532566
62	0xbe8da97c	-0.2766837
63	0x3d4be5cf	0.04977971
64	0xbe874d89	-0.26426342
65	0xbe9316f9	-0.28728464
66	0x3def70c2	0.11691429
67	0x3e6bf45d	0.23042436
68	0xbdd8a737	-0.10578769
69	0x3e4c6bc5	0.19962986
70	0x3f48f428	0.7849755
71	0x3f024f3a	0.5090214
72	0xbe0f0d15	-0.13969834
73	0x3e58a707	0.21157466
74	0xbe5cb6a0	-0.21554041
75	0x3c63a59e	0.013894467
76	0xbdad498c	-0.084612936
77	0x3ec871c5	0.391493
78	0x3ea4e46e	0.32205528
79	0xbe534d07	-0.20634852
80	0x3e109437	0.1411904
81	0x3d8499dd	0.064746596
82	0x3f332287	0.6997456
83	0xbe8b75f3	-0.27238426
84	0x3f08ac24	0.53387666
85	0x3ea96121	0.33081916
86	0x3f74d661	0.95639616
87	0xbeaa611f	-0.33277223
88	0xbe329fca	-0.17443767
89	0xbda95783	-0.08268645
90	0x3ded5018	0.11587542
91	0xbdc23714	-0.094831616
92	0x3d599cbc	0.05312799
93	0xbdb367c4	-0.08760026
94	0x3e2be0cc	0.16784972
95	0xbc52843a	-0.012848908
96	0x3e53bab2	0.20676687
97	0xbef13f1d	-0.47118464
98	0x3e84e5c0	0.25956535
99	0xbee25ada	-0.4420994
100	0x3ead35e3	0.33830175
101	0xbd9d0c7b	-0.07668396
102	0x3dcc8c08	0.09987646
103	0xbdac68c9	-0.08418424
104	0x3e26d81d	0.16293378
105	0xbd4697fb	-0.048484784
106	0xbdae9fea	-0.08526595
107	0xbe8c35d8	-0.2738483
108	0x3dda9a1c	0.10673925
109	0x3eaf439a	0.34231263
110	0xbead8eaf	-0.3389792
111	0xbe878156	-0.26465863
112	0xbddb6b6f	-0.10713851
113	0x3f149c89	0.58051354
114	0xbee246e1	-0.441947
115	0xbeed20ad	-0.46313992
116	0x3eafb24f	0.34315726
117	0x3e79c663	0.24392085
118	0xbedbd791	-0.42937902
119	0xbe3a5929	-0.18198074
120	0xbe81ef1a	-0.25377733
121	0x3d86ea63	0.065876745
122	0x3e00f579	0.1259364
123	0xbde2b3b4	-0.11069432
124	0x3ec7767f	0.38957593
125	0xbec333ac	-0.3812536
126	0x3e8a4e56	0.2701289
127	0x3d90baab	0.07066854
128	0x3eabd015	0.33557191
129	0xbc262941	-0.010141672
130	0xbde398a7	-0.111131005
131	0x3d8de81f	0.06929039
132	0x3d0a5a6f	0.03377765
133	0xbd71d3a1	-0.059039716
134	0xbe9bfbb9	-0.30465487
135	0xbdcb946a	-0.09940417
136	0xbde01284	-0.109410316
137	0x3d7974d7	0.060902443
138	0xbe05ed86	-0.13078889
139	0x3ce89e6b	0.028395852
140	0x3e1ed962	0.15512612
141	0xbd96091b	-0.073259555
142	0xbd7a7d12	-0.061154433
143	0xbe786e95	-0.24260934
144	0xbdba78d8	-0.0910508
145	0x3e2e6d06	0.17033777
146	0xbd8b2771	-0.06794632
147	0xbe28c0d4	-0.16479808
148	0xbd079dbd	-0.033109415
149	0xbd65bb69	-0.05608693
150	0x3d479a46	0.04873111
151	0xbdeab017	-0.11459368
152	0x3e860857	0.26178238
153	0xbc9149f4	-0.017735459
154	0x3ddec972	0.108782664
155	0xbe328a81	-0.17435648
156	0x3df500df	0.11963057
157	0xbd87f173	-0.0663785
158	0xbddcef7f	-0.10787868
159	0xbdbaa54a	-0.09113558
160	0x3e04d843	0.12973122
161	0x3d09047e	0.03345155
162	0xbd9c72f8	-0.07639116
163	0x3dc08441	0.094002254
164	0x3e0b3201	0.13593294
165	0x3e648276	0.22315392
166	0x3e702588	0.23451817
167	0xbd81d846	-0.06340079
168	0x3c28ac68	0.010295011
169	0x3dd08d98	0.10183257
170	0xbd7276c8	-0.05919531
171	0x3db20883	0.0869303
172	0xbe24a3ea	-0.16078153
173	0xbe0c2853	-0.13687257
174	0xbde567f4	-0.11201468
175	0x3dd9a5fb	0.106273614
176	0xbd8f33a3	-0.06992271
177	0x3e40c72a	0.18825975
178	0x3c9d0a3b	0.019169917
179	0xbe254e0a	-0.16143051
180	0x3b2982d0	0.0025865324
181	0xbe04f9a3	-0.12985854
182	0x3d875c0b	0.06609353
183	0x3e14548b	0.14485376
184	0x3cbd0d15	0.023077527
185	0xbe66f7e0	-0.22555494
186	0xbd13a292	-0.03604371
187	0x3e2b7725	0.16744669
188	0xbe56049f	-0.209002
189	0x3c93b9e8	0.018032983
190	0xbd90f9d0	-0.07078898
191	0x3e0f3c84	0.13987929
192	0xbdc88e66	-0.09792785
193	0xbefbccbf	-0.49179646
194	0xbda001ba	-0.07812829
195	0xbebdad0f	-0.37046096
196	0x3ed45f0b	0.41478762
197	0x3e995c7a	0.29953367
198	0x3f36184a	0.7113081
199	0xbd76d4c5	-0.060261507
200	0x3e059527	0.13045178
201	0xbe2f8be2	-0.17143205
202	0x3d38996f	0.0450682
203	0x3c6f0a45	0.014589851
204	0xbe96ccdc	-0.2945317
205	0xbed2cc14	-0.41171324
206	0x3e2ee8dc	0.17081016
207	0xbeba1fce	-0.3635239
208	0x3d4d5e90	0.05013901
209	0xbecd1d8e	-0.4006161
210	0x3e1e84d6	0.1548036
211	0xbe1c1418	-0.1524204
212	0x3e85291b	0.26007923
213	0x3d69448a	0.05695013
214	0x3f5ea938	0.8697696
215	0x3de4404f	0.111450784
216	0xbf02f7a1	-0.511591
217	0xbe4a4752	-0.19753769
218	0x3da45222	0.08023478
219	0xbe393bfa	-0.18089285
220	0x3e492404	0.19642645
221	0xbe1d7247	-0.15375625
222	0xbe942a2a	-0.2893842
223	0xbe75eb8f	-0.2401564
224	0xbdb146d7	-0.0865609
225	0xbed3aa15	-0.413407
226	0x3d9189af	0.07106339
227	0xbebf36a9	-0.3734639
228	0xbd7be205	-0.061494846
229	0x3e8a43f7	0.27004978
230	0x3e205c3c	0.15660185
231	0xbe9dda7d	-0.30830756
232	0xbdb01fa2	-0.085997835
233	0x3bd92366	0.0066265343
234	0x3e8bb5cd	0.2728714
235	0xbe539868	-0.20663607
236	0x3d948077	0.07251065
237	0xbf1a56ac	-0.602885
238	0xbdd0e2fb	-0.10199543
239	0xbf0bc8ad	-0.5460308
240	0xbde5d909	-0.11223037
241	0x3cb87fc2	0.022521857
242	0xbe8bac76	-0.27280015
243	0x3e90d4b9	0.28287295
244	0xbe1c31a5	-0.15253313
245	0xbcab4ff2	-0.020912144
246	0x3ba43527	0.005011219
247	0xbe723529	-0.23653091
248	0xbdddad99	-0.10824127
249	0xbe1228c4	-0.14273363
250	0xbe04a6d1	-0.1295426
251	0xbe175382	-0.1477795
252	0xbec50e9e	-0.38487715
253	0xbdd128b8	-0.102128446
254	0xbd77dabd	-0.06051134
255	0x3ea65aab	0.3249105

fc_out.weight f4 [2, 64]
0	0xbc551622	-0.013005765
1	0xbbbc8159	-0.005752724
2	0xbc5783fb	-0.013154025
3	0x3d219d55	0.039456684
4	0xbeedc9c4	-0.46442997
5	0xbd86ca15	-0.06581513
6	0x3ddb0592	0.10694422
7	0x3e1129dc	0.14176124
8	0xbdfce521	-0.1234839
9	0x3ddb3ccf	0.10704958
10	0x3d8877cc	0.066634744
11	0x3cd840e4	0.02639813
12	0xbdd2d29b	-0.10294076
13	0x3da74ad2	0.08168568
14	0x3cd61b23	0.026135987
15	0xbd3ddfdf	-0.04635608
16	0xbd51149f	-0.051045056
17	0x3def572d	0.11686549
18	0x3dc9e53d	0.09858177
19	0xbee54344	-0.44777882
20	0x3d26027d	0.040529717
21	0xbc5ba6f9	-0.013406509
22	0x3df0a0e7	0.1174944
23	0xbdf53c80	-0.1197443
24	0xbd3e5b07	-0.04647353
25	0x3bbe9613	0.00581623
26	0x3e1db916	0.15402636
27	0x3dbc6f5d	0.09200928
28	0xbe03f52e	-0.12886497
29	0xbd721d8b	-0.059110206
30	0xbd80766a	-0.06272586
31	0x3d6c9309	0.05775741
32	0x3d8e14cd	0.06937561
33	0x3d265181	0.040605072
34	0xbdaec101	-0.08532906
35	0x3c9ea02b	0.019363483
36	0xbefb28fe	-0.49054712
37	0xbbe91ec6	-0.007114264
38	0x3edbfdb3	0.42966995
39	0xbbb7534b	-0.005594646
40	0xbd0d50df	-0.034500953
41	0x3d9ae75c	0.075636595
42	0x3d8233de	0.06357549
43	0xbcf69edf	-0.030105053
44	0x3e426b67	0.18986283
45	0xbcabdb70	-0.02097866
46	0xbd024e18	-0.031812757
47	0x3d90290f	0.07039081
48	0xbd1c2c78	-0.038128346
49	0x3e7c756a	0.24654165
50	0x3f24792c	0.64247394
51	0x3d2916d2	0.04128153
52	0x3c897b5e	0.016782459
53	0x3d98de59	0.074642844
54	0x3c3b49a1	0.011431129
55	0x3d29a188	0.041413814
56	0xbcf497a6	-0.029857468
57	0xbdac7682	-0.08421041
58	0xbc4b72ac	-0.012417477
59	0x3ea4608d	0.32104912
60	0xbd221a2d	-0.039575744
61	0xbe13d637	-0.14437185
62	0x3daef030	0.08541906
63	0x3cbe15cd	0.023203755
64	0xbc227da1	-0.009917648
65	0x3c490e51	0.01227148
66	0x3d36f0bf	0.044663187
67	0xbd9fbd61	-0.07799793
68	0x3ea70d10	0.32627153
69	0x3dd80f07	0.10549741
70	0x3ca8ff8c	0.020629667
71	0x3d343372	0.043994375
72	0xbd33a282	-0.04385615
73	0x3d057d5a	0.032590248
74	0xbc8a6e32	-0.016898248
75	0xbd1de560	-0.038548827
76	0xbd5919c7	-0.0530031
77	0xbe226f3b	-0.15862744
78	0x3d8dfd6f	0.06933104
79	0xbd6c5492	-0.05769784
80	0x3d1e23b5	0.03860827
81	0x3d3d9e16	0.04629334
82	0x3cb21a33	0.021741008
83	0x3ebbdf99	0.3669403
84	0x3db0ceec	0.08633217
85	0x3c8b640a	0.017015476
86	0xbcea02b4	-0.028565742
87	0x3dc2b3f7	0.09506982
88	0xbc373f8c	-0.011184584
89	0x3cdc7038	0.026908979
90	0x3d4ca657	0.04996332
91	0xbdbac68b	-0.091199
92	0xbdbef119	-0.093233295
93	0x3d8c8892	0.06861986
94	0x3d9e3276	0.077244684
95	0x3d96db3c	0.073660344
96	0x3da3fe81	0.08007527
97	0x3d46026f	0.048342165
98	0x3b1aaecc	0.0023602722
99	0xbd06d96d	-0.032922197
100	0x3ecbbd4e	0.39792866
101	0x3df983f9	0.12183375
102	0xbeb21c7e	-0.34787363
103	0xbe023d17	-0.12718616
104	0x3e034f51	0.12823226
105	0xbd81636f	-0.063177936
106	0x3de3791c	0.11107084
107	0xbd4c289f	-0.049843427
108	0xbe64ac0b	-0.22331254
109	0x3c2d8aae	0.010592146
110	0x3dc88645	0.09791235
111	0xbe3530c4	-0.17694384
112	0x3b665cd8	0.0035150554
113	0xbe086537	-0.1331986
114	0xbf0c8b34	-0.5489991
115	0x3ddf2e4e	0.10897504
116	0x3d153e27	0.036436226
117	0xbe4b21e1	-0.19837143
118	0xbde5d414	-0.11222091
119	0xbd9f566b	-0.07780155
120	0x3d5ea1a6	0.05435338
121	0xbc065edb	-0.008201326
122	0x3df8d0ea	0.12149222
123	0xbe84317a	-0.25818998
124	0x3d3e8248	0.046510965
125	0xbd200dc1	-0.039075617
126	0x3d81bb1a	0.06334515
127	0x3e0bc63b	0.13649838

fc_out.bias f4 [2]
0	0x3d2aefd6	0.04173263
1	0x3d6efbc1	0.05834556
