model_ckpts/cric_prediction_all_output_batch.pth (torch_old, 74239 bytes, 6 tensors)

lstm_cell.weight_ih f4 [256, 5]
-0.06354517 0.00872302 -0.109791555 -0.10641479 -0.13511312 0.008220597 0.432871 -0.6988789
3.548887 -0.010513865 -0.10387401 -0.2443071 0.27794802 0.12474335 0.077676505 -0.7304812
-0.3886322 0.34650514 -0.1072688 0.069270894 -0.10291324 0.9534082 0.9153469 -0.2995216
-0.04206065 0.00724699 -0.90839267 -0.700307 -0.25142664 0.012250462 0.080974005 -0.1731635
-0.41122195 -0.26842225 -0.09698051 -0.05373152 0.8194655 1.5555542 -0.011863035 -0.0137525555
-0.094507635 0.12490961 0.07305987 -0.06802611 0.13595445 0.123525985 0.87950623 -0.15389903
-0.50365734 -0.02005848 0.10898857 -0.073099226 0.046178326 0.06794377 0.046998322 0.010708489
-0.22250882 0.09417746 0.15860789 0.048121512 -0.013955448 -0.44960624 0.019975636 -0.07286844
0.09800796 -0.17759265 0.40186465 -0.27945304 -0.40573868 -0.07299547 0.13509172 -0.43250358
-0.034129336 -0.13406086 0.063217126 0.07772432 -0.8040872 0.45549804 0.08144006 0.028103502
0.026657665 0.056359578 0.037609134 -0.027813062 0.13182211 0.091209784 -1.4962549 -0.20689818
-0.88714105 -0.014652389 0.0072384346 0.011283427 -0.052326605 -0.07398236 0.08886938 0.13841629
0.21304145 -0.11895835 0.14713788 -0.059080932 -0.013802392 0.011205575 -0.06004133 0.03140534
0.14411716 0.15283091 0.046135 -0.20260675 -0.08308039 -0.037163317 0.069145635 0.10151932
-0.010205581 0.043901794 -0.092675395 -0.04860678 0.4336181 -0.16647515 0.04024976 0.02580012
0.0655116 0.07068138 0.00433834 -0.10079283 -0.085222386 0.0005957598 0.10819958 -0.4410873
0.01683447 0.06782176 -0.34974366 -0.89967895 -0.6115286 -0.027536178 0.035062984 0.17768843
0.17736591 0.0967281 -0.11931558 -0.0051446166 0.028825587 0.045217726 -0.10939687 -5.2127867e-05
0.07484112 0.15008022 -0.24771127 0.0035703569 0.046141807 0.045580663 -0.008521756 -0.16325769
-0.06310972 -0.05839301 0.16297041 0.06402329 0.006373817 0.06986617 -0.06737792 0.10269946
0.003746199 -0.2699971 -0.09267834 0.15863255 0.08247086 0.001988162 -0.044628587 0.005329125
-0.0860556 0.12498085 0.35726786 1.0047171 0.50595665 -0.6367196 -0.09794263 0.12759435
0.046836097 -0.08780322 -0.06063092 0.0874444 0.30569118 -1.1018265 0.34701547 1.1255032
0.0043039345 0.058417693 0.1763688 -0.43004864 -0.5540921 -0.111133754 -0.076518774 0.066217184
-0.07946782 -0.09938526 0.12733577 0.2394816 1.3189174 1.3649235 -3.6126509 -0.033121046
0.18143445 -0.9666571 -0.21775413 0.27757427 -0.011852687 0.2873057 1.0308092 0.52987546
-1.8034164 -0.07186249 -0.040012524 -1.7124181 -0.61969465 -0.38595253 0.021424554 -0.03367506
0.040960494 -0.04387863 -0.08978236 -0.0814193 0.018568913 -0.014387416 -0.05246024 0.050092395
0.06420626 0.7275262 0.89806426 -0.15499394 0.115129486 -0.03747327 0.01872404 0.54387045
0.7195155 0.021689855 -0.10793567 -0.25183854 -0.19036613 -0.08444118 -0.022926543 -0.038087253
0.35519588 0.96269506 0.928089 -0.83736986 -0.08337285 -0.26238874 -0.47200227 0.12990558
-0.10314229 0.0058910674 -0.18462265 -1.3401188 0.020138761 0.7057647 -0.04739921 0.026054837
00000000: f823 82bd ffea 0e3c 65da e0bd ffef d9bd
00000010: 185b 0abe afaf 063c 45a1 dd3e bae9 32bf
00000020: f720 6340 5942 2cbc e6bb d4bd a42b 7abe
00000030: 344f 8e3e 7179 ff3d dc14 9f3d d100 3bbf
00000040: cdfa c6be 1f69 b13e bfaf dbbd e6dd 8d3d
00000050: 2dc4 d2bd 8f12 743f 2d54 6a3f e55a 99be
00000060: ca47 2cbd 2978 ed3b 6c8c 68bf 5247 33bf
00000070: feba 80be 29b6 483c b3d5 a53d c651 31be
00000080: af8b d2be a46e 89be b89d c6bd 9515 5cbd
00000090: 7ec8 513f 661c c73f 2d5d 42bc 6652 61bc
000000a0: 388d c1bd 9cd0 ff3d 6aa0 953d 4651 8bbd
000000b0: a537 0b3e 31fb fc3d 5227 613f b597 1dbe
000000c0: b0ef 00bf ae51 a4bc 6635 df3d 0cb5 95bd
000000d0: 7c25 3d3d 1a26 8b3d 5081 403d a972 2f3c
000000e0: 5ad9 63be 1de0 c03d 1b6a 223e 101b 453d
000000f0: 64a5 64bc ca32 e6be f2a3 a33c 0c3c 95bd
00000100: 66b8 c83d d9da 35be 34c1 cd3e 7814 8fbe
00000110: fbbc cfbe a67e 95bd 7c55 0a3e 1c71 ddbe
00000120: 34cb 0bbd 4047 09be fb77 813d ee2d 9f3d
00000130: a9d8 4dbf 0a37 e93e 0cca a63d 5139 e63c
00000140: 2d61 da3c 4dd9 663d 090c 1a3d 38d8 e3bc
00000150: 60fc 063e 32cc ba3d 4885 bfbf 1edd 53be
00000160: ad1b 63bf 9310 70bc 6430 ed3b 1fde 383c
00000170: 6c54 56bd 1084 97bd 2601 b63d 00bd 0d3e
00000180: 8a27 5a3e 6fa0 f3bd 50ab 163e d9fe 71bd
00000190: 6e23 62bc 9797 373c e6ed 75bd e3a2 003d
000001a0: 7393 133e b57f 1c3e 0ef8 3c3d 2578 4fbe
000001b0: 0d26 aabd 9038 18bd 3a9c 8d3d 5ce9 cf3d
000001c0: 4f35 27bc 5ed2 333d 99cc bdbd e717 47bd
000001d0: 3103 de3e 7678 2abe efdc 243d c65a d33c
000001e0: f22a 863d 66c1 903d a228 8e3b 796c cebd
000001f0: 1389 aebd c32c 1c3a be97 dd3d 32d6 e1be
00000200: 71e8 893c 23e6 8a3d 9a11 b3be 5c51 66bf
00000210: 238d 1cbf 8d93 e1bc 349e 0f3d f5f3 353e
00000220: 699f 353e 6219 c63d ba5b f4bd 2c94 a8bb
00000230: a323 ec3c 3936 393d 770b e0bd dfa3 5ab8
00000240: 4d46 993d a1ae 193e 06a8 7dbe a6fc 693b
00000250: 31ff 3c3d cab2 3a3d d69e 0bbc 062d 27be
00000260: ab3f 81bd 822d 6fbd b7e1 263e a51e 833d
00000270: 74db d03b ff15 8f3d 6ffd 89bd 1854 d23d
00000280: ca82 753b 0f3d 8abe 24ce bdbd 9270 223e
00000290: 7be6 a83d d34b 023b 77cc 36bd f19f ae3b
000002a0: eb3d b0bd f6f5 ff3d d0eb b63e 929a 803f
000002b0: 6086 013f 0e00 23bf 2596 c8bd 18a8 023e
000002c0: 35d7 3f3d 2dd2 b3bd 2158 78bd 0d16 b33d
000002d0: 8e83 9c3e a708 8dbf 03ac b13e 7d10 903f
000002e0: 0508 8d3b 6447 6f3d 069a 343e 562f dcbe
000002f0: fbd8 0dbf 189a e3bd e0b5 9cbd e09c 873d
00000300: 06c0 a2bd 808a cbbd 4f64 023e aa3a 753e
00000310: 49d2 a83f d0b5 ae3f ac35 67c0 efa9 07bd
00000320: f4c9 393e d776 77bf f0fa 5ebe 371e 8e3e
00000330: c631 42bc bc19 933e 8ef1 833f eba5 073f
00000340: 59d6 e6bf a42c 93bd 2ce4 23bd 8430 dbbf
00000350: 4fa4 1ebf 929b c5be 8c82 af3c dcee 09bd
00000360: 31c6 273d 14ba 33bd d0df b7bd 29bf a6bd
00000370: d51d 983c 32b9 6bbc 8ce0 56bd af2d 4d3d
00000380: 927e 833d 283f 3a3f 8ae7 653f bbb6 1ebe
00000390: 02c9 eb3d 927d 19bd 2863 993c 183b 0b3f
000003a0: 2b32 383f ecae b13c 600d ddbd fbf0 80be
000003b0: 57ef 42be 7fef acbd 72d0 bbbc 6101 1cbd
000003c0: 3cdc b53e 2f73 763f 3e97 6d3f df5d 56bf
000003d0: 63bf aabd d157 86be 48aa f1be f805 053e
000003e0: 443c d3bd db09 c13b b80d 3dbe 0389 abbf
000003f0: 0bfa a43c ffac 343f ad25 42bd f470 d53c

lstm_cell.weight_hh f4 [256, 64]
-0.026826397 0.07942974 0.047447804 -0.054479554 0.015382526 -0.026828539 -0.08864904 -0.045029737
-0.01660185 -0.11026448 -0.07677472 0.004674333 -0.040179197 0.120665744 0.03509094 0.0647619
-0.10974017 0.0036807947 -0.07332466 -0.06626196 0.11531901 0.10571046 -0.09681759 -0.025052689
0.09418387 -0.094737045 -0.07027042 -0.08147165 -0.030761998 -0.10081907 0.036734216 -0.06368031
0.017920027 0.008202301 -0.12210264 -0.09865636 0.08937426 0.072216265 0.012932873 0.108189516
0.0047143344 -0.06734091 -0.06425826 -0.08864598 0.048964467 -0.058841314 -0.06926958 0.12309797
0.023924952 0.039155915 0.098652996 0.10732921 0.111310385 0.057684887 -0.05117174 0.038219344
-0.038269803 -0.11714335 -0.059488393 0.08717037 0.09759241 -0.09060414 0.11152815 0.103134684
-0.05039757 -0.12747543 0.05302001 0.06740149 0.051842563 -0.48336306 0.15538394 0.26955736
0.011802286 0.23797488 -0.075118676 -0.19216436 0.04965753 -0.18124983 0.067891605 0.20993844
0.07547807 0.3490446 -0.014087395 -0.08333068 -0.009911759 -0.081884295 0.0826351 0.39199838
-0.15123291 -0.13518593 -0.15689558 0.11516322 -0.23069058 0.10490867 -0.6410581 0.009333039
0.1957239 -0.22841537 0.13017888 -0.20678757 0.3906189 -0.07841989 0.43444318 0.229931
0.4419838 0.4208186 0.17580576 -0.0399266 0.14266297 -0.19775073 -0.11697589 -0.37781787
0.08506748 0.26517227 -0.12050915 -0.15668067 0.05018766 -0.68975234 -0.30977422 0.062082324
-0.45483613 0.2633291 -0.5555538 -0.05186468 0.06829845 -0.10209192 -0.3980176 -0.34434083
-0.08336996 0.13275756 -0.028942507 0.056584325 0.04428537 -0.0791954 0.111370236 0.040106285
0.009173542 -0.08205566 0.045635108 0.018378722 0.059025656 -0.059111327 -0.13363057 0.12715144
-0.17165203 0.04242782 -0.019390816 0.09800368 0.21104255 -0.0661574 -0.08700007 0.27139732
-0.0005120241 -0.07349651 -0.16609941 0.059302885 -0.03907117 0.1313357 -0.33011404 -0.25352958
0.019938303 -0.12471734 -0.053610988 -0.027138472 -0.11653177 -0.15423852 0.09102798 0.28336507
0.009128102 -0.12675154 -0.06855411 -0.055210926 0.13039097 -0.21418507 0.22796378 -0.15494221
0.043758415 -0.10690251 -0.056326926 -0.1276887 -0.09175895 0.1732797 0.07729685 0.05185626
0.0069963112 -0.041604225 0.03060782 0.2436186 0.04954047 0.13773857 -0.081398055 -0.04549559
-0.071120195 -0.34952146 0.10687565 0.12779762 0.2918975 -0.33638066 0.43553934 -0.055672847
0.015377608 -0.08298758 -0.14897554 0.13306576 0.08267218 -0.12251158 -0.074127205 0.12428107
0.17500606 0.52539796 0.22902253 0.016621636 -0.011556947 -0.01380049 -0.056774236 0.5693752
0.026754068 -0.09463072 -0.16010791 0.21701829 -0.07489686 -0.047367882 0.0041469214 0.024461893
0.20056303 -0.017040394 0.039513085 -0.20249322 0.41764426 0.15826692 0.37008864 -0.14527328
0.1951575 -0.02328181 0.12422251 -0.09271064 0.14016439 -0.44604638 -0.13341741 0.18218844
0.13989976 -0.096201114 -0.06847475 -0.23798843 0.19102344 0.29705405 0.056302425 -0.025493428
0.12332922 0.12471417 0.022089785 0.14817835 -0.047643747 -0.45664784 -0.62273 -0.22980554
00000000: 08c3 dbbc 0fac a23d a158 423d f425 5fbd
00000010: fe06 7c3c 86c7 dbbc a18d b5bd 1a71 38bd
00000020: 9a00 88bc 58d2 e1bd 103c 9dbd 262b 993b
00000030: f192 24bd 9a1f f73d 84bb 0f3d e3a1 843d
00000040: 74bf e0bd 7d39 713b 3d2b 96bd 5ab4 87bd
00000050: 602c ec3d ba7e d83d 4d48 c6bd 4c3b cdbc
00000060: 79e3 c03d 7f05 c2bd f0e9 8fbd 9cda a6bd
00000070: 9600 fcbc 3b7a cebd 9e76 163d d36a 82bd
00000080: 05cd 923c f262 063c f310 fabd 580c cabd
00000090: da09 b73d 1fe6 933d 67e4 533c 7792 dd3d
000000a0: b47a 9a3b 08ea 89bd d699 83bd 068c b5bd
000000b0: f78e 483d 9703 71bd 36dd 8dbd ca1a fc3d
000000c0: 43fe c33c f461 203d 950a ca3d 6bcf db3d
000000d0: b3f6 e33d fd46 6c3d 7599 51bd e38b 1c3d
000000e0: ccc0 1cbd dae8 efbd 1aaa 73bd 6186 b23d
000000f0: 88de c73d aa8e b9bd df68 e43d 4738 d33d
00000100: af6d 4ebd eb88 02be 832b 593d cb09 8a3d
00000110: de58 543d 5d7b f7be f81c 1f3e 6c03 8a3e
00000120: 605e 413c b0af 733e d2d7 99bd bcc6 44be
00000130: b265 4b3d 8e99 39be c10a 8b3d 1afa 563e
00000140: 3f94 9a3d f9b5 b23e d1ce 66bc 47a9 aabd
00000150: ee64 22bc f4b2 a7bd 973c a93d 03b4 c83e
00000160: cddc 1abe 2e6e 0abe 3ca9 20be b2da eb3d
00000170: 273a 6cbe 5bda d63d 621c 24bf 9ae9 183c
00000180: d96b 483e b8e5 69be 9d4d 053e 1fc0 53be
00000190: 33ff c73e 9b9a a0bd 566f de3e 0873 6b3e
000001a0: b34b e23e 8975 d73e 6d06 343e 138a 23bd
000001b0: 3e16 123e 2b7f 4abe 0e91 efbd 5871 c1be
000001c0: dc37 ae3d a9c4 873e 80cd f6bd e670 20be
000001d0: 9391 4d3d 9c93 30bf ba9a 9ebe 094a 7e3d
000001e0: 48e0 e8be 12d3 863e c638 0ebf 0f70 54bd
000001f0: 0fe0 8b3d 9215 d1bd f6c8 cbbe 714d b0be
00000200: dfbd aabd 99f1 073e d618 edbc f7c4 673d
00000210: 9364 353d 3331 a2bd 1416 e43d 7d46 243d
00000220: a04c 163c cc0c a8bd e1eb 3a3d f98e 963c
00000230: e3c4 713d b81e 72bd 74d6 08be fd33 023e
00000240: 8dc5 2fbe cbc8 2d3d 7dd9 9ebc 27b6 c83d
00000250: 8a1b 583e 887d 87bd 182d b2bd 97f4 8a3e
00000260: 5b39 06ba 5785 96bd f715 2abe 95e7 723d
00000270: 1709 20bd de7c 063e b504 a9be a1ce 81be
00000280: a755 a33c ce6b ffbd 3297 5bbd 8051 debc
00000290: 35a8 eebd b4f0 1dbe e16c ba3d 3a15 913e
000002a0: 098e 153c 28cb 01be 1966 8cbd da24 62bd
000002b0: 3685 053e 5553 5bbe 566f 693e 2ca9 1ebe
000002c0: 063c 333d b4ef dabd 10b7 66bd d4c0 02be
000002d0: 1eec bbbd 3c70 313e d04d 9e3d 3b67 543d
000002e0: 5041 e53b 3169 2abd 40bd fa3c 2777 793e
000002f0: f3ea 4a3d 570b 0d3e 06b4 a6bd 9559 3abd
00000300: 77a7 91bd 7af4 b2be 9fe1 da3d 61dd 023e
00000310: 9773 953e 163a acbe 03ff de3e 3609 64bd
00000320: 5df2 7b3c 64f5 a9bd 0b8d 18be 6442 083e
00000330: 0850 a93d 5ae7 fabd 01d0 97bd 1387 fe3d
00000340: ca34 333e 7b80 063f e284 6a3e 192a 883c
00000350: 5959 3dbc 731b 62bc 1a8c 68bd 93c2 113f
00000360: 592b db3c c0cd c1bd 54f3 23be 0b3a 5e3e
00000370: 8663 99bd d304 42bd e6e2 873b 4f64 c83c
00000380: 6560 4d3e 4c98 8bbc 79d8 213d 625a 4fbe
00000390: 78d5 d53e b910 223e 427c bd3e 85c2 14be
000003a0: 5ed7 473e 7fb9 bebc 5f68 fe3d 13df bdbd
000003b0: 4187 0f3e 3160 e4be 939e 08be 9b8f 3a3e
000003c0: e241 0f3e 1705 c5bd 7d3c 8cbd 3db3 73be
000003d0: a69b 433e 7817 983e 5f9d 663d 98d7 d0bc
000003e0: 0894 fc3d 256a ff3d a3f5 b43c 11bc 173e
000003f0: 1726 43bd bfcd e9be 3c6b 1fbf 2552 6bbe

lstm_cell.bias_ih f4 [256]
0.0016243213 -0.3434499 -0.09356599 -0.16545095 0.029168418 -0.35955983 0.23347075 0.2077131
0.074633874 -0.023549879 0.06844677 -0.084353134 -0.08288154 0.030374313 0.13687088 -0.23852685
0.10573693 0.04329349 0.16959365 -0.036330882 0.08047261 0.054073874 -0.014220757 -0.48097894
0.03276739 0.101687565 -0.48283395 0.010093994 0.011153855 -0.04332781 -0.016831197 -0.09930547
0.05362396 0.15236941 -0.115321465 0.13846757 -0.10188811 -0.060965467 0.08261036 -0.02387467
-0.10444912 0.020429522 -0.21995173 0.018763922 -0.1030586 -0.044552688 -0.03100376 0.0057419473
-0.094361074 0.09579584 -0.09434144 0.11042977 0.17352268 -0.060488224 -0.14269789 -0.08074529
0.05383577 -0.062016934 0.18679777 0.011978147 -0.056943927 0.01603618 -0.24651545 -0.16228615
0.1131977 0.11012658 -0.02178806 0.1399763 -0.11498563 -0.07897917 0.19565687 -0.053473663
0.0985088 0.13341206 0.08256697 -0.10054737 -0.18420994 0.092600845 0.045978654 0.2797473
0.0019826365 -0.046707265 0.08367416 0.13033165 0.2796308 0.042969402 -0.08678869 0.06207683
-0.08235211 -0.024108721 0.09273648 0.13579145 0.005603103 0.17216511 -0.03660265 -0.00092861464
0.18887568 -0.001949229 0.09190162 0.0974935 0.1111297 0.1063917 0.03613766 -0.08683135
-0.008424354 0.088351674 -0.01461337 -0.011095734 0.108062126 -0.3271653 0.07694 -0.037870806
-0.060891468 0.15816909 0.011500285 -0.0077020805 -0.062394347 -0.11091635 -0.08892284 0.08787074
-0.0064844196 0.0885968 0.15614003 0.13655633 0.019351145 0.02519615 -0.052448492 -0.052694578
0.123490214 -0.18282478 -0.14044692 0.037159663 0.055285204 -0.078059465 0.051660664 -0.1234298
0.10544086 -0.052727338 0.080892265 -0.01016642 0.030536855 0.093065456 0.093173474 -0.10863591
0.08203888 -0.029367432 0.059527047 0.10069947 0.11392821 0.014207822 0.028342923 0.058970753
-0.11402045 -0.12908393 0.00941748 -0.09903686 -0.08214719 -0.07077458 0.018649511 -0.116256915
-0.12943408 0.03515445 -0.08526547 -0.11429675 0.05302217 0.10198156 -0.03399424 -0.04494192
0.12443872 -0.098124996 -0.0027190864 -0.0040961774 -0.029157113 0.058472604 -0.26428232 -0.074250236
-0.07320509 0.017767923 -0.08836692 -0.07307265 -0.023138903 0.0954014 0.01990933 0.044079445
-0.06139608 0.12063657 -0.09183003 -0.058431987 -0.049291324 -0.11052294 -0.031247275 -0.091413446
-0.12346771 0.062383726 -0.07375155 0.19430335 0.14193504 0.2530189 -0.0036167994 -0.17728058
-0.12348706 -0.092026904 0.05332524 0.10581133 0.108143315 0.16320913 0.0013005609 0.03947445
0.06469986 0.34701976 0.047950808 0.045531966 -0.31973365 0.060540736 0.013757759 -0.20731847
-0.0959895 0.10819651 0.19399495 -0.027919995 -0.025378127 0.10094565 -0.41385514 0.22542733
-0.047118913 -0.08790898 -0.08085026 0.069576465 0.16065854 0.05316063 0.30228654 0.31698075
0.161913 -0.0999916 -0.08385588 0.08011841 -0.29304722 0.3709638 0.12698552 0.04465344
0.03936262 0.04593205 -0.059949685 -0.007813394 0.13800448 0.25308123 -0.0033598281 -0.06803669
0.25245583 -0.05612918 0.015511487 -0.1896029 0.0011156744 0.10953082 0.22175564 0.30445483
00000000: 2ee7 d43a aad8 afbe 879f bfbd f96b 29be
00000010: 9bf2 ee3c 3a18 b8be f512 6f3e beb2 543e
00000020: a5d9 983d adeb c0bc d22d 8c3d 56c1 acbd
00000030: ccbd a9bd 8dd3 f83c e127 0c3e 6240 74be
00000040: 9b8c d83d 8454 313d f5a9 2d3e b1cf 14bd
00000050: d3ce a43d 917c 5d3d 2efe 68bc df42 f6be
00000060: 1937 063d 9241 d03d 0336 f7be 4861 253c
00000070: a9be 363c 8078 31bd 94e1 89bc ab60 cbbd
00000080: cca4 5b3d ba06 1c3e a92d ecbd 71ca 0d3e
00000090: b7aa d0bd edb6 79bd 9f2f a93d d094 c3bc
000000a0: 6ce9 d5bd d05b a73c 073b 61be ccb6 993c
000000b0: 6310 d3bd e17c 36bd 99fb fdbc f226 bc3b
000000c0: 6140 c1bd 9c30 c43d 1636 c1bd 0129 e23d
000000d0: eeaf 313e 80c2 77bd 651f 12be c95d a5bd
000000e0: e582 5c3d 7805 7ebd ea47 3f3e fd3f 443c
000000f0: 093e 69bd 4f5e 833c 8c6e 7cbe 572e 26be
00000100: 32d4 e73d 0b8a e13d e07c b2bc f255 0f3e
00000110: 967d ebbd d5bf a1bd 465a 483e 3307 5bbd
00000120: fbbe c93d 2c9d 083e df18 a93d c8eb cdbd
00000130: 88a1 3cbe 83a5 bd3d 1d54 3c3d 0a3b 8f3e
00000140: 1fef 013b 1e50 3fbd 5c5d ab3d a975 053e
00000150: c52b 8f3e af00 303d 45be b1bd 4644 7e3d
00000160: 39a8 a8bd a77f c5bc a0ec bd3d ea0c 0b3e
00000170: 3c9a b73b 0d4c 303e a9ec 15bd 466e 73ba
00000180: a068 413e 467d ffba eb36 bc3d acaa c73d
00000190: f897 e33d e4e3 d93d 1505 143d a3d4 b1bd
000001a0: 4d06 0abc b9f1 b43d eb6c 6fbc e2ca 35bc
000001b0: ad4f dd3d 3682 a7be b892 9d3d 6b1e 1bbd
000001c0: 5569 79bd 14f7 213e b16b 3c3c bc61 fcbb
000001d0: 3791 7fbd 1c28 e3bd 2e1d b6bd 93f5 b33d
000001e0: 417b d4bb 3d72 b53d 2ce3 1f3e 6cd5 0b3e
000001f0: 4b86 9e3c 2868 ce3c 3bd4 56bd 45d6 57bd
00000200: 70e8 fc3d 6b36 3bbe 51d1 0fbe bb34 183d
00000210: bd72 623d a4dd 9fbd 229a 533d c3c8 fcbd
00000220: 61f1 d73d 9ff8 57bd d8aa a53d 0e91 26bc
00000230: 6d28 fa3c 1a99 be3d bcd1 be3d 817c debd
00000240: 0004 a83d f893 f0bc a2d2 733d 863b ce3d
00000250: 3253 e93d edc7 683c 6b2f e83c 518b 713d
00000260: 8e83 e9bd 942e 04be c64b 1a3c d6d3 cabd
00000270: c93c a8bd 43f2 90bd dcc6 983c 1b18 eebd
00000280: 5e8a 04be 1dfe 0f3d aa9f aebd 6a14 eabd
00000290: c62d 593d b5db d03d 8b3d 0bbd 0515 38bd
000002a0: bad9 fe3d c2f5 c8bd b332 32bb 3a39 86bb
000002b0: e6da eebc f880 6f3d 0350 87be 8210 98bd
000002c0: 8dec 95bd 098e 913c b7f9 b4bd 1da7 95bd
000002d0: cc8d bdbc cf61 c33d e418 a33c a68c 343d
000002e0: 757a 7bbd 4e10 f73d 6211 bcbd 6156 6fbd
000002f0: b3e5 49bd da59 e2bd 49fa ffbc f936 bbbd
00000300: a4dc fcbd 1486 7f3d 0d0b 97bd 75f7 463e
00000310: 6b57 113e b18b 813e d307 6dbb 0a89 35be
00000320: c9e6 fcbd 9a78 bcbd 916b 5a3d 9cb3 d83d
00000330: 3e7a dd3d 4b20 273e 9577 aa3a f6af 213d
00000340: 5c81 843d 93ac b13e 1168 443d ba7f 3a3d
00000350: 21b4 a3be 90f9 773d 3968 613c 4b4b 54be
00000360: 2596 c4bd 2296 dd3d 9da6 463e 79b8 e4bc
00000370: cae5 cfbc 98bc ce3d d2e4 d3be 6cd6 663e
00000380: c3ff 40bd a009 b4bd d294 a5bd 1b7e 8e3d
00000390: ac83 243e f6be 593d 4dc5 9a3e 4d4b a23e
000003a0: 85cc 253e 65c8 ccbd a2bc abbd 1f15 a43d
000003b0: 490a 96be f8ee bd3e 7e08 023e 87e6 363d
000003c0: b33a 213d 3f23 3c3d cd8d 75bd c003 00bc
000003d0: 0c51 0d3e dd93 813e 9030 5cbb d256 8bbd
000003e0: e441 813e b6e7 65bd e423 7e3c 4327 42be
000003f0: d23b 923a b251 e03d e913 633e 81e1 9b3e

lstm_cell.bias_hh f4 [256]
0.0012674832 -0.41477865 0.031337924 0.028925924 0.045923248 -0.26302826 0.065849945 0.18716913
-0.006996305 -0.13968343 0.10657599 0.0141714765 0.03895594 -0.08022428 0.2001234 -0.28209412
-0.004020811 -0.15267262 0.04570616 -0.0215521 -0.05942518 0.089745834 -0.11190699 -0.42780516
0.030098066 0.13233821 -0.38464078 0.037535705 -0.105134115 -0.14838704 -0.045382097 0.0570625
-0.074792355 0.031806123 -0.14516348 0.2254868 -0.24443978 0.14122543 0.07207077 -0.100704364
-0.2026081 -0.13959526 -0.18312176 0.093141064 -0.08991928 0.13648155 0.056797836 0.07433814
0.0096101295 -0.034657717 -0.10897532 0.25887498 0.0057233702 -0.1757256 -0.1166107 0.06433484
-0.024430178 -0.09184777 0.028900636 -0.022249425 0.0906928 0.0030326687 -0.030448738 -0.12692232
-0.09064132 -0.08948282 -0.061049093 0.06954921 -0.32372737 0.032059934 0.108963914 -0.0340186
0.04431078 0.25285542 0.11568326 0.06018622 -0.0015468773 -0.039178297 0.08831374 0.23984976
0.11035295 0.15188493 -0.0577265 -0.0240356 0.084482275 0.17854053 -0.017318558 0.041216575
-0.09011588 -0.072291434 0.10624167 -0.07392228 -0.124497004 0.14415532 -0.02442147 0.04533328
0.03613135 0.09297973 -0.008053973 0.084828004 0.03864786 -0.030703941 -0.05152413 -0.033609796
-0.023433592 0.15347514 0.026926175 0.047927123 0.013275558 -0.22060408 0.03463791 0.015415466
0.10491079 -0.05964045 -0.11379904 -0.03556386 -0.021807538 -0.06545165 -0.052762434 0.010842621
0.20571753 0.13674939 0.12734684 0.07281745 0.09456734 0.047156677 0.060440306 -0.04446769
-0.06691019 0.014129822 0.018431863 0.10203599 -0.04511648 0.06438932 0.04679913 -0.06039818
0.09176204 0.07074374 -0.019230863 -0.0019254108 0.23582098 -0.10684782 0.11366011 0.10113143
-0.0024141036 0.035979647 0.066647224 0.05235422 0.118313 -0.022202889 0.08728816 -0.0893767
-0.04733331 0.00823083 -0.022545405 0.045760524 -0.029277878 -0.079688005 -0.016355263 -0.080867924
-0.13505515 -0.011561891 -0.015673777 0.01716836 0.10307192 -0.068484314 -0.07707994 0.07410409
0.091821805 0.043544345 0.08317511 -0.043201167 0.04986471 0.10239031 -0.20729995 -0.00057225645
0.04570663 0.07064387 0.0859961 0.070748515 0.009281747 0.026569357 -0.050108187 -0.05308234
-0.10422197 0.106837094 0.15003629 0.091563955 -0.05732053 -0.015649257 0.08229423 -0.10979865
-0.04262651 0.13317263 -0.0018663945 0.17731594 0.030944051 0.101105586 0.06126253 -0.17925596
-0.20088787 -0.08918093 -0.086789034 0.05784668 -0.04826129 0.120423436 -0.1653591 0.0024353415
0.07279247 0.33412102 0.15650462 -0.054546922 -0.19240834 0.10361473 -0.0035746682 -0.25448102
-0.06696174 0.04503025 0.2727994 0.0015399571 -0.045377854 -0.053546447 -0.46838766 0.20292565
0.059843164 -0.04952929 -0.0577241 0.07374688 0.3079925 0.07722863 0.08302319 0.18047628
0.0447762 -0.06668853 -0.19171752 -0.10794868 -0.30165684 0.25977054 0.074285 0.04078742
-0.069917396 0.095583886 0.116202146 0.020785289 0.10664259 0.18782043 0.026589245 0.035262745
0.354642 -0.005401034 0.03234651 -0.2823005 0.043641 0.07153478 0.30834764 0.20267716
00000000: ae21 a63a de5d d4be 325c 003d 0ff6 ec3c
00000010: 041a 3c3d a4ab 86be 56dc 863d 44a9 3f3e
00000020: 4341 e5bb 2c09 0fbe 8344 da3d 7b2f 683c
00000030: 4490 1f3d a14c a4bd 26ed 4c3e a46e 90be
00000040: 02c1 83bb 3656 1cbe 6236 3b3d 088e b0bc
00000050: d167 73bd aacc b73d 7e2f e5bd 4709 dbbe
00000060: 3890 f63c ab83 073e a3ef c4be 0abf 193d
00000070: 8e50 d7bd c6f2 17be 94e2 39bd 5eba 693d
00000080: bc2c 99bd 2347 023d bca5 14be 03e6 663e
00000090: 6c4e 7abe 669d 103e d799 933d 173e cebd
000000a0: 7f78 4fbe 0ff2 0ebe 4584 3bbe bec0 be3d
000000b0: 9927 b8bd d2c1 0b3e d9a4 683d 983e 983d
000000c0: ce73 1d3c 40f5 0dbd 742e dfbd 438b 843e
000000d0: 1c8b bb3b 69f1 33be 97d1 eebd fcc1 833d
000000e0: cc21 c8bc af1a bcbd 07c1 ec3c 6d44 b6bc
000000f0: 26bd b93d bdbf 463b a26f f9bc edf7 01be
00000100: 28a2 b9bd c542 b7bd 9d0e 7abd d16f 8e3d
00000110: 98bf a5be 4751 033d 7928 df3d 1657 0bbd
00000120: 387f 353d 4476 813e 58eb ec3d d385 763d
00000130: 97c0 caba 6c79 20bd d6dd b43d 2d9b 753e
00000140: ba00 e23d b987 1b3e 9f72 6cbd 4ee6 c4bc
00000150: 0b05 ad3d 54d3 363e a6df 8dbc b6d2 283d
00000160: ad8e b8bd 880d 94bd 3c95 d93d 9064 97bd
00000170: 49f8 febd 749d 133e 890f c8bc 64af 393d
00000180: 77fe 133d 286c be3d d0f4 03bc 4eba ad3d
00000190: 384d 1e3d d586 fbbc f70a 53bd 6daa 09bd
000001a0: cef7 bfbc 9628 1d3e 4894 dc3c 3b4f 443d
000001b0: ba81 593c 09e6 61be 7be0 0d3d 2791 7c3c
000001c0: 78db d63d 8b49 74bd 790f e9bd 69ab 11bd
000001d0: b9a5 b2bc 840b 86bd 6c1d 58bd 40a5 313c
000001e0: 9ea7 523e 0808 0c3e 3667 023e 5121 953d
000001f0: 86ac c13d 5c27 413d 4190 773d c123 36bd
00000200: 3608 89bd c580 673c 6bfe 963c 3ff8 d03d
00000210: 0fcc 38bd 8cde 833d 72b0 3f3d 1564 77bd
00000220: bded bb3d 18e2 903d 0b8a 9dbc 115e fcba
00000230: 0e7b 713e 08d3 dabd a2c6 e83d ff1d cf3d
00000240: f035 1ebb 655f 133d 577e 883d 6171 563d
00000250: 164e f23d d5e2 b5bc 23c4 b23d 220b b7bd
00000260: 93e0 41bd 9ada 063c 24b1 b8bc 636f 3b3d
00000270: 29d8 efbc 7733 a3bd 79fb 85bc 159e a5bd
00000280: e64b 0abe 166e 3dbc 4b66 80bc a9a4 8c3c
00000290: 5f17 d33d 8141 8cbd 16dc 9dbd e3c3 973d
000002a0: 120d bc3d 8e5b 323d b657 aa3d b5f3 30bd
000002b0: f03e 4c3d 03b2 d13d 7046 54be 7b03 16ba
000002c0: e036 3b3d bcad 903d b91e b03d 99e4 903d
000002d0: 7812 183c fba7 d93c 3e3e 4dbd de6c 59bd
000002e0: 5472 d5bd 68cd da3d 1da3 193e e285 bb3d
000002f0: efc8 6abd df32 80bc e189 a83d 1dde e0bd
00000300: 2399 2ebd 685e 083e cfa1 f4ba 4f92 353e
00000310: 617e fd3c 7210 cf3d 6bee 7a3d e08e 37be
00000320: 8db5 4dbe 7ea4 b6bd 73be b1bd a4f0 6c3d
00000330: a1ad 45bd 90a0 f63d e553 29be 409a 1f3b
00000340: 3814 953d e911 ab3e bf42 203e 986c 5fbd
00000350: b106 45be f633 d43d fb44 6abb 564b 82be
00000360: 3d23 89bd a471 383d 5dac 8b3e 63d8 c93a
00000370: 21de 39bd 8553 5bbd 82d0 efbe becb 4f3e
00000380: 1b1e 753d 3adf 4abd 1b70 6cbd 9b08 973d
00000390: 31b1 9d3e 0b2a 9e3d 1008 aa3d c6ce 383e
000003a0: 4067 373d ff93 88bd 9951 44be 3314 ddbd
000003b0: c472 9abe a500 853e bc22 983d b610 273d
000003c0: da30 8fbd 7cc1 c33d 64fb ed3d e945 aa3c
000003d0: 6e67 da3d 0054 403e b0d1 d93c ab6f 103d
000003e0: a393 b53e 28fb b0bb c67d 043d b189 90be
000003f0: e8c0 323d d480 923d bedf 9d3e 9a8a 4f3e

fc_out.weight f4 [2, 64]
-0.04160733 1.2784797 -0.15843272 0.32754067 0.44240084 0.049442884 -0.16460171 -0.40986496
0.04147045 0.09225964 0.040117074 0.21917364 0.0046703704 0.14105713 0.0070058987 -0.0030114625
-0.0036851305 -0.008939877 -0.4021409 -0.07450799 0.3762977 -0.017217837 0.057593007 0.38559175
-0.06742804 0.076224744 0.14935134 -0.19844621 -0.23107378 -0.10890253 0.012048842 -0.32562473
-0.14386514 0.09339173 -0.08030536 0.031200984 -0.0014972421 -0.08282086 -0.16103418 1.3714008
0.11846218 -0.2723837 -0.12028416 0.03493282 0.19053826 -0.21912122 -0.022358386 -0.26591554
-0.037534 -0.11533046 0.020988137 -0.27044842 -0.09253446 -0.098983146 0.095510595 0.16855115
0.4553854 -0.193688 -0.13333966 0.4993575 0.010148336 0.068883374 0.0382077 -0.051029317
0.07436815 -1.4804357 -0.028144965 -0.3189714 -0.35466212 -0.097432144 0.1894138 0.5593394
-0.09621537 0.0021241023 -0.24962345 -0.1507926 -0.10113626 -0.030366722 0.02169413 -0.015276359
0.104646385 -0.02898422 0.31178692 0.13014747 -0.45409438 -0.12942994 0.089252606 -0.49556515
-0.13148354 0.089797065 -0.11977886 0.21849139 0.22125177 0.16404442 0.05506689 0.15314506
0.2585003 -0.14070757 0.036074884 -0.1446446 -0.117382884 -0.0008171973 -0.02758778 -1.3298291
0.013136875 0.20547046 0.05412679 -0.08525457 -0.33486512 0.21156177 0.14384784 0.3114148
0.027257182 0.1370162 0.00089868426 0.37336317 0.10727462 0.1123744 -0.22183599 -0.14685151
-0.50867397 0.13860832 0.07356305 -0.43277317 0.038307548 0.0971088 0.15845127 0.06863696
00000000: 736c 2abd 39a5 a33f 303c 22be 69b3 a73e
00000010: 5d82 e23e 9f84 4a3d 5a8d 28be d2d9 d1be
00000020: ebdc 293d 9ff2 bc3d cd51 243d 0e6f 603e
00000030: e809 993b 4871 103e bd91 e53b f55b 45bb
00000040: 3b82 71bb 9078 12bc 69e5 cdbe a597 98bd
00000050: 18aa c03e 6c0c 8dbc a5e6 6b3d 486c c53e
00000060: b617 8abd b81b 9c3d 8fef 183e 7c35 4bbe
00000070: 9b9e 6cbe 4a08 dfbd 8268 453c 49b8 a6be
00000080: 6251 13be 2a44 bf3d 2377 a4bd 3599 ff3c
00000090: 1c3f c4ba fc9d a9bd 25e6 24be 108a af3f
000000a0: 4d9c f23d e075 8bbe 8b57 f6bd b715 0f3d
000000b0: 761c 433e 5061 60be ef28 b7bc 1526 88be
000000c0: 40bd 19bd 6032 ecbd 50ef ab3c 3778 8abe
000000d0: b582 bdbd adb7 cabd 0f9b c33d ac98 2c3e
000000e0: 4628 e93e 2656 46be 318a 08be c9ab ff3e
000000f0: 3545 263c ba12 8d3d ad7f 1c3d 1e04 51bd
00000100: 544e 983d eb7e bdbf 4590 e6bc 3850 a3be
00000110: 4696 b5be 818a c7bd b1f5 413e de30 0f3f
00000120: 900c c5bd 8634 0b3b 4a9d 7fbe 6069 1abe
00000130: 8720 cfbd a2c3 f8bc e3b7 b13c b249 7abc
00000140: d850 d63d 5170 edbc 89a2 9f3e 6145 053e
00000150: 0f7f e8be 4889 04be 12ca b63d b7ba fdbe
00000160: 9fa3 06be 86e7 b73d 9e4e f5bd 35bc 5f3e
00000170: d38f 623e 43fb 273e d28d 613d 0fd2 1c3e
00000180: 275a 843e a515 10be 42c3 133d b71d 14be
00000190: 7066 f0bd 2f39 56ba c5ff e1bc d737 aabf
000001a0: 0c3c 573c d966 523e 0eb4 5d3d f399 aebd
000001b0: 7173 abbe a6a3 583e d94c 133e c371 9f3e
000001c0: 744a df3c fa4d 0c3e ae95 6b3a 7529 bf3e
000001d0: ccb2 db3d 8d24 e63d f928 63be 3e60 16be
000001e0: 7538 02bf 57ef 0d3e 39a8 963d 7294 ddbe
000001f0: 60e8 1c3d fbe0 c63d 0d41 223e 8991 8c3d

fc_out.bias f4 [2]
0.037999377 -0.17765398
00000000: 3ca5 1b3d edea 35be
