model_ckpts/cric_prediction.pth (torch_old, 72191 bytes, 6 tensors)

lstm_cell.weight_ih f4 [256, 3]
000000 a0 e9 1f 3e 53 58 87 3f 10 b5 93 be 74 56 17 bd
       0.15616465 1.057383 -0.28849077 -0.036947682
000010 24 be 34 bc 2c bf 81 3f e4 3b 12 bf b2 f1 25 3e
       -0.011031661 1.0136466 -0.57122636 0.1620548
000020 aa 97 ba 3d 1a 1a cd 3e f3 5d 85 3f 8d 44 0d 3f
       0.09110959 0.40058976 1.0419296 0.55182725
000030 21 8a b6 3e 0a 22 b7 bd fa ed fc 3d f2 cc 33 3f
       0.3565226 -0.08942039 0.12350078 0.70234597
000040 1c fb d6 3c bd 39 3c 3e fc a4 b8 3e a6 a6 c2 3d
       0.026242785 0.183814 0.36063373 0.09504442
000050 1e 3b 37 3f 1c cc 6e 3d 4e 59 a4 3e 0f 28 42 be
       0.7157458 0.058300123 0.32099384 -0.18960594
000060 d2 29 6c 3e 1d 2a 0a be 19 5d 69 bd 2a a5 cf 3e
       0.23062828 -0.13492627 -0.05697355 0.40555698
000070 be 30 76 bf ca b9 20 3f f0 87 76 be 3e 33 3d bd
       -0.96168125 0.6278349 -0.24075294 -0.046191446
000080 e7 7a 81 3f 07 51 82 3d ae 4a 2b 3e 31 e2 84 3e
       1.0115632 0.06363111 0.16727707 0.2595382
000090 72 00 48 3e 68 0a 2f 3f 14 d0 25 3f 4e d5 4e 3e
       0.1953142 0.68375254 0.6477063 0.20198557
0000a0 78 a0 b8 3e 26 47 d4 3e 48 be a0 bd 06 1e 3a 3e
       0.36059928 0.41460532 -0.07848793 0.18175516
0000b0 17 d5 26 bf 64 67 f1 bd 12 24 a3 bf 0a 59 84 3d
       -0.651689 -0.11787298 -1.2745383 0.06462295
0000c0 1a ad 3e 3e 8a 59 6b 3e 5d 26 33 bf 6d a7 09 be
       0.1862072 0.22983375 -0.6998041 -0.13442774
0000d0 e2 b0 c7 3d ea 98 31 3f da a2 e2 3e b7 f3 34 3f
       0.097505346 0.69373953 0.4426487 0.7068438
0000e0 05 9b b4 3e af 34 4f be c5 aa bb bd e5 c4 29 3f
       0.3527452 -0.20234941 -0.09163431 0.6631606
0000f0 41 e9 18 be ee 9b 75 3e 01 9f 68 3f 5e 85 55 3e
       -0.1493273 0.23985264 0.9086762 0.20851657
000100 16 10 c1 be c9 b5 d0 3e b2 14 be 3e fd aa 30 3e
       -0.37707585 0.4076369 0.37125164 0.17252727
000110 ed db c6 be 93 18 93 bd 4e 20 53 3e 15 42 3d 3f
       -0.38839665 -0.071824215 0.20617792 0.7392896
000120 c3 f0 72 be 14 17 48 bb 00 20 36 3f ee 0b 50 3e
       -0.23724656 -0.0030531334 0.7114258 0.20317051
000130 73 d8 b5 3d f6 a9 16 bf e5 ee a6 be 1d 2a 92 3c
       0.08879175 -0.5885309 -0.32604137 0.017842347
000140 88 cb 1f 3f c8 2d 8a be 2f bb 89 be a2 97 bc bd
       0.6241994 -0.26988053 -0.26900622 -0.09208609
000150 b5 21 c4 3d 7d c5 10 bf af 32 52 bf b8 f1 84 3e
       0.095767416 -0.56551343 -0.8210859 0.25965667
000160 23 72 6f 3d 40 7f 24 3f 5d 71 da be ae fd ce 3e
       0.05845846 0.6425667 -0.42664614 0.40427917
000170 08 fe dc 3e 32 df a3 be 5e 3f 1e 3e c9 b1 40 3f
       0.4316256 -0.32006222 0.1545386 0.7527128
000180 8b 1c 0b be c5 a5 08 3f 85 99 18 3e 96 02 69 3e
       -0.13585107 0.53377944 0.14902313 0.22754893
000190 66 98 d1 be cb 9d 84 3e 4c 0f 18 3f f4 56 65 3e
       -0.40936583 0.25901636 0.5939834 0.22396451
0001a0 41 53 ba be 16 5d a8 3e eb 0b ee 3e a7 cc 6e bf
       -0.36391643 0.3288352 0.46493468 -0.93281025
0001b0 d1 87 cf 3e 40 ba c1 3d f4 8c 87 3f 05 b4 96 3e
       0.40533307 0.094593525 1.058989 0.2943422
0001c0 2f 9d d8 bd cd 7b 92 bf 38 13 50 3d 42 4f 27 c0
       -0.105768554 -1.1444031 0.05079958 -2.6142125
0001d0 c5 87 9a 3e 6e 0f 99 3e f3 3a 3c 3b 67 e6 f7 3e
       0.3018171 0.29894584 0.002872166 0.4841797
0001e0 6d 1d 81 3f 3a f5 a4 3e 41 f1 b5 be ae c8 9a be
       1.0087105 0.32218343 -0.35535625 -0.3023123
0001f0 fa c9 3f 3e 18 04 2b bf 94 24 25 3c b5 76 c2 bf
       0.18729392 -0.6680312 0.010079522 -1.5192477
000200 56 58 2b be 0a 1e 6f 3e 87 d7 d9 be 6e a1 3e bf
       -0.16732916 0.23351303 -0.42547247 -0.7446507
000210 68 36 18 be fb 57 ed 3e e1 d5 c4 3e 7c 35 b4 3e
       -0.14864504 0.46356186 0.38444427 0.35197055
000220 7f db 2c bc df 21 e2 3d 43 3a 80 be d5 66 8f be
       -0.010550379 0.11041617 -0.2504445 -0.28008142
000230 c9 56 0c 3f 25 3f b4 3e 52 83 ef 3e 39 17 ae bd
       0.54819924 0.35204425 0.46779877 -0.08500523
000240 fa aa 06 3f 2f d2 05 bd 2a ef 85 be 82 ba 2d be
       0.5260464 -0.03267115 -0.2615903 -0.16965678
000250 6c 42 b3 bd b0 a7 57 3e a9 5f 45 be b0 41 33 3e
       -0.08752903 0.21060061 -0.19274773 0.17505527
000260 f6 cf 32 3f 8e 5c 1b 3e d7 54 26 be f0 da ee bd
       0.69848573 0.15172026 -0.16243301 -0.11662853
000270 23 a4 c5 3e aa c9 97 3d 68 07 90 3f f0 31 3a be
       0.3860179 0.07411511 1.125226 -0.18183112
000280 fa 70 c2 3d 10 fe 8f 3e 1c 88 a8 bc 5d c3 f6 3f
       0.09494205 0.28123522 -0.020572715 1.927837
000290 9a 14 11 3f 18 20 e1 3d ec f0 b8 3e bc 49 1a bf
       0.5667206 0.109924495 0.3612131 -0.6026876
0002a0 4a a4 e6 3e 6b 9e f9 3e 74 02 28 3e ec d1 b1 3d
       0.45047218 0.48753676 0.16407186 0.086826175
0002b0 8e e5 a0 3d 28 ff 5a 3e be 2f 96 bd 2a 5a 35 3f
       0.07856284 0.21386397 -0.07333325 0.70840704
0002c0 d9 14 ac 3d ad 44 eb 3d de c0 37 bf ac 60 0e be
       0.08402414 0.11487708 -0.71778667 -0.13904065
0002d0 8b 38 c1 3d 78 8a cf bf 0a 65 c8 bf 48 75 d6 3c
       0.09434613 -1.6214132 -1.5655835 0.026178971
0002e0 20 7e 10 c0 02 85 c2 bd 10 f4 79 3e c2 31 40 bd
       -2.257698 -0.094980255 0.24409509 -0.046922453
0002f0 64 5e 47 3f 7f f9 aa be fb 02 52 3e b0 86 2d 3f
       0.77878404 -0.33393475 0.2050895 0.6778364
000300 0f 29 49 be 5e d3 e3 3c 76 e2 f3 bc 26 75 35 be
       -0.19644569 0.027810749 -0.02977107 -0.1772047
000310 b1 17 a6 be c5 c8 1a 3f db f9 d9 be 11 89 35 bf
       -0.3243995 0.604626 -0.42573437 -0.7091227
000320 59 58 3c 3d 90 6a 85 be 6d 7f aa 3e 4c 5e bb be
       0.045982692 -0.26057863 0.33300343 -0.3659538
000330 2d b0 02 3f 38 a1 93 3d 20 65 3e 3f 2f 0b 13 3f
       0.5105007 0.072084844 0.74373055 0.5743894
000340 bc 6c 28 3f f1 42 24 3f 18 21 85 be 6f f1 25 bf
       0.65790915 0.64164644 -0.2600181 -0.64821523
000350 85 a7 13 bf 46 0c 4f 3e c2 59 b0 bc dc a8 3e bf
       -0.5767749 0.20219526 -0.021527175 -0.7447641
000360 f0 0e bc 3e 68 7d d9 3d ce 33 a2 be 74 6d 01 3f
       0.36730146 0.106196225 -0.3168015 0.5055764
000370 52 c8 13 bf 86 69 3b 3f 6d 5b c6 bd 12 21 ec be
       -0.5772754 0.7320789 -0.09685407 -0.4611898
000380 f9 e5 0d 3f b1 24 a2 3e 51 c5 7a bd 94 e8 1c 3e
       0.55429035 0.31668618 -0.06122333 0.15323097
000390 d0 38 ea bd a9 24 4c 3e d8 b0 44 3f 0b 57 87 be
       -0.114366174 0.1993586 0.7683234 -0.26433596
0003a0 f2 77 8c be 0e d3 28 3f 74 9c 91 3e 68 8b 80 bd
       -0.2743526 0.65947044 0.28439677 -0.0627659
0003b0 b3 22 01 bf 3b 0e 50 be 73 af 48 bf fe 33 a1 3d
       -0.5044357 -0.20317928 -0.78392714 0.07871245
0003c0 de 77 78 3e 9d 20 c8 3e c3 be 2c bf 5c 41 18 be
       0.24264476 0.39087382 -0.6747858 -0.14868683
0003d0 b8 f0 0d bf 81 91 8a 3f 46 d7 52 be 84 fd a7 3e
       -0.5544543 1.0825654 -0.20589933 0.32810605
0003e0 29 9b 66 3f 04 0e be be 64 1a 59 bf f6 5c fc 3e
       0.90080506 -0.37120068 -0.84805894 0.49289674
0003f0 47 14 6e bd 6a 72 11 bf 73 59 21 3f 4b ac ac 3d
       -0.058124807 -0.56815207 0.63027114 0.084313

lstm_cell.weight_hh f4 [256, 64]
000000 e2 58 5e 3f 15 72 15 be 46 de 8c be 75 6d 94 3d
       0.86854374 -0.145943 -0.2751333 0.0724744
000010 17 e6 64 be 51 5e 66 be 13 b4 c2 be 2b b4 31 3e
       -0.22353397 -0.22496916 -0.3802801 0.17353885
000020 81 58 cf bd 75 4e ee 3e 04 c5 07 3f 4d a8 d4 3e
       -0.10124303 0.46544233 0.53034997 0.41534653
000030 1b 66 3a 3f 01 ec 27 3f 2a 9d 8d be 0e cd eb 3d
       0.7281205 0.6559449 -0.2765897 0.115137205
000040 eb a0 4a 3f f3 09 1d bf 37 2e 15 3f 15 6d 32 3e
       0.7915179 -0.61343306 0.58273643 0.17424424
000050 89 ce 49 3e 08 c2 37 bf a3 78 d4 3e 2d 94 f9 3e
       0.19707693 -0.71780443 0.4149829 0.48745862
000060 f2 61 2f bf 70 86 d5 3d d5 af 34 3e 1b c6 ed be
       -0.6850883 0.104260325 0.176452 -0.46440205
000070 d4 a1 0b bf 62 89 53 3e db bd 30 be eb 80 ad 3e
       -0.54543805 0.20657876 -0.17259924 0.3388742
000080 f4 54 d3 3e 57 f5 dc 3e dd b3 21 3e 4d 44 da 3c
       0.41275752 0.4315593 0.15791269 0.026643896
000090 b3 ab 47 3e 6f df 17 bf da 5c 7f bd 82 3f 3e be
       0.19499092 -0.5932531 -0.06234441 -0.18578914
0000a0 0c 88 3a bf f8 e6 ca 3e 97 ab 88 3e 68 76 8a 3e
       -0.7286384 0.3962934 0.26693413 0.27043462
0000b0 12 47 1f 3f 98 78 ba be 83 8d 3b bd 1c 09 75 3e
       0.6221782 -0.3642013 -0.045789253 0.23929256
0000c0 9c ad 84 3e 21 0f ed 3e c1 ac e7 3e 3a 3a fe 3d
       0.25913703 0.46300605 0.45248988 0.124134496
0000d0 d2 31 73 be b4 31 c1 be a6 91 c3 bc 84 9d 15 3f
       -0.23749474 -0.37733233 -0.023873162 0.58443475
0000e0 5b d4 31 be 64 cf c9 3e 12 8e f9 3e 7e 3d 28 be
       -0.17366163 0.3941604 0.48741204 -0.16429707
0000f0 3d d8 46 3e b8 e5 8d 3e 40 6f e3 be b0 d5 d9 3e
       0.19418426 0.27714324 -0.44420815 0.42545843
000100 61 46 db 3e 6c 65 b3 be 74 3a aa be 71 31 0b 3f
       0.42827132 -0.35038316 -0.3324772 0.54372317
000110 d8 17 52 be 32 0d 5b be fc f0 98 3e 9a 12 d8 be
       -0.20516908 -0.21391752 0.29871356 -0.42201692
000120 ff 88 05 be ec 69 0d be 67 13 60 3d 98 da 71 be
       -0.13040541 -0.13809937 0.054706004 -0.23618543
000130 f9 01 6d bd ef 64 33 3e dd e4 05 3f 73 b1 33 be
       -0.05786321 0.17518972 0.5230234 -0.1754816
000140 ac c9 9f be c6 ad e2 3b b1 21 3a 3e aa 09 db 3d
       -0.3120855 0.006917688 0.18176915 0.10695203
000150 3e ee e0 be 1f 01 21 ba 71 de 4f bf 88 44 b0 3c
       -0.43931764 -0.00061418297 -0.81198794 0.021517053
000160 23 cd 58 be 46 05 c8 be 54 f7 58 3e dc fa a9 be
       -0.21172003 -0.39066523 0.21188098 -0.33199203
000170 ae e0 6b be 2d b7 e7 be 4a 02 31 bf 51 60 00 3e
       -0.23034927 -0.4525694 -0.6914412 0.12536742
000180 ac 19 7c be a2 9a a0 3e a3 ab 4e be 5f 1b 33 bf
       -0.24619168 0.31367975 -0.20182662 -0.6996364
000190 17 b9 93 ba d2 1f 50 3e e7 1f dc be 2c fb 9d bd
       -0.0011270371 0.20324638 -0.4299309 -0.07713923
0001a0 6f 37 53 3e e7 99 02 be 5b 9c b7 3e 9d c0 6a be
       0.20626615 -0.12754022 0.35861477 -0.22925039
0001b0 d9 fd ca 3d c6 aa 07 3e c7 e4 91 bd 84 dc 7c bf
       0.09911699 0.13248739 -0.07123714 -0.9877398
0001c0 30 f3 01 bf 4f 08 8b 3d ba 97 2c 3e e6 c0 3c 3d
       -0.507617 0.06788694 0.16854754 0.0460824
0001d0 b8 c6 8c 3e 0c 62 0b be a0 20 64 be cf 50 9f be
       0.2749536 -0.1361162 -0.2227807 -0.3111634
0001e0 db fa 35 bf 65 e3 34 bf 42 f9 34 3e ba f4 88 be
       -0.710859 -0.70659477 0.1767321 -0.26749212
0001f0 dd 4e 61 be 0d 08 25 3f 51 3c dc bd 77 bf 22 3e
       -0.2200274 0.6446541 -0.10753692 0.1589335
000200 8a 0e a1 be b2 e0 35 3d da aa 5b bf a7 6c 50 bf
       -0.31456405 0.04440374 -0.85807574 -0.8141579
000210 46 ec 9d 3f 94 43 5e 3f d5 9d 63 be 01 e0 f9 bc
       1.233773 0.86821866 -0.22228177 -0.030502321
000220 8c 9e ef 3d 69 06 14 bf ed c8 bb bd d5 f3 ee 3d
       0.11700162 -0.5782228 -0.09169183 0.11667601
000230 dd 2b 78 bd 8c 0e c5 3d 49 31 3e 3e ff ff 26 3e
       -0.060588706 0.09621915 0.18573488 0.16308592
000240 bc 72 82 3e 63 7f 02 3e 88 dd 74 bd d8 98 4d 3e
       0.2547816 0.12743907 -0.05978158 0.20077837
000250 d7 54 5c be bf 06 4d be 42 65 6b 3e 07 a7 a4 3d
       -0.21516739 -0.20022105 0.22987846 0.080396704
000260 1c 93 df bd 42 6f 2d be 09 fb 93 bd 7d 27 25 3d
       -0.10916731 -0.16936973 -0.072256155 0.040320862
000270 ec 0b ab 3e dd 9d a2 3e 22 15 44 3e de 33 58 3d
       0.33407533 0.31761065 0.19148687 0.05278384
000280 93 e1 7d 3e 15 c5 cf be a5 71 05 3f b0 29 0d bf
       0.24793081 -0.4058005 0.5212653 -0.55141735
000290 66 4d 83 3e 74 2f 3e bf 85 21 48 bd 69 19 b2 be
       0.25644988 -0.7429116 -0.04886009 -0.3478501
0002a0 27 6a d8 3d c1 82 ce 3d 87 78 e6 3e 8f a2 b2 3d
       0.10567122 0.10083533 0.4501383 0.08722412
0002b0 84 d3 b7 bc 68 58 0e bf a0 06 dc be 4c 94 bc bc
       -0.022439726 -0.5560365 -0.42973804 -0.023019932
0002c0 e6 d0 73 3d ad 4e 41 3e 23 d1 0d 3e e3 70 8c bf
       0.059525393 0.18877669 0.1384931 -1.097195
0002d0 dd 10 e9 3d 97 56 d2 3b 9f ed e5 bd fc dd 8f 3e
       0.113801695 0.0064190137 -0.11226963 0.28099048
0002e0 11 fd 52 3c c0 bd 2a 3e f6 5e 43 bd a6 67 53 be
       0.012877719 0.16673946 -0.047697984 -0.20645007
0002f0 7e ae b3 3d 3b 61 e5 3e 40 53 0a bf e8 23 57 3d
       0.08773516 0.44800743 -0.5403328 0.052524477
000300 a5 15 7e 3e 71 a1 a3 bd 34 85 e2 3e ae d8 09 3f
       0.24812944 -0.07989777 0.4424225 0.5384625
000310 a8 8e 85 be 6f 10 9e 3e ea 99 7c be 83 10 03 3f
       -0.260854 0.30871913 -0.24668089 0.5119707
000320 67 0e 47 3e b4 6d 1b 3e ed 0c f5 3d d3 d0 2f 3f
       0.19439088 0.15178567 0.11965356 0.68678015
000330 d3 d8 ae 3e 05 e0 1c 3d 72 4d c7 be 95 6e 71 3e
       0.341498 0.03829958 -0.38926274 0.2357734
000340 4d 6e 3b 3e 81 1c b8 be fb 33 62 3e 45 ed cb be
       0.18303795 -0.35959247 0.22090141 -0.3982946
000350 32 12 2a 3e b7 70 05 bf d6 51 25 3f 42 57 8c 3e
       0.16608503 -0.52125114 0.64577997 0.27410322
000360 80 a1 af bd e5 33 be be 69 3b 0c be 6c 4e ea bb
       -0.085757256 -0.37148967 -0.13694538 -0.007150462
000370 4b 64 e5 3d 6b 0e 20 3f b6 2e 04 3f 38 25 22 be
       0.1120077 0.62522 0.51633775 -0.1583451
000380 c2 c9 7f 3c 0c 65 c2 be 43 80 de bd 9b d2 b8 3d
       0.015612068 -0.37967718 -0.10864308 0.09024545
000390 13 eb e3 3e db ba 40 bf de 32 b4 bd 08 19 d5 be
       0.44515285 -0.7528512 -0.08798765 -0.4162066
0003a0 61 2a d4 3d b4 7a 87 3c 2e 1d 2b be 17 7b 38 bd
       0.10359646 0.016538002 -0.1671035 -0.045039263
0003b0 f9 a1 ad 3e e2 df 94 be bf 0d 84 3e 06 aa 10 3f
       0.33912638 -0.2907706 0.25791737 0.56509435
0003c0 d7 76 87 3e 4e 23 24 3f ac c6 a1 3e ae 9e c7 be
       0.26457855 0.6411637 0.31596887 -0.3898825
0003d0 f0 48 82 be da c4 0e be f8 5f 07 3d 36 a6 40 3f
       -0.25446272 -0.1394228 0.033050507 0.7525362
0003e0 d8 e1 41 be 4c 13 21 3f a8 39 97 3e f3 b2 d7 be
       -0.18933809 0.6292007 0.29536176 -0.42128715
0003f0 d4 a8 83 be c7 e9 0e 3e 1c 80 26 bf 0b 14 ce 3d
       -0.25714743 0.13956366 -0.6503923 0.10062417

lstm_cell.bias_ih f4 [256]
000000 b1 6b e4 be 3d 4c 26 be 01 2c 10 be af 1b 83 3d
       -0.44613412 -0.1624002 -0.14079286 0.064017646
000010 96 11 12 be d6 b2 ea be 99 55 34 3d 3e 3f fc bc
       -0.14264521 -0.45839566 0.044026945 -0.030791875
000020 b1 b2 fb 3d 50 b3 19 bf a5 a1 b3 be 39 f7 6b be
       0.12289942 -0.60039234 -0.35084262 -0.23043527
000030 bd ef 29 be 60 55 33 3d f6 00 97 be bb 8e eb be
       -0.16595359 0.04378259 -0.2949292 -0.46007332
000040 b5 82 13 bd 83 14 27 be 65 a7 80 be a4 12 6c 3d
       -0.036013324 -0.16316418 -0.25127712 0.057634965
000050 a9 94 c3 be 18 21 09 bd ce ff 9a 3e cd 46 e2 bd
       -0.38199356 -0.033478826 0.30273288 -0.110486604
000060 76 d5 6e be b8 71 ba be d3 e5 a0 be 6c 4d a1 be
       -0.23323616 -0.36414886 -0.31425342 -0.3150438
000070 bf 93 1c be 29 9d 1c 3d 1b 93 5d be 29 ef ea ba
       -0.15290736 0.038235817 -0.21638148 -0.0017924058
000080 bf 7b 6d bd 56 34 d9 be 6b 85 8f be 3f 1a 0f bf
       -0.05797934 -0.42422742 -0.28031477 -0.55899423
000090 54 86 c3 bd e9 fd 82 be d9 58 f1 be 64 12 69 be
       -0.095471054 -0.25584343 -0.47138098 -0.22760922
0000a0 17 99 41 bf 12 00 45 be bf 9b 73 be 01 50 5a be
       -0.7562422 -0.19238308 -0.23789881 -0.21319582
0000b0 87 b7 0a be 6b 0d a6 be 0e 17 af bd 14 17 22 bf
       -0.13546573 -0.32432112 -0.08549319 -0.63316464
0000c0 0d 06 1b bf 51 73 dc bd 0d c5 89 be 5f 45 13 bf
       -0.6055611 -0.10764182 -0.2690815 -0.57527727
0000d0 4f 51 f7 be fd dd 99 be 98 c0 1b bf cf d8 24 3e
       -0.4830422 -0.30052176 -0.6084075 0.16098331
0000e0 09 e7 ae be 22 b5 8f bd 54 28 1c be 2f 38 2f be
       -0.3416064 -0.0701697 -0.15249759 -0.17111276
0000f0 ca 71 c8 be 20 f3 8e be 78 94 84 bd 4a f4 7b be
       -0.39149314 -0.27919865 -0.06473631 -0.24604908
000100 85 ab f1 bc 81 09 44 bd 3f 81 24 3e 5f 0c 27 3e
       -0.029500732 -0.047860626 0.16064928 0.16313313
000110 0f 35 7d 3d d8 96 f7 3c f3 40 10 bd b4 d3 de bd
       0.06181818 0.030223295 -0.03521819 -0.10880223
000120 d3 cb b0 3d 31 5e b5 bd ae a7 39 be 08 81 84 3e
       0.086326264 -0.08855856 -0.18130371 0.25879693
000130 91 5d fd 3d 72 f0 74 3c 3c a5 cb 3d bb a8 67 be
       0.12371362 0.014949905 0.09943625 -0.2262296
000140 52 95 dc 3e a4 a9 94 bd ef bd d2 3d 99 10 b0 3d
       0.43082672 -0.07258919 0.10290133 0.08596916
000150 e4 07 d6 be a8 df 84 3d 94 2a 21 3e 71 f0 72 bd
       -0.41802895 0.064879715 0.15738899 -0.059311334
000160 6a c7 44 be 10 2d 9c bd d0 8d 39 be 87 3d 1d be
       -0.19216695 -0.076257825 -0.18120503 -0.15355502
000170 00 53 a5 3e 6f 5f 90 3e 56 b3 fb bc f6 a8 a7 3d
       0.32289886 0.2819781 -0.030725162 0.081865236
000180 59 17 e6 3a ab 2e b1 bd 18 25 bf 3e ef 43 86 3d
       0.0017554566 -0.08651479 0.37332988 0.06555926
000190 78 dc 07 be d7 2f 11 bd fc a2 f9 bd ab 52 42 be
       -0.13267696 -0.035446014 -0.1218929 -0.18976848
0001a0 63 e3 db 3d af a7 69 be a9 e5 5c bd b8 1e 3c bd
       0.1073673 -0.22817872 -0.05392996 -0.045927733
0001b0 5d 5c 5a bd 20 6b b0 3d ec 4b 2d 3d 21 48 cc 3e
       -0.05331074 0.086141825 0.042308733 0.3989878
0001c0 55 70 c6 3d 11 72 2b bd 3d 3d d4 bc c0 1e 27 be
       0.096893944 -0.04185683 -0.025908107 -0.16320324
0001d0 d8 70 ce bc c1 78 c8 bd aa da 4b 3e 33 b5 4d 3d
       -0.025200292 -0.09788657 0.19907632 0.050221633
0001e0 ec 2b 27 bc bf 96 9a 3d 44 7e 78 3e 62 5f f2 bd
       -0.010203343 0.07548284 0.24266917 -0.11834599
0001f0 f6 c8 44 be 86 7e b1 bd 2e bc ae 3d 5d f7 81 be
       -0.19217286 -0.086667106 0.08531986 -0.25384036
000200 06 32 85 3d 34 59 19 be e8 32 8b 3d ad 43 40 be
       0.06503682 -0.14975435 0.06796819 -0.18775816
000210 3b ee c8 3e 7e 15 80 3d 0f a9 56 3d c1 c0 7f 3d
       0.39244255 0.06254099 0.05240732 0.062439684
000220 a2 28 a1 3c e7 9a 20 be 64 15 df 3d ca ac b2 bd
       0.019672696 -0.1568409 0.10892752 -0.08724363
000230 f8 0a 9b bc ff e2 65 3d b5 bd e4 bd d8 a9 56 3d
       -0.018926129 0.056124683 -0.11168996 0.05240807
000240 86 1c 09 be ab dd 80 3d e7 73 0d be db 0b 9e bc
       -0.13389787 0.0629228 -0.13813744 -0.019292763
000250 cb be 11 bd 54 8e 1a 3e 3d 75 30 3d f4 0f 8e 3d
       -0.035582345 0.15093356 0.043080557 0.069366366
000260 0d b9 49 bb c2 40 54 bd 9b ba 3b bd 44 d3 04 3d
       -0.0030780465 -0.05181957 -0.045832258 0.03242804
000270 11 03 bf 3d 95 6b 94 3d d7 5d 5a bd 01 b7 bc 3c
       0.09326757 0.07247082 -0.05331215 0.023036482
000280 b8 47 4e bd e3 42 8c be f4 a7 24 3e 3f 9f c7 bc
       -0.050361365 -0.2739478 0.16079694 -0.024367927
000290 ac da 8c 3d 5c 24 cd 3d 97 5e 8f 3d 3f 57 dc 3d
       0.06877646 0.100167006 0.070004635 0.10758828
0002a0 3f 4a 18 bd f0 d9 d7 3a 47 bf 27 3e 11 74 b1 3d
       -0.03718018 0.0016468149 0.1638156 0.08664716
0002b0 93 fa 3e be 92 ef f7 bb 0a 99 0f 3d 0e bf ff bd
       -0.18650274 -0.007566401 0.03505806 -0.12487613
0002c0 41 74 8e bd df 60 79 bd 9c 73 91 bd 9f 82 04 be
       -0.069557674 -0.0608834 -0.07102129 -0.12940453
0002d0 d8 17 f0 3c 13 24 2c 3c 7f 00 bd 3d 8a 1f c1 bd
       0.029308245 0.010506648 0.0922861 -0.09429844
0002e0 04 e3 05 bd 4b d0 d9 bd ef 75 10 be 26 12 53 bd
       -0.032687202 -0.10635432 -0.14107488 -0.05153098
0002f0 95 5d 48 be 87 c4 08 3e 68 cb ab 3d b9 2f 6f bd
       -0.19566949 0.13356219 0.08388406 -0.05839512
000300 e6 57 f1 3c 76 f6 e4 be 6d 58 1b 3d e7 fd 1c 3e
       0.029460859 -0.44719285 0.037926126 0.15331231
000310 3f 0d 22 3f a1 61 cc 3d 42 6f 53 3e e8 f3 ea be
       0.6330146 0.09979559 0.2064791 -0.4588921
000320 0e e3 a0 bc 9f b9 53 3c a5 fa aa be 5b c7 55 be
       -0.019639518 0.0129226735 -0.33394352 -0.2087683
000330 8f 7c 3c 3d 19 47 01 bf bb d9 8c be 6d 29 ec 3d
       0.046017226 -0.5049911 -0.27509865 0.11531339
000340 a4 42 2c 3e 8f 71 c1 be 1b ba 4e be ca 18 e7 bd
       0.16822296 -0.3778195 -0.20188181 -0.11284025
000350 f8 bf aa be 2f fe c2 3c cd ba 9f bd c4 7e 59 bc
       -0.33349586 0.023802845 -0.07799301 -0.013274852
000360 8f e8 95 be e7 bc 8d be 4d 4f dc be de a2 b2 be
       -0.2927899 -0.27683184 -0.43029252 -0.34889883
000370 1c c5 46 3e d4 e8 ce bd af b5 a2 be 31 3c bf be
       0.19411129 -0.10103002 -0.3177924 -0.3735061
000380 9e 91 3b be 61 94 d8 3d 3f 72 1a 3e ca f8 6f bd
       -0.18317267 0.10575176 0.15082644 -0.058586873
000390 4d ec a7 be e6 68 82 3e ea 12 68 be 81 f6 37 3e
       -0.3279747 0.25470656 -0.22663465 0.17965128
0003a0 38 3e 39 3d 65 51 99 be 25 1d 9c bd 93 0e 38 3d
       0.045225352 -0.29944912 -0.076227464 0.044935774
0003b0 f6 f2 b4 bd 04 b1 1c 3d 18 d1 b3 bd 43 a2 14 3f
       -0.088354036 0.038254753 -0.08780116 0.5806009
0003c0 0d 78 98 3d 06 e0 02 3e b8 fe 3b be 2a d1 8f 3e
       0.07444773 0.1278077 -0.18358886 0.28089267
0003d0 5a 3c 86 be 00 90 3c be 7f c1 03 3d 4f 74 d3 3d
       -0.2621792 -0.18414307 0.032166954 0.103249185
0003e0 37 22 c0 bd 54 1c bc 3e 93 e7 c4 bd d0 a4 1a bf
       -0.09381526 0.36740363 -0.09614482 -0.60407734
0003f0 77 82 a3 bd 8b 16 73 be b8 5c f9 bd 1f b0 04 be
       -0.079838686 -0.23739068 -0.12175888 -0.1295781

lstm_cell.bias_hh f4 [256]
000000 19 30 be be ce 34 16 be b4 a6 a1 be f3 1a 2f be
       -0.3714607 -0.14668581 -0.31572497 -0.17100124
000010 59 c1 eb bd 9e 07 bf be a0 e6 4e 3e 92 19 9a 3d
       -0.115114875 -0.373105 0.20205164 0.075244084
000020 f4 eb 33 3e 36 06 06 bf 19 5c b2 be 88 05 8d be
       0.17570478 -0.5235323 -0.3483589 -0.27543283
000030 c4 e8 ad bc 10 d2 4f 3c 8d 24 37 be 81 4b 0d bf
       -0.021229155 0.01268436 -0.17885037 -0.55193335
000040 80 ad c4 bd c4 23 89 be bd 16 06 be 48 13 4e bd
       -0.09603405 -0.267851 -0.13094611 -0.050311357
000050 45 f8 dd be ff 9a 49 bd c4 93 a8 3e b7 f2 49 be
       -0.43353477 -0.04922008 0.32925236 -0.19721495
000060 5d 65 c3 be 70 93 79 be b5 38 bf be 2a 69 9b be
       -0.38163272 -0.24372649 -0.37347952 -0.3035367
000070 4d 69 2c bd 1d c0 93 3d cb 6d e1 bd 96 05 1b be
       -0.04209261 0.07214377 -0.110072695 -0.1513885
000080 ba 97 0e be d6 65 eb be 39 c5 6e be 6b a7 d9 be
       -0.13925067 -0.45976132 -0.23317422 -0.42510542
000090 77 1a 1a be 72 08 8a be 3f a6 ee be 6e 87 a8 be
       -0.15049158 -0.26959568 -0.4661121 -0.32915825
0000a0 7d 14 3e bf 46 a0 87 be 3a ce 47 be 1f 46 1e be
       -0.7425001 -0.26489466 -0.19512263 -0.15456437
0000b0 53 0b 22 be 59 fd 6b be 6e 7a 9a 3d ee 76 30 bf
       -0.15824632 -0.23045863 0.07542883 -0.6893147
0000c0 77 81 4b bf ce 22 b7 bd 38 2d af be c1 c6 37 bf
       -0.7949442 -0.08942185 -0.34214187 -0.7178765
0000d0 c4 7c 26 bf 34 b4 6c be f0 05 12 bf 2b b7 3a 3d
       -0.6503413 -0.23115617 -0.5704031 0.04558484
0000e0 e9 0b b2 be 80 25 86 bd 20 8c 5e bd 97 df 93 be
       -0.34774712 -0.06550121 -0.054332852 -0.28881523
0000f0 e0 1a a9 be 25 60 98 be 0f 00 1f 3e b3 59 87 be
       -0.33028316 -0.29760852 0.15527366 -0.26435623
000100 a0 97 1d be d5 a6 b0 bd 48 0f 46 3d 6d a4 a2 3d
       -0.15389872 -0.08625571 0.048354417 0.07941518
000110 b3 42 58 3c 5e 95 4b be 02 2e 80 3d e7 b5 25 be
       0.013199496 -0.19881198 0.06258775 -0.16182671
000120 a3 ab cf bd 6c eb 5b bd f7 5d 1c be 10 85 6f 3e
       -0.10140159 -0.053691313 -0.1527022 0.23390603
000130 38 57 9a 3d f9 4d 99 3d ff de 32 3e 4b 7d da bd
       0.07536167 0.07485575 0.17467879 -0.10668429
000140 ca 99 48 3e f3 38 0c be 8f 13 65 3e 27 84 4e 3d
       0.19589916 -0.136936 0.22370742 0.050419
000150 0e 13 86 be 52 4f c5 3d b6 37 99 3d 91 1b 04 be
       -0.26186413 0.0963427 0.07481329 -0.12901141
000160 bc 67 32 be fb 4b 19 be b5 87 8c be 39 25 2c be
       -0.17422384 -0.1497039 -0.27447286 -0.16811074
000170 57 7b 13 3e 92 02 fd 3d 94 e3 ee bd 7a 54 cc bd
       0.14402519 0.12354006 -0.11664501 -0.0997705
000180 ba 7e 08 be 55 10 21 be aa e9 71 3e 53 63 18 3d
       -0.13329592 -0.15728886 0.23624292 0.037204098
000190 a1 ac 22 bd 66 7d 12 3e 89 7e 31 be 17 49 8d be
       -0.039715413 0.14305648 -0.17333426 -0.27594826
0001a0 1d 4d f2 3d 02 06 a4 be 64 19 ef bd 97 37 48 3d
       0.118311144 -0.32035834 -0.11674765 0.04888114
0001b0 a5 98 dd 3d 04 dd ba bd e7 94 94 bc 85 98 a9 3e
       0.1082013 -0.09124187 -0.018137408 0.33124176
0001c0 e5 5a 0a 3e 43 7f 3e bd 2e 7b 7c bd 96 2d 28 be
       0.13511236 -0.046508085 -0.06164091 -0.1642364
0001d0 c9 56 10 be dd 6d 15 be eb 19 ad 3e 4f dc f4 3d
       -0.14095606 -0.14592691 0.33808836 0.11956083
0001e0 59 43 74 be 03 6e a2 3d 0b 1c 6c 3e 8f 9c 1e 3d
       -0.23853816 0.07931139 0.23057573 0.038723525
0001f0 50 c2 18 be 77 54 3b be 6d b1 1a 3d 30 73 3e be
       -0.14917874 -0.1829394 0.037766863 -0.18598628
000200 07 f6 57 3c 98 fb 13 be fb 57 9b bd 8d 69 2a bd
       0.013181216 -0.14451444 -0.0758514 -0.041604567
000210 33 ef 24 3e e0 15 58 3d e2 eb 42 3d 28 49 f5 3d
       0.16106872 0.052755237 0.047588237 0.11976844
000220 af a2 17 be d3 06 15 be 09 e0 50 3d 0a 70 8e 3c
       -0.14808153 -0.14553384 0.050994907 0.017387409
000230 2b 34 c9 bd aa 98 10 bc be 58 9f 3d 58 79 b6 bd
       -0.098244034 -0.00882546 0.07780598 -0.08909863
000240 64 ff 27 be be d6 26 3e 84 9b 82 bd bd be ed bc
       -0.16406018 0.16292855 -0.063773185 -0.029021615
000250 b9 46 54 3e 49 d8 37 3e 74 50 b2 3d 0f 06 91 bd
       0.20730104 0.179536 0.087067515 -0.07081234
000260 b5 20 0f bc 85 92 d8 3c e1 b7 2d 3e b3 4b a8 3d
       -0.008735825 0.026437053 0.16964675 0.082175635
000270 08 f7 6c 3c e8 2c 1d 3d f5 ec 0f 3d a8 52 ae 3d
       0.014463194 0.038372904 0.03513809 0.08511859
000280 ac 9e 67 bd c6 5a 54 be 4f 95 0a bd fd 4c 20 3e
       -0.056547806 -0.20737752 -0.033833798 0.15654369
000290 38 2b 90 bd 2a 25 6b 3d dd 19 50 3d 5a 67 87 3c
       -0.07039493 0.05740849 0.050805915 0.016528774
0002a0 69 90 46 3a 7d 90 0a be f7 34 28 3c fc bb be bd
       0.00075746194 -0.1353168 0.010266534 -0.09313199
0002b0 d8 9f 8d bd 40 1f 9d bd 2d 2e 86 bd ed 7c 35 be
       -0.069152534 -0.07671976 -0.06551776 -0.17723437
0002c0 90 37 a6 bd de bb 0e be d9 c4 f4 bc 19 b0 30 be
       -0.081160665 -0.13938853 -0.02987902 -0.17254676
0002d0 34 cb cf 3d a9 ec ea ba 15 83 41 3e 68 57 66 be
       0.1014618 -0.0017923313 0.1889766 -0.2249428
0002e0 ba 99 9b bc d6 f1 9b bc e5 05 97 bd 47 d6 55 3d
       -0.018994201 -0.019036215 -0.07374171 0.052206304
0002f0 5f 28 32 be aa 71 ad 3d a8 5f 3c 3e 31 0f 1f be
       -0.17398213 0.08468945 0.18395865 -0.15533139
000300 02 30 68 3d 9c fc d5 be 94 7f ba 3d 93 ae 97 3d
       0.05668641 -0.41794288 0.09106365 0.07406344
000310 ec ca fb 3e 69 89 36 ba 94 d6 0e 3e 01 8c 04 bf
       0.49178255 -0.0006963225 0.13949043 -0.5177613
000320 02 7f 4a bb cf 85 60 3d 30 f5 95 be e9 31 92 bd
       -0.0030898456 0.05481511 -0.29288626 -0.07138426
000330 76 f6 1b be 05 13 ca be d3 af 97 be 57 90 a1 3d
       -0.15230736 -0.39467636 -0.2962633 0.07888859
000340 92 42 e4 3d f1 27 90 be 73 5c 15 be ec 39 d4 ba
       0.1114551 -0.28155473 -0.14586048 -0.0016191578
000350 fa f4 f2 be 5a 7d 0c be 57 20 d1 3d a5 61 38 be
       -0.47452527 -0.13719693 0.102112465 -0.18005998
000360 ea ae 83 be e9 5c c3 be b5 22 d9 be d8 f9 e2 be
       -0.25719386 -0.38156822 -0.42409292 -0.4433124
000370 e2 fd d3 3e 7c 00 1a be 0b 92 88 be 71 7c 8e be
       0.41404635 -0.15039247 -0.26673922 -0.27829316
000380 c7 bd 9a bc 11 e4 fa 3d d4 9d 80 3e f4 29 3d be
       -0.018889321 0.122505315 0.25120413 -0.18473035
000390 b3 10 0b bf c3 ef 7b 3e 32 59 83 be 63 4d 1c 3e
       -0.54322356 0.2460318 -0.25653988 0.15263896
0003a0 1a 73 b8 3d 7d 7a bd be 3d 8b f1 bd 20 8b 37 bb
       0.09006329 -0.37007514 -0.11794136 -0.002800651
0003b0 7a 0c 18 be d9 f7 ba bc 92 ce 89 be 6f f1 09 3f
       -0.1484851 -0.022823261 -0.26915413 0.53884023
0003c0 d1 c6 a2 3c 51 d4 75 bd 4d f7 93 be da 0a e4 3d
       0.019870194 -0.060016934 -0.28899613 0.11134882
0003d0 e6 08 96 be 32 52 0e be 34 c2 4f 3e 23 54 9b 3d
       -0.29303664 -0.13898543 0.20288926 0.07584407
0003e0 96 d7 7d be c5 8b 6a 3e ca b7 82 bd d3 d2 ff be
       -0.24789271 0.2290488 -0.06382711 -0.49965534
0003f0 99 98 92 bd 54 ad e3 be c2 54 97 be 4e 59 ba be
       -0.07158012 -0.44468176 -0.29556853 -0.3639626

fc_out.weight f4 [2, 64]
000000 25 a3 bb 3c 8a b2 de 3c b4 8e fc 3d d7 42 69 3e
       0.022904942 0.027184743 0.12331906 0.22779404
000010 c7 af b0 be f7 3f 8e be 35 c6 4b 3c ba 01 e1 bd
       -0.34509107 -0.27783176 0.012437393 -0.109866574
000020 70 4b 49 be e2 99 e6 3e fa 3a 45 be 0e 42 ee 3c
       -0.19657683 0.45039278 -0.19260779 0.029084232
000030 b4 a4 0d be 05 0d d2 3d d1 80 ad 3d ec 63 44 3c
       -0.1383236 0.102563895 0.084718354 0.011986714
000040 da 67 3e be 56 e5 55 3e 05 0a c8 be e8 d6 b9 bd
       -0.18594304 0.20888266 -0.39070144 -0.09074193
000050 35 fe e0 3c 8a 88 48 3d be 8f 3e 3d ef a5 86 bd
       0.027464965 0.04895834 0.046523802 -0.06574618
000060 4e ff 09 3e 58 6c 2e 3d a5 0e ff bd 3e 12 2d 3e
       0.13476297 0.042583793 -0.12453965 0.1690149
000070 04 03 6a bd 8f 29 3f bd 5a c3 13 3c 78 b9 d1 bd
       -0.057131782 -0.046670493 0.009018743 -0.102404535
000080 b7 a6 5b be 9a ed 00 3f 73 d5 00 be 96 eb b5 3e
       -0.21450315 0.5036255 -0.12581424 0.355313
000090 5d b7 f6 3d d9 66 5e 3b 08 12 d9 3e 57 e6 04 3f
       0.120466925 0.0033935814 0.4239657 0.5191397
0000a0 c0 f6 a3 be ea cc ac bd 92 4c c6 be 44 1e d5 3c
       -0.32024193 -0.08437522 -0.38730294 0.026015408
0000b0 3f 2f 85 be 90 6a 84 3d c5 83 d4 3d cd 08 03 3f
       -0.26012608 0.06465638 0.103766955 0.51185304
0000c0 4a b5 0e 3e e3 61 b7 3d 59 83 44 be 86 ab da 3e
       0.13936344 0.08954217 -0.1919073 0.42708987
0000d0 53 66 2f bf 32 2d 45 3e 34 28 0e 3f 8c bd af 3d
       -0.6851551 0.19255522 0.55530095 0.08581075
0000e0 ba 48 89 3f 4b 6c dc 3d d7 77 c6 bd 46 77 16 bd
       1.0725319 0.10762843 -0.096908264 -0.03673484
0000f0 3d 92 28 3e 32 03 66 3d 08 fa 54 3c b2 53 78 bd
       0.16462035 0.05615539 0.012999065 -0.060626693
000100 65 4d fc 3d b5 c0 b4 bc 4f b4 da bd b6 1b 1a be
       0.12319449 -0.022064546 -0.106789224 -0.15049633
000110 88 5d cf 3e bd 0a 8d 3e 46 5e 14 be 0e 8c 8f 3c
       0.40501046 0.27547255 -0.14489087 0.017522838
000120 6c c0 81 3d 9e 79 04 bf 0c 67 5c 3e e2 fe d6 3d
       0.0633553 -0.51748073 0.21523684 0.10497834
000130 b0 e1 07 3e c0 a7 a7 3c a5 06 ec 3a bf ee d0 bc
       0.13269687 0.020465732 0.0018007351 -0.025504468
000140 51 be b7 3d a3 d6 99 bd d3 d2 74 3e 2a d7 47 3d
       0.08971847 -0.07511642 0.23908548 0.04878918
000150 2d 3f ca bd e9 bb 46 3d 5e 6f 2f b9 bf 5c e0 3d
       -0.09875331 0.04851905 -0.00016730788 0.1095519
000160 7f 17 f6 bc 57 11 8c bd 6a 9f 2c 3e 74 a9 37 be
       -0.0300405 -0.06839245 0.16857687 -0.17935735
000170 af 56 95 3e 79 80 2c 3d fc 4a 68 3b 33 9a b6 bc
       0.29167697 0.04211471 0.0035445085 -0.022290325
000180 9c 36 b1 3d c0 7d d1 be 9c 2b 5a 3e 95 b1 a8 be
       0.08652994 -0.40916252 0.21305698 -0.32947984
000190 dc 8d d3 3d 6f 01 a8 3a b6 50 da be 31 23 e3 be
       0.10329792 0.001281781 -0.42639703 -0.44362786
0001a0 41 5e a5 3e c3 df 5e 3d a0 38 aa 3e 23 65 20 3d
       0.32298473 0.054412615 0.33246326 0.03915895
0001b0 15 78 0c 3e bb 7a 10 be 14 26 a1 bd 55 8f b5 be
       0.13717683 -0.14109318 -0.07868591 -0.35460916
0001c0 06 90 88 be 47 66 62 bd ae 57 3a 3d 8e c8 e8 be
       -0.2667238 -0.05527332 0.045493774 -0.4546551
0001d0 21 56 25 3f fa f9 84 be 08 02 02 bf b2 d6 8c 3d
       0.6458455 -0.25971967 -0.5078435 0.068768874
0001e0 47 25 8c bf 45 32 53 3d 0e f3 16 3e 81 ca 60 bd
       -1.0948876 0.051561613 0.14741156 -0.054880623
0001f0 01 0f b0 bc d2 b8 fc bc 67 a8 e3 bc e3 ba de 3d
       -0.02149153 -0.030849848 -0.027790261 0.108754896

fc_out.bias f4 [2]
000000 68 e1 5f bd 47 1f ac 3d
       -0.054658324 0.08404403
