model_ckpts/sim_vgg.pth (torch_old, 72191 bytes, 6 tensors)

lstm_cell.weight_ih f4 [256, 3]
-0.060898583 -0.10677227 0.02347456 -0.025939612 0.03712362 -0.012720342 -0.10615867 0.11047446
-0.06646655 0.044270903 0.14167155 0.021588588 -0.05117597 -0.07581245 -0.10324032 -0.1267367
-0.0033275094 -0.11633253 0.0608526 -0.07023546 0.0653542 0.09885766 0.011023828 0.10343172
0.057734832 0.09828692 -0.037966475 -0.07185888 0.07516635 0.12628692 0.09751436 -0.09936778
-0.058204405 0.02550099 0.014488238 -0.054575916 0.07047883 0.13260417 -0.043789454 -0.007008337
-0.11567678 0.12106939 0.09788679 0.06536854 -0.10568351 -0.056857225 -0.10908606 0.09368099
0.07287684 0.08344516 0.09141911 0.0019154727 -0.059086405 -0.037254572 0.0620102 -0.080436036
0.0049130577 0.012444263 -0.10239833 0.095184475 0.1401691 0.14323159 -0.0016472442 -0.04825478
0.023018014 0.047769047 0.087982595 -0.09716162 0.0476528 0.00074520323 -0.012567747 0.036232878
-0.032890767 0.06980678 0.0241475 0.026411466 -0.06401709 -0.012846473 0.093055025 -0.007290739
0.108419836 -0.03951905 0.024502404 0.13582352 0.12612958 -0.031308554 -0.0055218637 0.07411001
0.07918195 -0.11527714 0.08227213 0.025612827 0.064033255 0.0006303228 0.062897 -0.03307545
-0.07132644 -0.0054147937 0.026851222 0.04841269 0.090649486 -0.08004366 0.053864963 0.05722972
-0.0108845625 -0.07965377 0.041891888 0.06407822 0.04851995 0.073783286 0.0043038074 0.06083651
0.090003654 0.11307044 -0.06079199 0.11835141 0.13980362 -0.108129606 0.06375433 -0.057506353
0.08863882 -0.0046180757 0.05156199 -0.004976381 -0.130438 -0.049484763 0.006602098 -0.056664776
-0.020279177 -0.05853956 0.043236043 0.049319316 -0.0048332657 -0.09437589 0.045097917 -0.12342005
-0.05912565 0.10770315 0.021234566 -0.02463673 0.056432813 -0.017066505 0.11893377 0.102435686
0.12142644 0.03366521 0.10627858 -0.09041394 0.14411172 0.1065714 -0.0019805976 -0.045639016
-0.11117988 -0.03186102 -0.032017443 -0.04781214 0.039351225 -0.09151718 0.10428851 0.10241854
-0.09693184 -0.08771123 0.097309254 -0.0721793 0.0003084376 0.090346515 0.01757017 -0.030560287
0.14233747 -0.08209534 -0.023090506 0.028318238 -0.079597406 -0.08351174 0.1044813 0.06632283
-0.0990888 0.13006118 -0.09572806 -0.00566497 -0.006832742 0.08049591 -0.053444594 -0.009507914
0.12562817 0.029418454 0.13869396 0.067125775 0.02854728 -0.0038963882 0.11240507 0.09972974
0.03629327 -0.008546047 0.023134762 0.0013285415 -0.004459665 0.06381063 -0.003811706 0.06564838
-0.12065997 -0.029765142 0.07385974 -0.048635077 0.107977964 0.110955775 0.026823888 -0.048700716
-0.010586362 0.0511595 0.10688076 0.09693526 0.12170747 0.027732052 0.12659733 -0.054987084
-0.06688405 0.06557993 0.0037695495 0.082009315 0.073330745 0.05401167 0.0050814953 -0.090051554
0.102764994 0.03221861 0.027082577 -0.035852943 0.12801373 -0.041964974 -0.03668716 -0.10097434
0.111852266 0.039109837 0.07189827 0.080516785 0.094366886 0.02109176 0.08150669 -0.056188628
0.062324822 -0.0966427 0.122606404 0.08157766 -0.0143051 -0.106521145 0.10569179 0.038281668
0.06533721 -0.096242025 -0.042978812 -0.049943473 0.121749304 0.05707571 0.12083409 -0.07985219
00000000: cb70 79bd 6bab dabd b84d c03c 4f7f d4bc
00000010: f00e 183d fb68 50bc b769 d9bd 6f40 e23d
00000020: 9d1f 88bd 6855 353d 5912 113e 8dda b03c
00000030: e59d 51bd 8f43 9bbd a96f d3bd 44c7 01be
00000040: 5812 5abb c03f eebd 9340 793d 9cd7 8fbd
00000050: 6cd8 853d e375 ca3d 499d 343c 02d4 d33d
00000060: 5c7b 6c3d a74a c93d bc82 1bbd c02a 93bd
00000070: d1f0 993d 5c51 013e 9cb5 c73d 5681 cbbd
00000080: be67 6ebd 74e7 d03c 1360 6d3c ff8a 5fbd
00000090: 3457 903d 63c9 073e 925c 33bd 31a6 e5bb
000000a0: f3e7 ecbd 3af3 f73d df78 c83d f1df 853d
000000b0: 9970 d8bd 1fe3 68bd 8368 dfbd d2db bf3d
000000c0: 7440 953d 4ce5 aa3d f139 bb3d 9910 fb3a
000000d0: 9604 72bd 4098 18bd 68fe 7d3d a6bb a4bd
000000e0: b7fd a03b 06e3 4b3c 37b6 d1bd 14f0 c23d
000000f0: 7d88 0f3e 4dab 123e 58e8 d7ba cea6 45bd
00000100: 4690 bc3c 7aa9 433d 3830 b43d acfc c6bd
00000110: 952f 433d be59 433a f4e8 4dbc ed68 143d
00000120: 78b8 06bd dbf6 8e3d fad0 c53c dc5c d83c
00000130: 641b 83bd 037a 52bc a293 be3d 27e7 eebb
00000140: 380b de3d bade 21bd 44b9 c83c 5215 0b3e
00000150: 1d28 013e 663d 00bd c0f0 b4bb fdc6 973d
00000160: 252a a23d 6c16 ecbd 4a7e a83d fed1 d13c
00000170: de23 833d 3f3c 253a 24d0 803d 207a 07bd
00000180: 9913 92bd 956e b1bb 18f7 db3c 634c 463d
00000190: 70a6 b93d eeed a3bd 82a1 5c3d b669 6a3d
000001a0: 2a55 32bc 8421 a3bd d496 2b3d 713b 833d
000001b0: dbbc 463d b11b 973d f406 8d3b b42f 793d
000001c0: d653 b83d 7a91 e73d 0601 79bd 3962 f23d
000001d0: ae28 0f3e 0e73 ddbd a191 823d c88b 6bbd
000001e0: 4588 b53d 3a53 97bb aa32 533d e910 a3bb
000001f0: 8a91 05be 89b0 4abd 6956 d83b 5319 68bd
00000200: 8420 a6bc 2dc7 6fbd 4718 313d 0d03 4a3d
00000210: 5f60 9ebb 2648 c1bd 98b8 383d a7c3 fcbd
00000220: bd2d 72bd 7893 dc3d 1df4 ad3c f8d2 c9bc
00000230: 1826 673d 0ecf 8bbc 8c93 f33d cdc9 d13d
00000240: 6dae f83d 88e4 093d 96a8 d93d f22a b9bd
00000250: 0692 133e 1b42 da3d eacc 01bb faef 3abd
00000260: 47b2 e3bd b380 02bd b924 03bd aad6 43bd
00000270: c02e 213d 5c6d bbbd 3795 d53d d0c0 d13d
00000280: 3384 c6bd f2a1 b3bd 134a c73d bed2 93bd
00000290: cbb5 a139 9807 b93d 51ef 8f3c 9159 fabc
000002a0: eac0 113e 9a21 a8bd 4d28 bdbc a6fb e73c
000002b0: f703 a3bd 3408 abbd 4bfa d53d 44d4 873d
000002c0: 12ef cabd c22e 053e 130d c4bd 36a1 b9bb
000002d0: 32e5 dfbb 0adb a43d b8e8 5abd 15c7 1bbc
000002e0: aca4 003e f8fe f03c ca05 0e3e 3d79 893d
000002f0: fcdb e93c 8c5a 7fbb a134 e63d 1b3f cc3d
00000300: 40a8 143d b804 0cbc 1d85 bd3c 7522 ae3a
00000310: 6222 92bb 26af 823d d1cd 79bb a872 863d
00000320: 931c f7bd 07d6 f3bc c643 973d 9335 47bd
00000330: 8d23 dd3d c83c e33d c5bd db3c 677a 47bd
00000340: 6c72 2dbc a08c 513d 4de4 da3d fe85 c63d
00000350: c441 f93d 542e e33c bba2 013e 233a 61bd
00000360: 81fa 88bd c54e 863d 8c0a 773b 80f4 a73d
00000370: 6e2e 963d 573b 5d3d ac82 a63b f36c b8bd
00000380: 7476 d23d a9f7 033d 48dc dd3c 89da 12bd
00000390: 0816 033e 77e3 2bbd 4745 16bd a3cb cebd
000003a0: cd12 e53d a331 203d 663f 933d fce5 a43d
000003b0: 6d43 c13d a0c8 ac3c fbec a63d 0c26 66bd
000003c0: 5048 7f3d 9cec c5bd 1119 fb3d 3012 a73d
000003d0: f05f 6abc c227 dabd f074 d83d 3dcd 1c3d
000003e0: 84cf 853d 8a1a c5bd 8d0a 30bd 8791 4cbd
000003f0: b357 f93d 38c8 693d dd77 f73d 8c89 a3bd

lstm_cell.weight_hh f4 [256, 64]
0.042021304 -0.08228253 0.10898124 0.09934364 -0.008371083 0.10537714 0.038511094 -0.0980861
0.121639654 -0.008979792 -0.07300138 -0.108627364 0.12210282 0.0802538 -0.013990228 0.0461953
0.07379767 0.12127744 -0.008043212 -0.07973538 -0.10694398 0.015913313 -0.102401584 -0.03510094
-0.05857029 0.08240539 0.007988956 -0.10178989 0.13708162 0.08770672 0.04279862 0.037298623
-0.007081502 0.04444031 0.044284318 0.13231976 0.03883501 -0.038308177 -0.043614272 -0.094719395
0.051220153 0.13438277 0.02105655 0.00652728 -0.06449075 -0.039282233 -0.031058935 -0.054630473
-0.06768637 -0.110659696 -0.108590506 0.066524856 -0.07200327 -0.05598726 -0.03688108 -0.049094506
-0.031477377 0.0874338 -0.045457542 0.030939145 0.13568701 -0.007032847 -0.029133799 0.08034775
0.11598711 0.06425325 0.11727301 -0.073991574 -0.07200791 0.09461562 -0.011678466 -0.020277262
-0.09476354 0.08402765 0.023405887 -0.01809396 -0.0756049 0.11846126 -0.058490485 0.12313401
-0.0094084665 -0.007067115 0.12975788 0.09631151 -0.111183055 0.052022967 -0.1176995 -0.058033153
-0.08547091 -0.11927591 0.019674176 -0.0972846 0.032384526 -0.029465757 0.021076996 -0.10523424
-0.12845506 -0.06779586 -0.053509273 0.01617106 0.11335968 0.067454964 -0.06662734 -0.027380671
-0.032326743 0.09747441 0.07699865 0.083954066 0.11350889 0.113898665 -0.040858902 0.023858402
0.09647542 0.109297335 -0.10811694 0.10090097 0.04094327 -0.03336156 -0.09199199 -0.09616519
0.010011794 -0.04356113 0.08474938 -0.10597986 0.026165396 0.07565543 -0.079894416 0.09351768
-0.023194745 -0.059335172 0.06542374 0.05295572 0.08854913 -0.11979088 0.079542466 -0.060135268
-0.07582052 0.03651438 -0.08285221 -0.06785994 -0.029918594 -0.048327312 -0.083683126 0.08000313
-0.06512694 0.10679981 0.017716728 -0.0721887 -0.10680811 0.061895072 0.023445556 0.07703468
0.050735753 -0.08185398 0.022373596 -0.071648866 -0.006962131 -0.056464527 0.017619675 -0.11076519
-0.115187354 0.033991642 0.014238532 0.007670184 -0.075519286 0.0005473556 -0.08986795 0.084222615
0.08020746 -0.13091606 -0.10650156 -0.04300534 -0.06396333 -0.103913635 -0.028067604 -0.078621395
-0.088898495 -0.06398664 -0.010804523 0.12124067 -0.08648388 0.024313591 -0.114372276 0.081030615
0.0023190444 -0.106361836 0.0075441943 0.025158763 -0.08917387 -0.041641187 -0.0031455767 0.051099326
0.12113586 -0.07036037 0.076127976 0.03740973 0.11407074 -0.08160421 -0.11798597 0.097705595
0.014842859 -0.114184864 -0.120917454 0.043363407 0.10052689 0.09739005 0.09442807 -0.0934381
0.048214804 -0.08296895 -0.069813795 -0.111023866 -0.092269115 0.010675931 -0.12381503 -0.03253975
-0.022097595 -0.07687068 0.11580531 -0.037026938 -0.005461227 -0.08412354 -0.009757992 0.025570037
-0.009798633 0.061684094 -0.054082654 -0.064005256 -0.060337592 -0.122703545 0.117910236 -0.07750627
0.1019143 -0.011892459 -0.07167555 -0.123361394 0.12500083 -0.039423246 0.050764207 -0.03431999
0.027614964 -0.085556366 0.12006422 0.09478585 -0.073152944 -0.0018704464 -0.08100095 0.0963367
0.04783755 -0.06763843 -0.07228472 -0.013277734 0.02616132 -0.07376623 -0.040740643 0.109323524
00000000: 881e 2c3d be83 a8bd 8e31 df3d ae74 cb3d
00000010: de26 09bc f8cf d73d cfbd 1d3d 5de1 c8bd
00000020: 361e f93d fa1f 13bc bf81 95bd 0678 debd
00000030: 0b11 fa3d 1b5c a43d 4537 65bc 4837 3d3d
00000040: 3c23 973d 4e60 f83d adc7 03bc 4e4c a3bd
00000050: 7205 dbbd a35c 823c ecb7 d1bd 01c6 0fbd
00000060: 67e7 6fbd 28c4 a83d 1ce4 023c 3877 d0bd
00000070: 205f 0c3e 959f b33d 9b4d 2f3d 71c6 183d
00000080: f20b e8bb 0b07 363d 7963 353d d57e 073e
00000090: 7611 1f3d 09e9 1cbd e1a4 32bd 3efc c1bd
000000a0: 39cc 513d a39b 093e c97e ac3c cbe2 d53b
000000b0: ba13 84bd 68e6 20bd 4f6f febc 34c4 5fbd
000000c0: 279f 8abd 8da1 e2bd b364 debd 2f3e 883d
000000d0: 7376 93bd e652 65bd 9e10 17bd 5217 49bd
000000e0: 6cee 00bd 7e10 b33d b031 3abd 1774 fd3c
000000f0: 89f1 0a3e cc73 e6bb 01aa eebc 5c8d a43d
00000100: a68a ed3d 3597 833d d52c f03d e588 97bd
00000110: e278 93bd d6c5 c13d 0957 3fbc 801c a6bc
00000120: 6313 c2bd b016 ac3d b4bd bf3c c939 94bc
00000130: bed6 9abd d19b f23d b893 6fbd af2d fc3d
00000140: f825 1abc 4293 e7bb 40df 043e f83e c53d
00000150: f1b3 e3bd 0916 553d 6f0c f1bd 2cb4 6dbd
00000160: 5f0b afbd ee46 f4bd bd2b a13c 263d c7bd
00000170: a3a5 043d 2c62 f1bc aaa9 ac3c 0d85 d7bd
00000180: b989 03be 8ed8 8abd 8a2c 5bbd 2c79 843c
00000190: 1f29 e83d d425 8a3d ea73 88bd 6e4d e0bc
000001a0: 0c69 04bd aaa0 c73d 78b1 9d3d 1cf0 ab3d
000001b0: 5977 e83d b443 e93d aa5b 27bd b272 c33c
000001c0: e894 c53d 48d7 df3d 6a6c ddbd 2ba5 ce3d
000001d0: 21b4 273d 22a6 08bd 4c66 bcbd 41f2 c4bd
000001e0: 8208 243c 286d 32bd 1591 ad3d f80b d9bd
000001f0: d058 d63c 3cf1 9a3d af9f a3bd 3386 bf3d
00000200: e802 bebc 7009 73bd e2fc 853d 19e8 583d
00000210: 3f59 b53d ec54 f5bd 29e7 a23d 6650 76bd
00000220: ca47 9bbd 1a90 153d 6bae a9bd 27fa 8abd
00000230: d717 f5bc dcf2 45bd 0f62 abbd aed8 a33d
00000240: 4661 85bd dcb9 da3d ac22 913c abd7 93bd
00000250: 36be dabd b085 7d3d e510 c03c 5cc4 9d3d
00000260: 4bd0 4f3d 0fa3 a7bd d548 b73c a4bc 92bd
00000270: 9622 e4bb 5947 67bd 2357 903c dcd8 e2bd
00000280: 59e7 ebbd d23a 0b3d bb48 693c 2b56 fb3b
00000290: dba9 9abd 6a7c 0f3a b00c b8bd e87c ac3d
000002a0: cf43 a43d dc0e 06be 7d1d dabd 5e26 30bd
000002b0: 35ff 82bd acd0 d4bd 08ee e5bc 4104 a1bd
000002c0: 6a10 b6bd 6d0b 83bd 7405 31bc 074d f83d
000002d0: 761e b1bd 4c2d c73c 033c eabd 61f3 a53d
000002e0: 1cfb 173b 3cd4 d9bd 4a35 f73b c019 ce3c
000002f0: caa0 b6bd f38f 2abd 0526 4ebb 874d 513d
00000300: 1416 f83d 1919 90bd fce8 9b3d f23a 193d
00000310: ec9d e93d 1c20 a7bd a1a2 f1bd df19 c83d
00000320: 762f 733c c1d9 e9bd 92a3 f7bd d49d 313d
00000330: 0be1 cd3d 6f74 c73d 8163 c13d 795c bfbd
00000340: e37c 453d a0eb a9bd 89fa 8ebd 7b60 e3bd
00000350: 97f7 bcbd 1aea 2e3c bc92 fdbd 6748 05bd
00000360: 0406 b5bc 606e 9dbd 562b ed3d 8fa9 17bd
00000370: 18f4 b2bb f648 acbd fcdf 1fbc 4178 d13c
00000380: 728a 20bc 76a8 7c3d c685 5dbd 3015 83bd
00000390: 8d24 77bd ff4b fbbd ec7a f13d 9bbb 9ebd
000003a0: 72b8 d03d 97d8 42bc a1ca 92bd e6a4 fcbd
000003b0: 3800 003e 457a 21bd 21ee 4f3d 1e93 0cbd
000003c0: c738 e23c 2d38 afbd 3be4 f53d 151f c23d
000003d0: 36d1 95bd c429 f5ba d3e3 a5bd 2d4c c53d
000003e0: 4ff1 433d 0486 8abd 030a 94bd da8a 59bc
000003f0: 4450 d63c c012 97bd a9df 26bd 03e5 df3d

lstm_cell.bias_ih f4 [256]
-0.035251383 -0.004316316 -0.052485373 0.00096152385 0.01846958 0.09438587 -0.10923561 -0.09662173
0.022811892 -0.111718036 -0.02082552 -0.011806272 0.04733248 -0.0892229 0.076574385 0.07253004
-0.1100402 0.018197237 0.1330032 -0.024045128 0.127737 -0.07037202 0.046063557 0.03213791
-0.07287881 0.01642066 -0.031135635 0.05692858 -0.06936597 -0.08186228 0.0034730996 0.022440044
0.032906465 -0.030472998 0.0099184755 -0.068426535 -0.05621648 -0.07605803 0.11188677 0.07613645
-0.11183475 -0.021478496 0.006405295 -0.004886004 0.06351769 0.066956095 0.01575704 -0.072186776
-0.029871386 -0.055975813 -0.10641765 -0.067670435 -0.05018621 -0.013087378 -0.07661008 -0.050869267
0.094342835 -0.04215148 -0.054426074 0.12009935 -0.10315768 0.08872411 0.116234645 -0.02642117
-0.047219228 0.016101666 -0.06367401 0.018008443 -0.09234494 -0.102087066 0.11882421 0.0638672
0.08273867 0.06972173 -0.027392296 0.090593904 -0.0967994 0.058661 0.12584166 -0.02825828
0.07417752 -0.11955599 0.043794084 0.003253636 0.08655835 -0.11309896 0.00980378 0.009775775
0.13268872 -0.018338067 -0.028142754 -0.07058403 -0.0076667313 0.014210292 -0.037843425 0.021471325
-0.030301154 -0.08218246 -0.095511734 0.02865756 0.00466479 -0.08299843 -0.086892605 -0.09427853
-0.08204172 0.109345585 0.017614184 -0.06748759 -0.0754912 -0.035808362 0.01923708 -0.08787585
0.049306385 0.12638587 -0.046907693 0.024749134 -0.07421386 -0.0949654 -0.012942275 -0.09851374
0.035240125 0.10870238 0.08345409 -0.08570864 -0.051337156 0.012964037 0.010999666 0.0073946705
0.031446017 -0.06699206 0.025323596 0.1193237 0.11434255 -0.108828135 -0.035595264 -0.039533067
-0.10747567 0.0886055 0.021939874 -0.046976965 0.0445077 -0.08856759 -0.047067728 -0.048251286
-0.01964496 -0.045046534 -0.04979447 0.050263498 -0.10414769 0.024553329 0.024394242 -0.1253024
-0.09743683 0.025137814 -0.0826097 -0.10110941 -0.11727587 -0.13120325 -0.10328436 0.07675824
0.09585232 0.04763929 -0.1153712 -0.00841016 0.07991457 -0.0968302 0.06604815 -0.05106396
-0.04728726 -0.10838577 0.04071114 0.054239213 -0.044591833 0.10815731 0.035006545 -0.124744214
-0.0047814404 0.09708519 -0.12330865 -0.11281335 -0.022013769 -0.031281907 0.03603363 0.008809253
0.10545749 -0.06665694 0.023245752 0.12835293 -0.095130704 0.02495027 0.113319695 -0.08944958
0.049977 -0.021950297 -0.009734775 -0.07079824 -0.08392143 -0.0890553 0.03240392 -0.033282343
0.023499375 0.10711545 -0.022672987 -0.12381392 0.09958171 0.07055784 -0.005764849 -0.060138118
0.019481245 0.032769065 -0.0028242301 0.02077874 0.08481672 -0.0999918 -0.085785925 -0.03415148
0.09040831 -0.04232466 -0.067795515 0.010127042 -0.045668084 0.05332239 0.11999341 -0.113777265
-0.111862995 -0.07590516 -0.12688354 0.110408984 -0.0074259825 -0.09591706 -0.074717954 -0.06508956
-0.08837899 -0.08711564 0.128321 0.05991727 0.06567636 0.025825132 -0.046043 -0.055912383
0.035642453 -0.08104974 -0.01743573 -0.09152516 0.07772141 0.11846183 -0.06715744 -0.036334865
0.006389774 -0.024323313 0.03930559 0.05494553 -0.11141945 0.1246674 -0.015032463 -0.06844952
00000000: c163 10bd e26f 8dbb e7fa 56bd c60e 7c3a
00000010: 844d 973c 614d c13d ebb6 dfbd 9de1 c5bd
00000020: 01e0 ba3c 6dcc e4bd 489a aabc 186f 41bc
00000030: b4df 413d 7fba b6bd 08d3 9c3d a18a 943d
00000040: c25c e1bd 5f12 953c fe31 083e 4afa c4bc
00000050: 7dcd 023e 351f 90bd 24ad 3c3d 0ba3 033d
00000060: 7c41 95bd 9f84 863c 2910 ffbc f12d 693d
00000070: bf0f 8ebd 69a7 a7bd f19c 633b 2fd4 b73c
00000080: eec8 063d 82a2 f9bc 1a81 223c 3623 8cbd
00000090: 4043 66bd 50c4 9bbd e424 e53d 6ded 9b3d
000000a0: 9e09 e5bd acf3 afbc 82e3 d13b c61a a0bb
000000b0: 9015 823d 4720 893d e814 813c a9d6 93bd
000000c0: d6b4 f4bc e546 65bd 7ff1 d9bd cc96 8abd
000000d0: 0e90 4dbd 716c 56bc bfe5 9cbd 4b5c 50bd
000000e0: d136 c13d 08a7 2cbd e0ed 5ebd a6f6 f53d
000000f0: 5544 d3bd fcb4 b53d 6e0c ee3d 3671 d8bc
00000100: f368 41bd a4e7 833c 8567 82bd 7186 933c
00000110: 581f bdbd 0613 d1bd 1b5a f33d cecc 823d
00000120: e472 a93d 44ca 8e3d cf65 e0bc 4c89 b93d
00000130: c43e c6bd 8446 703d a3dc 003e e97d e7bc
00000140: 62ea 973d c5d9 f4bd 6d61 333d f43a 553b
00000150: 8145 b13d 6da0 e7bd 09a0 203c 922a 203c
00000160: 8ddf 073e b739 96bc a28b e6bc 5c8e 90bd
00000170: 3439 fbbb 49d2 683c b501 1bbd a2e4 af3c
00000180: 203a f8bc 474f a8bd a89b c3bd 42c3 ea3c
00000190: 18db 983b 15fb a9bd c0f4 b1bd 1a15 c1bd
000001a0: 7d05 a8bd 94f0 df3d 9f4b 903c ef36 8abd
000001b0: 219b 9abd caab 12bd 1597 9d3c 41f8 b3bd
000001c0: 7ef5 493d 4c6b 013e 4822 40bd b2be ca3c
000001d0: 70fd 97bd 387d c2bd d60b 54bc 92c1 c9bd
000001e0: f357 103d 5a9f de3d fae9 aa3d 0388 afbd
000001f0: e946 52bd 1d67 543c f137 343c fe4e f23b
00000200: 8acd 003d 2233 89bd 6e73 cf3c fc5f f43d
00000210: 6d2c ea3d 49e1 debd 57cc 11bd 6ded 21bd
00000220: 341c dcbd cd76 b53d 40bb b33c eb6a 40bd
00000230: b54d 363d ed62 b5bd 17ca 40bd 24a3 45bd
00000240: 78ee a0bc b782 38bd 49f5 4bbd 19e1 4d3d
00000250: 624b d5bd 1024 c93c 6fd6 c73c 464f 00be
00000260: f68c c7bd d1ed cd3c 462f a9bd 7312 cfbd
00000270: 552e f0bd 255a 06be c086 d3bd 6d33 9d3d
00000280: 394e c43d 6b21 433d bc47 ecbd c5ca 09bc
00000290: 40aa a33d e94e c6bd 4144 873d 7128 51bd
000002a0: 49b0 41bd 5cf9 ddbd b9c0 263d f029 5e3d
000002b0: eda5 36bd 9481 dd3d 0663 0f3d e579 ffbd
000002c0: a1ad 9cbb 9ad4 c63d 3f89 fcbd b00a e7bd
000002d0: 3856 b4bc 7521 00bd 0098 133d af54 103c
000002e0: 19fa d73d 6f83 88bd e06d be3c f36e 033e
000002f0: e3d3 c2bd 8264 cc3c 2814 e83d 5731 b7bd
00000300: afb4 4c3d 1cd1 b3bc 9b7e 1fbc abfe 90bd
00000310: 00df abbd a062 b6bd f9b9 043d 1153 08bd
00000320: c381 c03c 585f db3d b3bc b9bc 2792 fdbd
00000330: 7ff1 cb3d a180 903d 0fe7 bcbb 6353 76bd
00000340: 2297 9f3c db38 063d b816 39bb 2d38 aa3c
00000350: 63b4 ad3d 80c8 ccbd 88b0 afbd 6ce2 0bbd
00000360: fe27 b93d 9f5c 2dbd 60d8 8abd e5eb 253c
00000370: 750e 3bbd 9468 5a3d 1bbf f53d 0e04 e9bd
00000380: 6d18 e5bd 2a74 9bbd c2ed 01be 1b1e e23d
00000390: a855 f3bb 2a70 c4bd ba05 99bd ad4d 85bd
000003a0: 0b00 b5bd af69 b2bd 9566 033e d06b 753d
000003b0: 5481 863d 3a8f d33c 9697 3cbd 6204 65bd
000003c0: d2fd 113d 68fd a5bd 60d5 8ebc 8b71 bbbd
000003d0: 672c 9f3d 1e9c f23d d789 89bd ded3 14bd
000003e0: 4f61 d13b af41 c7bc e6fe 203d 900e 613d
000003f0: e12f e4bd 9f51 ff3d b84a 76bc 432f 8cbd

lstm_cell.bias_hh f4 [256]
-0.075307764 -0.078745596 0.023310604 0.0062635657 0.06267535 0.12438 0.1316969 0.12549129
0.092315935 0.05875297 0.049050983 0.07421576 -0.01593623 -0.0069279056 -0.06593561 -0.13116294
0.01905185 -0.050823115 0.05963959 -0.065327145 -0.07638508 0.043805342 -0.050264895 -0.104215354
0.02824071 -0.10847101 -0.08724562 0.13558562 0.049544707 -0.104685746 0.061118506 0.03330216
-0.08177845 -0.085136615 -0.005592115 0.104408525 0.08488613 0.073570296 -0.107524425 -0.017576393
0.028000904 -0.016189346 0.043551914 -0.104829304 0.057691146 0.1357304 -0.051292025 -0.033040363
0.09466027 0.107879005 -0.053375512 -0.047482964 0.06884576 -0.03688716 0.12421211 -0.1127369
0.05288441 -0.079899974 0.007911649 -0.07474023 0.023808299 0.13359384 -0.020768614 -0.0037361044
-0.004933757 -0.093028106 0.01571214 0.030509342 0.10900548 -0.08575569 0.07592956 -0.0971826
-0.023624362 0.13255456 -0.120644405 0.08938356 0.025016157 0.032522686 0.00325803 0.05788203
-0.110666 -0.07459793 0.0830654 0.010174451 0.017695282 0.0766943 -0.040086944 0.059898287
-0.01620893 0.013162994 -0.07149009 -0.029994484 0.10497472 -0.008335018 -0.00785126 -0.0345128
0.06829599 0.06352019 -0.06508477 -0.11068802 0.10611357 -0.112186514 -0.020689681 -0.10210487
0.09787876 -0.060147613 -0.027940871 0.017547963 0.10050411 0.13759084 0.11689607 0.0020619438
0.0062066317 0.029126424 0.07665662 -0.11726737 0.04401159 -0.02175861 0.060390946 0.023234386
-0.060580093 -0.038404305 0.0029795626 0.04181553 0.104586445 0.08064834 -0.066437334 -0.045666948
-0.09972735 0.094688565 -0.008803054 -0.028362367 -0.08843658 -0.10630404 -0.13232483 0.11506412
-0.099429235 0.020711329 0.059343882 -0.057970136 -0.06259207 0.03099518 0.06814515 -0.10880157
-0.065852605 0.060043532 -0.04843082 -0.12248043 0.042040803 -0.08416725 0.08603416 -0.022098104
0.113320395 -0.053330466 0.11428684 0.043896012 0.05299174 -0.011256328 -0.10725227 0.08730442
0.035203118 -0.02057169 0.08011493 -0.01159634 -0.11722234 -0.0038837066 0.1297626 -0.04428043
-0.051388998 0.037793506 -0.07288909 0.1358573 0.019575402 0.046569206 0.009465152 -0.07973101
-0.07191629 0.051841155 -0.08116824 0.06238895 0.12584749 -0.05024267 0.11102836 -0.10521256
0.10698759 0.069264404 -0.010806412 -0.06265127 0.08863089 0.12152708 0.12212607 0.012545508
-0.046906475 0.10876854 0.011095765 -0.015832046 0.09848413 -0.110961124 -0.028165916 0.063950054
-0.019244498 -0.022452941 -0.123596594 -0.032348376 0.07692159 -0.030398695 0.08685993 -0.060419288
-0.09229828 0.081853636 0.04899895 0.11661456 -0.0015568549 -0.079824075 -0.11100927 -0.046528727
-0.03722625 0.097256675 -0.08739622 -0.09827264 0.029289298 0.06802216 0.030866107 -0.11110616
-0.04586291 0.08472502 -0.012839449 -0.0066971304 0.08787322 0.11824834 -0.0664704 0.084430076
-0.0049607717 0.11687324 0.03858479 0.0034585972 0.017905215 0.103875756 -0.11991653 -0.08658103
-0.014193331 -0.009864205 -0.10433471 -0.096344315 -0.027061356 -0.10814339 -0.005379052 -0.02869998
0.0699324 0.026664551 0.13382314 0.012817693 -0.04999338 -0.057264797 -0.02011445 -0.056290016
00000000: f53a 9abd 5f45 a1bd e1f5 be3c 993e cd3b
00000010: ef5b 803d f1ba fe3d 8ddb 063e ca80 003e
00000020: 2310 bd3d f4a6 703d afe9 483d 6ffe 973d
00000030: b28c 82bc 7c03 e3bb 4009 87bd 944f 06be
00000040: a012 9c3c e62b 50bd a548 743d 3dca 85bd
00000050: c86f 9cbd 3b6d 333d 90e2 4dbd dc6e d5bd
00000060: 1059 e73c 0d26 debd d5ad b2bd f5d6 0a3e
00000070: 64ef 4a3d 7b65 d6bd 6657 7a3d d967 083d
00000080: 767b a7bd 1b5c aebd 103e b7bb 23d4 d53d
00000090: c8d8 ad3d 06ac 963d c435 dcbd 5efc 8fbc
000000a0: 2762 e53c 859f 84bc 7e63 323d bfb0 d6bd
000000b0: 8d4d 6c3d e9fc 0a3e 9617 52bd 5555 07bd
000000c0: 3edd c13d abef dc3d 48a0 5abd 7f7d 42bd
000000d0: 01ff 8c3d fe16 17bd eb62 fe3d 9be2 e6bd
000000e0: 539d 583d 99a2 a3bd dc9f 013c 6811 99bd
000000f0: 9f09 c33c d3cc 083e f122 aabc 6ed9 74bb
00000100: 5aab a1bb 8585 bebd bfb6 803c baee f93c
00000110: 443e df3d aea0 afbd f580 9b3d ac07 c7bd
00000120: e187 c1bc 62bc 073e 6a14 f7bd ba0e b73d
00000130: afee cc3c 8236 053d ac84 553b b515 6d3d
00000140: dba4 e2bd cdc6 98bd 311e aa3d beb2 263c
00000150: b2f5 903c e711 9d3d 3532 24bd e857 753d
00000160: 97c8 84bc 99a9 573c 6569 92bd feb6 f5bc
00000170: fcfc d63d 998f 08bc 92a2 00bc 4b5d 0dbd
00000180: c5de 8b3d e016 823d 2a4b 85bd 67b0 e2bd
00000190: 1252 d93d 0bc2 e5bd 687d a9bc 5c1c d1bd
000001a0: a974 c83d 585d 76bd 41e4 e4bc bfc0 8f3c
000001b0: 19d5 cd3d 9de4 0c3e 3567 ef3d ad21 073b
000001c0: 0061 cb3b 8a9a ee3c 25fe 9c3d e029 f0bd
000001d0: 7f45 343d 1d3f b2bc 7f5c 773d 0a56 be3c
000001e0: d522 78bd d54d 1dbd c444 433b c346 2b3d
000001f0: 6b31 d63d f52a a53d 4c10 88bd 440d 3bbd
00000200: da3d ccbd 14ec c13d af3a 10bc 3258 e8bc
00000210: 3d1e b5bd efb5 d9bd 2980 07be bda6 eb3d
00000220: 8ea1 cbbd ceaa a93c 9212 733d 1872 6dbd
00000230: 4530 80bd 9be9 fd3c af8f 8b3d 5cd3 debd
00000240: bbdd 86bd 35f0 753d 655f 46bd 05d7 fabd
00000250: fa32 2c3d e15f acbd ad32 b03d 1507 b5bc
00000260: 8614 e83d 0c71 5abd 380f ea3d 4ecc 333d
00000270: de0d 593d 766c 38bc 14a7 dbbd a9cc b23d
00000280: 2531 103d f685 a8bc 4c13 a43d 93fe 3dbc
00000290: 4412 f0bd c985 7ebb 7de0 043e 655f 35bd
000002a0: 457d 52bd 5dcd 1a3d e046 95bd 2d1e 0b3e
000002b0: 985c a03c 5abf 3e3d ba13 1b3c 034a a3bd
000002c0: d948 93bd 6457 543d 893b a6bd 8e8b 7f3d
000002d0: 2ade 003e 42cb 4dbd d662 e33d af79 d7bd
000002e0: 4f1c db3d 7fda 8d3d 610d 31bc 4f4f 80bd
000002f0: 1d84 b53d 31e3 f83d 3c1d fa3d ad8b 4d3c
00000300: 0121 40bd 0ac2 de3d 03cb 353c 35b2 81bc
00000310: 0cb2 c93d 963f e3bd 35bc e6bc 3ff8 823d
00000320: a3a6 9dbc 3bef b7bc 3620 fdbd bb7f 04bd
00000330: 1189 9d3d af06 f9bc 9ee3 b13d 377a 77bd
00000340: e106 bdbd e1a2 a73d 1fb3 483d 9dd3 ee3d
00000350: 620f ccba ce7a a3bd d458 e3bd e894 3ebd
00000360: 8d7a 18bd 822e c73d cafc b2bd 2a43 c9bd
00000370: 1cf0 ef3c 344f 8b3d ebda fc3c a08b e3bd
00000380: bfda 3bbd 5084 ad3d 8d5c 52bc 9a73 dbbb
00000390: e0f6 b33d 302c f23d a221 88bd ade9 ac3d
000003a0: f88d a2bb 3d5b ef3d 160b 1e3d a2a9 623b
000003b0: f5ad 923c d0bc d43d cc96 f5bd 6551 b1bd
000003c0: 258b 68bc 799d 21bc 70ad d5bd 2b50 c5bd
000003d0: c7af ddbc 487a ddbd c242 b0bb 381c ebbc
000003e0: b838 8f3d 9e6f da3c ef08 093e 4d01 523c
000003f0: dcc5 4cbd 7e8e 6abd 0fc7 a4bc 5c90 66bd

fc_out.weight f4 [2, 64]
-0.06367151 -0.023223039 -0.10193462 0.01954482 -0.09565474 0.13258335 0.108793736 0.043647353
0.11314186 -0.090846404 0.038165957 -0.0724694 0.098806575 0.045342643 0.09010706 0.054355334
-0.029079635 -0.10237968 0.10284588 0.12700841 0.04426908 0.08785794 -0.0707142 0.042848542
-0.08406964 0.0825711 0.018715663 0.03710525 -0.021277865 0.13368934 0.06264447 0.09980616
0.055427033 -0.102281526 0.12019897 -0.03950095 0.005222233 0.111035995 -0.083441235 -0.08537049
-0.0060243406 0.10605489 0.045242723 -0.11957688 0.0029582737 -0.037856914 0.093656935 0.07773099
0.13071765 -0.10537901 0.102253065 0.09382263 -0.054657593 0.10789679 -0.08396287 -0.007185761
0.06992517 0.028016867 0.029409084 -0.12657493 0.0862575 -0.097036526 -0.08216116 0.02517622
0.015631443 0.040148098 -0.0363199 0.027960826 -0.058473777 -0.09991036 -0.11157473 0.112459086
-0.12921648 0.037398256 0.02218125 0.060181882 -0.052773014 0.094078965 -0.05496546 0.10852368
-0.035638627 -0.0894883 -0.1099959 -0.083442666 -0.030742126 0.007492546 -0.025471196 0.017701108
0.0071679624 -0.014890964 0.09026786 -0.009654545 -0.09457302 -0.017455839 -0.037662346 0.09772794
0.12627761 -0.031868502 0.09549142 0.030000227 0.0075810393 0.08878908 0.07498384 -0.1077419
-0.0025568206 0.029492196 0.04072237 -0.11071979 -0.024100123 0.104270555 0.12771827 -0.020900125
-0.12968537 0.042454015 0.04519089 -0.046119776 0.1225472 0.024848169 0.070931606 -0.036322206
-0.046182152 0.117836446 0.12969743 0.079329476 0.032464765 0.010851332 0.12576467 0.0551607
00000000: 3566 82bd 3e3e bebc 19c3 d0bd 751c a03c
00000010: a2e6 c3bd eec3 073e 40cf de3d 91c7 323d
00000020: ebb6 e73d ae0d babd e853 1c3d d66a 94bd
00000030: 1a5b ca3d 35b9 393d 0d8a b83d b3a3 5e3d
00000040: 6a38 eebc 70ac d1bd dca0 d23d 7e0e 023e
00000050: 7f53 353d ddee b33d 9bd2 90bd f481 2f3d
00000060: b42c acbd 091b a93d 9751 993c adfb 173d
00000070: eb4e aebc dce5 083e be4b 803d 2c67 cc3d
00000080: 7507 633d fa78 d1bd e12a f63d c0cb 21bd
00000090: 441f ab3b d766 e33d 3de3 aabd b9d6 aebd
000000a0: d567 c5bb 4e33 d93d 6f50 393d b9e4 f4bd
000000b0: 99df 413b da0f 1bbd 35cf bf3d 6d31 9f3d
000000c0: d9da 053e f3d0 d7bd 0e6a d13d 1426 c03d
000000d0: a4e0 5fbd fef8 dc3d baf4 abbd 8876 ebbb
000000e0: ed34 8f3d a183 e53c 52eb f03c dc9c 01be
000000f0: c6a7 b03d 16bb c6bd 1c44 a8bd 5c3e ce3c
00000100: 830d 803c 5572 243d 2dc4 14bd 1a0e e53c
00000110: 3382 6fbd ce9d ccbd 4b81 e4bd f350 e63d
00000120: 5351 04be ea2e 193d 74b5 b53c 4781 763d
00000130: 8428 58bd 79ac c03d 7623 61bd aa41 de3d
00000140: cff9 11bd a445 b7bd 8845 e1bd fde3 aabd
00000150: e9d6 fbbc 0884 f53b f8a8 d0bc ea01 913c
00000160: 3ae1 ea3b 3bf9 73bc 5bde b83d 192e 1ebc
00000170: 80af c1bd 8cff 8ebc d543 1abd 9625 c83d
00000180: eb4e 013e 8c88 02bd 0191 c33d 09c3 f53c
00000190: 5e6a f83b 0dd7 b53d 2191 993d c9a7 dcbd
000001a0: 5590 27bb 9e99 f13c 80cc 263d 0fc1 e2bd
000001b0: 9f6d c5bc cd8b d53d 94c8 023e bd36 abbc
000001c0: 3ecc 04be 43e4 2d3d 151a 393d 17e8 3cbd
000001d0: 07fa fa3d 638e cb3c 9744 913d 98c6 14bd
000001e0: 7f29 3dbd 3c54 f13d 67cf 043e 7e77 a23d
000001f0: c6f9 043d c9c9 313c 74c8 003e 30f0 613d

fc_out.bias f4 [2]
-0.13295017 0.09998882
00000000: 1724 08be f0c6 cc3d
